models/ema_transformer_v1_2_fixed.onnx (onnx, 261603 bytes, 4 tensors)

model.action_head.0.bias f4 [48]
000000 94 7c 83 bb 2d f0 df bd 30 2b 57 3c a5 6d 3b bd
       -0.0040126536 -0.10934482 0.013132855 -0.045758862
000010 c4 66 d7 3d f8 c1 73 3d df 63 f6 3d c7 c5 9a bd
       0.10517648 0.059511155 0.12030768 -0.07557254
000020 67 32 8e 3d ad ea 47 3d f4 66 d3 bd 9d fd c7 3d
       0.06943207 0.04880779 -0.10322371 0.0976517
000030 ef f9 17 bd e3 7d f3 3b 42 56 d2 bc f9 0b 9a 3d
       -0.03710359 0.0074307784 -0.025675897 0.07521815
000040 65 55 cc bc 38 2a 87 bd a3 48 c2 3d 97 e2 32 3d
       -0.024943063 -0.065998495 0.094865106 0.043673124
000050 f3 83 ba 3d a7 f0 de 3c be 10 81 bc e7 5e a4 bd
       0.091071986 0.027214361 -0.015755054 -0.08025914
000060 fe 17 83 bd 96 f8 e6 3c 5a 0d c9 3d 54 f4 06 3d
       -0.064010605 0.028194707 0.09817 0.032947853
000070 23 ac 88 bd b6 83 e1 bb 44 f0 5b 3c 96 23 3a 3d
       -0.066734575 -0.0068821562 0.013423983 0.045444094
000080 d6 17 e0 bc e6 a6 06 3e 00 7d d2 3d 46 8e 88 bd
       -0.027355116 0.13149604 0.10277748 -0.066677615
000090 8c 20 3c bc 8d 69 ad bb ba c2 1f bd df dd 9e 3d
       -0.011482369 -0.0052921236 -0.039004065 0.07757162
0000a0 e1 ab 31 3d e9 06 9b bd cf f6 ba 3c 77 b4 27 bc
       0.043376807 -0.075696774 0.022822766 -0.010235897
0000b0 0d 36 02 3e c5 8f 0a be 86 d6 1b bd 34 27 3e bd
       0.12715931 -0.13531406 -0.038046382 -0.046424106

model.action_head.3.bias f4 [3]
000000 04 bb 55 bd 90 82 b4 bc 70 27 83 bd
       -0.052180305 -0.022034913 -0.064040065

model.confidence_head.0.bias f4 [24]
000000 59 20 3a 3e 1c 68 a9 bd a6 6d 93 3d 5a e8 ec 3d
       0.18176402 -0.082718104 0.07198648 0.11567755
000010 69 9f 81 bd 9f 97 13 be f0 c0 32 bc b1 04 2d 3d
       -0.06329233 -0.14413308 -0.010910258 0.042240802
000020 72 31 95 3d 77 51 dc 3d 0c 6d 19 3e 34 c9 a0 3d
       0.072848216 0.10757726 0.14983004 0.078508765
000030 69 bb 4f 3d 6f 14 a9 3d 6f 52 74 3d ff 90 6d 3d
       0.050715838 0.082558505 0.059648927 0.057999607
000040 97 be 8b bc a4 0b ed bd 14 d0 18 3e 72 1e 9b 3d
       -0.017058654 -0.11574486 0.14923126 0.07574166
000050 3a f8 07 3e 66 8a 18 3e 94 c8 53 bd 59 93 24 3c
       0.13278285 0.14896545 -0.051704958 0.010044896

val_288 f4 [24, 1]
000000 76 da f8 3c 46 4c d6 bd f9 d0 cd 3d e4 50 11 3e
       0.030377608 -0.10463767 0.10049624 0.14191014
000010 d3 5c 32 3d ba 1d 06 be 50 62 1f bd c9 8b 05 3d
       0.043545555 -0.13097277 -0.038912117 0.032604013
000020 b3 3d f9 3c d6 f5 49 3d 8d 11 4a 3d 26 17 d2 3d
       0.030424928 0.049306713 0.049333144 0.102583215
000030 ce 97 b9 3d 32 8b 3d 3d 78 06 c2 3d b7 25 47 3d
       0.090621576 0.046275325 0.0947389 0.048619952
000040 f1 c4 2f 3d 4c 29 bf bd a5 90 46 3d b0 7b 5c 3d
       0.042912427 -0.09334049 0.048477788 0.053828895
000050 f2 1d 1f 3d c5 a4 6b 3d 15 85 99 bd 4c 6e 65 3b
       0.038846917 0.057530183 -0.074960865 0.003500837
