models/flag_pennant_v2_4.onnx (onnx, 245266 bytes, 2 tensors)

model.action_head.0.bias f4 [48]
0	0xbd3f95f8	-0.04677388
1	0x3d94347f	0.07236575
2	0x3ccf1909	0.025280492
3	0xbd900085	-0.07031349
4	0x3d8a5939	0.06755299
5	0xbd45fcdb	-0.048336845
6	0x3dab8169	0.083742924
7	0x3df87198	0.12131041
8	0x3e0cb9d6	0.13742766
9	0xbba5b241	-0.00505665
10	0xbd520a66	-0.051279448
11	0x3d86c5f6	0.06580727
12	0x3d2da4e2	0.042393573
13	0x3d43a611	0.047765795
14	0x3da83d2c	0.082147926
15	0x3d8572c5	0.06516031
16	0xbd61bbc0	-0.055110693
17	0x3ba752b3	0.005106294
18	0xbd0eb0ed	-0.0348367
19	0x3e39fbce	0.18162462
20	0x3c113416	0.008862516
21	0x3d9a3d42	0.07531215
22	0xbda9e044	-0.082947284
23	0xbdd39da8	-0.10332805
24	0x3d7b5af6	0.061366044
25	0x3dd9c49d	0.10633204
26	0x3de20249	0.11035592
27	0x3de9bd78	0.114130914
28	0xbcc7128b	-0.024300834
29	0x3d8a896f	0.06764495
30	0x3ce0493f	0.027378676
31	0x3d270c20	0.040783048
32	0x3dc0b756	0.094099686
33	0x3d82ce2c	0.063869804
34	0xbbd2f3fb	-0.006437776
35	0x3e13bba8	0.14427054
36	0xbdc1601d	-0.0944216
37	0x3cdb0b45	0.026738772
38	0xbda7be0a	-0.08190544
39	0x3dec1dc7	0.11529117
40	0xbd6f4abe	-0.05842089
41	0x3d753ad6	0.059870563
42	0x3dc1e8cf	0.09468233
43	0xbc061a37	-0.008184961
44	0xbb98a5ab	-0.004658421
45	0x3e1b52c7	0.15168296
46	0xbd9d3ef7	-0.07678025
47	0x3d5317c0	0.05153632

model.action_head.3.bias f4 [3]
0	0x3c911c6d	0.01771375
1	0xbda67d99	-0.081294246
2	0xbd6cb1c5	-0.05778672
