models/model_pivot_reversal_3min_NQ_adx20_prod.onnx (onnx, 229939 bytes, 8 tensors)

fc.weight f4 [3, 64]
00000000: 7bfd 11be fd34 2a3e c3b4 e53d c0c2 4c3e
00000010: 9f89 87bd 7db3 0bbe 4dc8 5e3e 942a 8a3c
00000020: f4ee 413e 8c2c 373e 6910 48be 65dc 3f3e
00000030: c01e 46be 71de 41bd 22d2 7bbc 780a 5c3e
00000040: 3c33 ba3d 13b2 073e 768a 853d 3e5f 973d
00000050: 7b4f 513e 2c4f 193e 7ec3 32be 2339 1fbd
00000060: 7221 1f3e 9cca 4ebd 78cb 103e a9d6 2a3c
00000070: 7501 833d 9b11 7eba d00e 373e dd17 2dbe
00000080: 0f5c 693e 73fb cb3c e11a 00be e81b 893d
00000090: ff0a 15be 1a47 c2bd 26cd a7bd f353 efbb
000000a0: 96e8 e43c 63cf fc3d 73fa 323e 4e50 16be
000000b0: 95ac 3dbd 962e 373e c53f 713e 3ae9 f1bd
000000c0: 9053 52bd 363d d4bd 6d14 a53d da39 4dbe
000000d0: f0e1 51be 5e8e d8bd aa64 38be eb2b 63be
000000e0: 1ebf bcbd 79bb 02be ecde ab3c 5b1f e0bd
000000f0: 8f0c 0cbe 0cc9 28bd 7822 013e a97b 723d
00000100: f2a3 44be e91e a3bd 5af1 37be da62 e2bd
00000110: c178 393e e228 3fbe 028c c93c 9249 56be
00000120: 2ae3 183e f5c0 aebe 6f70 9c3c a0e4 473e
00000130: cf5d 6c3e 85e7 a73c b62a dabc 6a9a 3ebe
00000140: b8d4 c7bb 934c 393e 22ad ed3d 8d2b 20be
00000150: 1968 13be d525 8bbe bd3e 563e fc40 ffbd
00000160: 6e51 243e 60b7 30bc c8cf 40be db6f c23e
00000170: 288b 8abe ab87 59be ec35 b2bd d02f 77be
00000180: 9128 7ebb 4b95 f1bd e213 35be 1f12 10be
00000190: c490 7d3e d690 a63e 36cf a8bd 3ef4 5fbe
000001a0: a11d 4f3e 5686 15be 817e 82bd dbf9 21be
000001b0: 83d8 9bbe 458b 33be 33ee 8d3d d51f 83bd
000001c0: 12b7 e5bd 9510 103e 7510 cebc 83f8 733e
000001d0: f24e 5e3e 9ae7 d63d 821e a53e 3056 133d
000001e0: 3eb7 d5bd 0278 5abe ac62 b7bd 7805 09be
000001f0: a94b 1e3e 29ae 203d 5ef7 973d b927 91be
00000200: c55f b03e 9146 77bd 1a81 003e 54d9 3a3e
00000210: 7421 61be 5a3f b83e 965b 4fbe ea83 413e
00000220: 7b20 2dbe eb26 843e f863 873e 870d 2cbe
00000230: f258 35be d85a 2b3e dfff 873e 0aae 19bd
00000240: 13dd 13be c613 9cbe 3660 5dbe 6d0c 513e
00000250: 258e 2a3e 8079 113e 2c70 5cbd 2711 b7bd
00000260: 66f1 0abe 6c13 553e 544b 083e 8601 8cbe
00000270: 63ce 9d3e 3bdb 2d3d e178 263e 78c9 513e
00000280: 7252 7abe 223e 183e f7cd 703e 3cae ac3d
00000290: 7f7e 27be f0ca 3cbe aa24 b33e c89e 803e
000002a0: 80c8 3bbe e92c 273e c622 b5bd efbd b33e
000002b0: c456 7b3e 3bec f03c 1760 e8bc 16c6 003e
000002c0: 3c11 023e c925 5e3e 6a3b e8bc 4de8 fbbd
000002d0: e8f7 e03d 5708 60be 712d 64be df3c 283e
000002e0: 1874 8dbd 10e7 953e e4c0 12be 035e 443e
000002f0: 63a3 fb3d 1072 3a3e 6727 bb3d 77ae 113e
-0.14256851 0.16621776 0.11216118 0.19996166 -0.06618046 -0.13642688 0.21756096 0.016866006
0.1893881 0.17888087 -0.1953751 0.18736418 -0.19347668 -0.047331277 -0.015369924 0.21488369
0.090918034 0.13251524 0.0652055 0.07391213 0.20440476 0.14971608 -0.17457387 -0.03887285
0.15540102 -0.050486192 0.14140117 0.0104271555 0.06396762 -0.00096919545 0.17876744 -0.16903634
0.22789024 0.024900174 -0.12510253 0.06694776 -0.14554976 -0.09486218 -0.08193426 -0.0073037087
0.027942937 0.123442434 0.17478351 -0.14679071 -0.046307165 0.17888865 0.23559482 -0.118120626
-0.051349223 -0.103632376 0.080605365 -0.200416 -0.20496345 -0.105740294 -0.1800715 -0.22184722
-0.0921614 -0.12766828 0.02098032 -0.109434806 -0.13676666 -0.04120736 0.12610805 0.059199963
-0.19203165 -0.0796488 -0.17963162 -0.11054011 0.1811247 -0.1866794 0.024602894 -0.20926502
0.14930406 -0.3413159 0.019096581 0.19520807 0.2308266 0.02049614 -0.026631694 -0.18613592
-0.006098356 0.18095617 0.11605288 -0.15641613 -0.14395179 -0.271773 0.2092237 -0.12463567
0.16046688 -0.0107859075 -0.18829262 0.37975964 -0.27059293 -0.2124316 -0.08701691 -0.24139333
-0.0038781504 -0.117960535 -0.17683366 -0.14069413 0.24762255 0.32532376 -0.08242647 -0.21870515
0.20226146 -0.14602026 -0.06371785 -0.15817969 -0.30438623 -0.17533596 0.069301985 -0.06402556
-0.112165585 0.14068826 -0.025154332 0.23825268 0.21709803 0.10493393 0.32249838 0.035970867
-0.10435341 -0.21334842 -0.08954367 -0.13380992 0.1545855 0.039228592 0.074202284 -0.28350618
0.34448066 -0.06037003 0.12549248 0.18246967 -0.21985418 0.35985833 -0.20249781 0.18897977
-0.16906922 0.25810942 0.26443458 -0.16802035 -0.17709711 0.16733873 0.26562402 -0.037519492
-0.14439802 -0.30483836 -0.21618733 0.20414896 0.16655786 0.14206505 -0.053817913 -0.089388184
-0.13568649 0.2080819 0.13309985 -0.27344912 0.30821523 0.042445403 0.16257049 0.2048701
-0.24445513 0.14867452 0.2351607 0.0843167 -0.16356848 -0.1843679 0.3498891 0.2512114
-0.18338203 0.16325726 -0.08844523 0.35105845 0.24544817 0.029409518 -0.028366132 0.12575564
0.12701887 0.21694101 -0.028348643 -0.12300167 0.10984784 -0.21878181 -0.2228296 0.1642947
-0.06906909 0.2927785 -0.14331394 0.19176488 0.12287023 0.18207574 0.09138375 0.1422671

fc.bias f4 [3]
00000000: a7a0 343e ac0f 813d bf81 9f3c
0.17639409 0.06301817 0.019471047

onnx::LSTM_182 f4 [1, 256, 24]
00000000: 00b3 98bc 84e0 51bd e8c2 41be 554b 993d
00000010: 4a91 0e3e 31e4 70be 739c f3bc 4db9 263e
00000020: d461 463d 80ab 493d a199 1bbd 3262 563d
00000030: 28f0 7dbc 120f b9b9 8f5a 11be 60ec af3d
00000040: 2ab0 e7bd d44f 0cbe c4a8 9c3c 27c2 753d
00000050: 84b7 163e 84b6 4c3e e5de 183e 55a9 363e
00000060: 70a6 a63c 000f bebc 0cbd 0c3e d479 79be
00000070: f7be e13d bffd f83d d82a a8bd 1a80 37bd
00000080: c204 d13d f49d 9a3e 66eb b63e 425e 033e
00000090: 93e3 75be 8dae 633d 0c4a 2c3d accf 8fbd
000000a0: 5968 49be d030 9a3b c248 833d 6b86 12be
000000b0: 2d6d cdbc 8d67 5ebe d3b8 053b ec30 5c3d
000000c0: c852 f4bc 9cf6 c73d 5cc3 6cbd 7274 b03d
000000d0: 0626 743e b693 44be f680 ad3c e7fe f63d
000000e0: 42c4 043e 0b36 9f3d 513a e1bd a237 a8be
000000f0: 5099 d43e f605 033e 685e cbbc e4eb 0a3e
00000100: 4f91 9abe 9b0f ecbd 46cb 8f3d ec6c 88bd
00000110: daa5 243e 364b c33c bf69 543d 0db7 4f3d
00000120: 4c0e 52bd 9040 5e3d 24fe f6bc cb1a 51be
00000130: 361c 953b 2d88 ca3d 0670 073e f75b ffbd
00000140: 0d4c e03c eda2 ad3d 89ce 0fbc 7940 bc3e
00000150: 2993 acbe b232 01be 0828 64bd d3e2 8a3d
00000160: e0b2 853d 8fcd 1dbe e45b d1bd b820 08bd
00000170: 453f a53c e155 5abd 2996 6cbc 8ad9 b33d
00000180: 44da aebd 6257 933d f237 8fbe 3d36 12bc
00000190: 5de2 6a3d 419f a4be fe2b 0a3e 810c cc3d
000001a0: 5387 553d 9280 453d c1f0 e13d a261 543d
000001b0: fa26 08bd 1868 5b3e c3f8 783d eb39 753d
000001c0: 5d76 d7bd 6ca6 f03d eb99 943d e2a1 d73b
000001d0: 2bd1 2e3c 91d7 853d ce95 6a3c b0da 183e
000001e0: e26f e6bd 385f 90bd 766e 183e c454 a9bd
000001f0: 2540 203d b751 b2bd ffa3 7d3e d241 77bc
00000200: 87b1 623e 486c e3bd 4ae4 07be 5cd9 7a3e
00000210: 7620 193d d97a 093e 3eab 0cbe 69ec 093d
00000220: 807b 92be f9af cfbd b9a7 87bd cde2 7d3e
00000230: 59ed 89bc d2f3 3c3e 7299 873d 9430 a13d
00000240: 808e 453b 3084 0c3d 56bd 52be bb12 053d
00000250: cc06 7f3d becb 84be b5b2 65bc c25a a53c
00000260: 252f 2a3e 5d69 af3d 30e6 563e 1ece 0f3e
00000270: aa32 12be 885c f53d 5e8d dc3d 9e17 1dbe
00000280: e07f 2f3d df94 08bd f319 1e3e 3904 fbbd
00000290: b8c2 5f3e f054 0ebc f7cb 163e aa15 563c
000002a0: 5ccb fdbd 3654 a1bd ffe5 10be 0b80 41bd
000002b0: 4b5f 49bd 6b89 96bc b1da 263e a113 14bd
000002c0: 5e26 873e b6bb 16bc 0291 1b3c 9fdc 803e
000002d0: 1163 fabd c44f b53d 8b9c 373d 62fa d33d
000002e0: 0091 84be 5c37 11bd 6f75 b13c c65f 1c3e
000002f0: b769 71bd e46a 103d 5d4c 943e eb39 763d
00000300: d878 af3c 6808 203d 1646 36be f8d1 4c3e
00000310: 5bea c3bd 981e 58be 695b 833e 376c e63d
00000320: 2cba 5a3d b0e5 34bd 041d 6e3e 4724 763b
00000330: 9e92 68be f4a6 293e b140 b3bd 6542 00be
00000340: e94f cabd 087e 0a3e 3fea 0b3e f5e5 9ebc
00000350: 2b55 95bd 2a46 acbd d28b 973d 0f0e 15be
00000360: c0bf a13c 80b5 6ebc c174 04be 2dc3 a33d
00000370: c09a 993c 2c34 64bd dba8 29bd 099f e33d
00000380: 8f13 c9bd 255c 9cbd 630d 663e 1771 39be
00000390: 5990 72bd cf44 7e3e 00b9 713c 7db8 6ebd
000003a0: 40e8 48bd bb21 133e 3b0c 433e 7465 d33d
000003b0: c449 123d 3758 28be 19dd 3f3e 90c1 e9bd
000003c0: b0be 3d3c 5c53 27bd 8db0 adbd a94a e83d
000003d0: f608 2e3d 859f b83d 2db2 e23d f905 903e
000003e0: 601c 8f3e 7937 733e c441 953e a829 413e
000003f0: 8315 a2be efc8 69bd 2442 19be a537 56bd
-0.018640041 -0.051239505 -0.18922007 0.074850716 0.13922611 -0.23524548 -0.029737687 0.16281624
0.04843314 0.04923582 -0.03798831 0.05233974 -0.015499152 -0.00035297178 -0.14194702 0.08590007
-0.113128975 -0.13702327 0.019123442 0.05999961 0.14718443 0.19991499 0.14928778 0.17838033
0.020343035 -0.023200512 0.1374399 -0.2436288 0.11022752 0.12157773 -0.08211297 -0.0447999
0.102059856 0.30198634 0.3572647 0.12828925 -0.24012594 0.055586386 0.042062804 -0.07022032
-0.19668712 0.004705526 0.06410362 -0.14309089 -0.025076473 -0.21719189 0.0020404353 0.053757593
-0.02982463 0.09763834 -0.057803497 0.0861596 0.2384263 -0.19196972 0.021179657 0.120603375
0.12965491 0.0777398 -0.10997451 -0.32854944 0.41523218 0.12795243 -0.02482529 0.13566548
-0.30188987 -0.11526414 0.07021193 -0.066614 0.16078892 0.023839574 0.05185866 0.05071168
-0.051283166 0.05426079 -0.03015048 -0.20420377 0.004550482 0.09889255 0.13226327 -0.12468713
0.027380014 0.08478341 -0.008777269 0.3676794 -0.33706024 -0.12616995 -0.05570224 0.067815445
0.06528258 -0.15410446 -0.10222605 -0.033234328 0.02017177 -0.053304557 -0.014440098 0.08781727
-0.085377246 0.07194401 -0.2797237 -0.008924064 0.057344783 -0.3215275 0.13493344 0.099633224
0.05213101 0.048218317 0.11032248 0.051850922 -0.033240296 0.21426427 0.060784113 0.059869688
-0.10520623 0.117504925 0.0725592 0.006580577 0.010669987 0.06535257 0.014317943 0.14927173
-0.11251809 -0.070494115 0.14885888 -0.08268121 0.039123673 -0.08706992 0.24769591 -0.015091376
0.22138034 -0.111046374 -0.13270679 0.24496979 0.037384473 0.13425769 -0.13737199 0.033672724
-0.28609848 -0.10140986 -0.066237874 0.24793549 -0.016836809 0.18452385 0.06621064 0.07870594
0.003014475 0.03430575 -0.20580038 0.032488566 0.06226234 -0.25936693 -0.014019658 0.020184878
0.16619547 0.08565018 0.20986247 0.14043471 -0.1427714 0.119805396 0.10769151 -0.1534104
0.04284656 -0.0333451 0.15439586 -0.12256665 0.21851623 -0.008687243 0.14726244 0.013066689
-0.12392303 -0.0787739 -0.14150237 -0.047241252 -0.049163144 -0.018376073 0.16294362 -0.036151532
0.2639646 -0.009200027 0.009495022 0.2516832 -0.12225927 0.08853105 0.044827025 0.10350491
-0.25891876 -0.035453185 0.021662442 0.1527091 -0.05893871 0.03525819 0.2896451 0.06011383
0.021419927 0.039070517 -0.17800173 0.20001972 -0.09566184 -0.2110542 0.25655678 0.11251109
0.053400204 -0.04416436 0.23253256 0.0037558244 -0.2271218 0.16567594 -0.08752573 -0.12525328
-0.09878523 0.1352464 0.13663577 -0.019396761 -0.07291635 -0.0841182 0.073997155 -0.14556144
0.019744754 -0.01456964 -0.12935163 0.07996211 0.018750548 -0.055713817 -0.0414208 0.11114318
-0.09818184 -0.07634763 0.22466044 -0.18109547 -0.059219692 0.24830936 0.01475358 -0.05828141
-0.049049616 0.14368336 0.19047634 0.10322085 0.03571488 -0.16439901 0.18736686 -0.11413872
0.011581108 -0.040850982 -0.0848094 0.11342365 0.042489015 0.09014801 0.110691406 0.28129557
0.27951336 0.2375163 0.29151738 0.18863547 -0.31657037 -0.05707639 -0.14966637 -0.05229916

onnx::LSTM_183 f4 [1, 256, 64]
00000000: 22fd d53d 589b a23d d770 01bd 0073 b03d
00000010: 764d 2f3d b697 c1bd 363f 37bd 3ebc 22be
00000020: 37ad 48be 6265 943d 8092 c93d 4ef1 c7bc
00000030: 6c17 64bd 4db1 51bd 3e1a 4ebd 269f c3bd
00000040: 6fac 52bd 7474 453e 4c73 f93d 70ed 40bd
00000050: 3f9b 43bd 4bfb 573e a39b cf3c 2016 3a3d
00000060: 6933 473c ee07 07bd ed5e 2e3d 203a c03c
00000070: 7c93 133e 82a6 1e3d c0b4 f4bc 769b d83c
00000080: 8581 3dbe cf92 2a3e bc4a df3d 308c 5dbc
00000090: 04a9 ee3c 18e8 143d 2474 0ebe 99ed 83bd
000000a0: 62b6 0fbc d778 0cbe 46f9 ac3d a430 98bc
000000b0: a21a 0f3d f433 bbbd 9ff1 fcbd 697e 3d3c
000000c0: 4777 fd3c b98f f43c eadc 623e 1fe9 bdbd
000000d0: 7ba6 13bd 07fd f93d 6471 1c3e d30b 45be
000000e0: 02e6 2c3c c208 e03d 9285 323e 07fa 14bd
000000f0: c1e1 19ba f48e 19be 78e7 95bd fbe9 c9bd
00000100: c1dd d43d c346 e33c 44ce 1ebe 5a90 c73d
00000110: 044f fdbc cc2f 2c3d fc38 4b3c 80c7 3c3d
00000120: 417a a03d 465c 6b3d adf5 d3bd 854a 31be
00000130: fd80 7e3d 4d0f 8c3c 4a02 bcbd 01ad b3bd
00000140: 0b9c 6d3d d33f 283e 868f f2bc 030d b4be
00000150: 94f2 153e c6f1 593d ecf3 05be fb80 5bbe
00000160: e110 693e e2fb 913d 93d8 ebbc 0123 6c3d
00000170: c554 0e3e 364b 1c3d cc14 4e3a 6a92 e73d
00000180: bf7b 21bd 5200 0abd 0f0b c4bc 0ebf b03d
00000190: ac15 9e3d 0c6c c53d 713a 463e d4a4 fc3d
000001a0: 23f9 c93c 3d0c 20bc 889a 35be 8e64 bd3c
000001b0: 9196 32be e571 5d3d 982e 5e3d 0aa2 84bd
000001c0: b404 2b3d 1414 463c 31f3 1abd 4960 4a3b
000001d0: 8efb a43d 255e cd3d e99c 97bc 58a9 a33c
000001e0: c0ff 8c3d c9cb e43d bf72 753e 01c9 a5bd
000001f0: 4043 febd c7aa 473e de5d f43b 39a2 a3bd
00000200: 4b4b 25bc e7d6 243e 5197 343e 2973 72bc
00000210: 8ca9 853e 6066 aa3e 6fa0 9fbc 74ad a23c
00000220: 51a2 19be 0a55 a4bd 34be 7b3e c2e2 42be
00000230: 770b b03e f1b0 64bd 4174 cd3d 8fd6 593d
00000240: 2983 ca3c a379 0d3e 5db4 9a3c 1645 5ebd
00000250: b7d6 f4bc 728d 143e 8b61 8c3d 8a3e 15bc
00000260: 0317 2dbe cbad 9fbd 7328 f3bc 367f f3bc
00000270: e233 233d c700 9ebe 6ff1 73be 6b26 87bd
00000280: 8005 163e cb05 2abe 4fcb 3d3d 55db 1fbc
00000290: 1893 a33e 726d 8f3e 4065 853e 5128 cb3b
000002a0: 5a4e 4bbe f982 03be 0ea8 6dbe 8c60 503c
000002b0: 47c7 83bc 9fda 1ebd 3e04 63be a2d3 5dbd
000002c0: e138 a4be 89d0 763e c61f 9bbc 8d5d 38be
000002d0: 2916 52bd d12e f2bd 1561 20bd 6a49 8ebd
000002e0: facb 053e f120 f33d cd3c 0a3b 3064 00be
000002f0: 5415 2cbe 6be5 07be 1b59 6c3c 73df 33bc
00000300: dfb7 a23d 2730 3b3d 1084 0abe a0e0 bc3a
00000310: 1cf0 aa3b db01 103d 7123 3c3e e2ad 5dbe
00000320: bac3 15be e443 513d 95c1 76bc a401 2dbe
00000330: 2fcb 55bd 12d5 873d 60a9 9ebd df5b 9fbc
00000340: 70d3 00be b306 933c 5288 0a3e 6b5a 973d
00000350: 13a1 b53c 2a2b b53c a40b 683e 2bb2 c8bd
00000360: e279 e6bd e0a7 c03d 9a8d 8cbc 5246 353d
00000370: 7cb0 76bd f0b3 053d b2fe 76bc 008d d83d
00000380: b121 56be b838 47bd c44e e13c 25bc 0a3e
00000390: b2c7 c03d 7ef7 1bbd 093b 203e cb83 413e
000003a0: 2259 06be af1b b8bc ca44 83be c98a 48be
000003b0: c925 b03d b957 b5bd bc45 fdbb 7226 48be
000003c0: b801 113e a060 793e e724 b43d 741d 6e3d
000003d0: 82d4 27be c192 25be 56b4 c2bd 704d 70bd
000003e0: f215 e4bd cacf c03d 82da b23d ff94 a83d
000003f0: e6a6 24be b56d ca38 8eb8 b23d 2f3f 1c3e
0.10448672 0.07939786 -0.031601753 0.086156845 0.042798482 -0.09452765 -0.044738017 -0.15892121
-0.19597326 0.072459 0.09842396 -0.024407055 -0.0556864 -0.051194478 -0.050317995 -0.095518395
-0.051433977 0.19282705 0.12180194 -0.047101438 -0.047755476 0.21091954 0.025342768 0.045431256
0.012158253 -0.032966547 0.042570997 0.023465216 0.1441173 0.038733013 -0.029871345 0.026441317
-0.18506439 0.16657566 0.10902926 -0.013522193 0.029133327 0.036354154 -0.13911492 -0.064418025
-0.008771511 -0.13717972 0.08445983 -0.018577881 0.03493751 -0.09140769 -0.12350773 0.011565783
0.030940665 0.029853689 0.22154585 -0.0927298 -0.03604744 0.12206464 0.1527763 -0.19242792
0.010552885 0.109391704 0.17433766 -0.036371257 -0.0005870127 -0.14995939 -0.0731954 -0.09859081
0.10393859 0.027743703 -0.15508372 0.0974433 -0.030921467 0.04203777 0.012403723 0.046088696
0.07835818 0.057461046 -0.10349593 -0.17313583 0.06213473 0.01709714 -0.09180124 -0.08773232
0.058010142 0.16430597 -0.029609453 -0.35166177 0.14643317 0.05320909 -0.1308133 -0.21435921
0.22760345 0.07128121 -0.028789794 0.05765057 0.13899525 0.038157664 0.00078613753 0.11307223
-0.039424654 -0.03369171 -0.023931054 0.08630191 0.07718977 0.09639749 0.19358231 0.12336126
0.02465493 -0.009768543 -0.1773473 0.023119237 -0.17440249 0.054063696 0.054243654 -0.06476219
0.041752532 0.012089748 -0.03782958 0.0030880144 0.08055793 0.10027722 -0.018507438 0.01997821
0.06884718 0.111716814 0.23969553 -0.08094979 -0.12415171 0.1949874 0.007457479 -0.07989926
-0.010088752 0.16097604 0.17635848 -0.014797964 0.26105917 0.3328123 -0.01948568 0.0198581
-0.15003325 -0.080240324 0.24584275 -0.19031814 0.34383747 -0.055832807 0.10031939 0.053183135
0.024720745 0.13815932 0.018884832 -0.054265104 -0.02988754 0.14507082 0.06854542 -0.009109149
-0.1690331 -0.0779682 -0.029682374 -0.029723745 0.0398444 -0.30859968 -0.23822568 -0.065991245
0.14650536 -0.16603772 0.04633647 -0.009756883 0.3194816 0.28013188 0.2605381 0.0061998744
-0.19854107 -0.12842931 -0.23208639 0.012718331 -0.016086234 -0.038782712 -0.22169587 -0.054156907
-0.32074645 0.24102987 -0.01893605 -0.18004437 -0.051290665 -0.11825336 -0.039155085 -0.06947596
0.13066092 0.118715174 0.002109337 -0.12538218 -0.16805011 -0.1327111 0.014425541 -0.010978567
0.07945227 0.04570022 -0.1352694 0.0014410205 0.0052166115 0.03515802 0.18372895 -0.21648362
-0.14625445 0.051090136 -0.015060802 -0.16895157 -0.052195724 0.06632437 -0.077471495 -0.019452987
-0.12580657 0.01794753 0.13528565 0.07390293 0.022171533 0.022115309 0.2266069 -0.09799608
-0.11253716 0.094070196 -0.017157365 0.044256516 -0.060226902 0.032642305 -0.0150753725 0.105737686
-0.2091129 -0.048638076 0.027503379 0.13548334 0.09413089 -0.038077824 0.1564752 0.18897931
-0.13119939 -0.022474138 -0.2563842 -0.19584192 0.08600957 -0.088546224 -0.0077292603 -0.19545916
0.14160812 0.24353266 0.08796101 0.058133557 -0.16389659 -0.16169263 -0.095070526 -0.0586676
-0.11136998 0.094146326 0.08733083 0.08231544 -0.16079292 9.652545e-05 0.08726607 0.15258478

onnx::LSTM_184 f4 [1, 512]
00000000: 8167 b63d a160 bb3d db30 9b3e 7ff4 54bd
00000010: a2f2 303e 91ad a53d 25f7 813b 58ba ac3d
00000020: 0c7a 2c3e 9d32 1c3d b8ce 473d e45d b43e
00000030: 0bd1 4e3e 1081 ca3d 23fa 7c3d 7d93 f13d
00000040: 48f5 663e ed23 d33c 0145 7f3d a8ff 8a3d
00000050: 2941 9d3e 3388 fe3e c530 023e 2249 363d
00000060: b39a 0d3e 5e46 423e d381 423e 2d24 edbc
00000070: ebfe 443e 9ead 8c3d 3397 f63d 24f5 e73d
00000080: edcd 0f3e acdc 433d ea1f 5f3d 84e6 073e
00000090: 4589 783d 8fea 153e 2ef0 c83e ab8b a73e
000000a0: 0c65 473e da3a 533e 75f0 6c3e a4f1 b63e
000000b0: 3fdf 0e3e 2dce a73d 29d2 653e e3f0 ac3e
000000c0: 2c75 8d3e e5f2 fd3d 54c4 d9bb da48 3e3e
000000d0: 0d48 423e c9ab 97bb 202e 723d 274c 503e
000000e0: fb98 31bc 8686 5c3d 358f 803e a544 ff3d
000000f0: 43ea 74bc 528b 863e 62a9 553d cf03 703e
00000100: 86bc c33d d645 213e fee5 303e 55fe c03d
00000110: faeb ae3d ffd2 8b3e 0113 85bc f25a 2e3e
00000120: 4c81 ee3c ae1a 9c3d 214a a2bc 3a71 803d
00000130: 361b 0a3e 403e 69bc 6d11 2b3d f4bc 173e
00000140: b4df cc3c 5d90 b5bd e798 1b3e eaa6 ce3c
00000150: 533d 693e 9db3 fc3e dc61 343d 936f 413e
00000160: 5a26 153e 4bc8 383e d20c 4f3d 8b96 c23c
00000170: 2056 383e d742 053e bb28 183e 5830 953d
00000180: 1c96 3a3e ba8d f73d 9e96 5f3d e1de d23d
00000190: 85b7 a33e 2671 4dbd 29a7 233e e525 d63e
000001a0: 0898 933d 9412 873e a4cc a83d 6980 823e
000001b0: 4284 b03c 4cd2 b9bc c880 593d fa77 ac3e
000001c0: 6557 1c3e 618b 463d 59f3 cb3d 8968 c03d
000001d0: 52d8 b33d df7e 1f3d df2a a53d f018 c03d
000001e0: 00cb bdbc 1daa 4b3e 8f5c 083e eb27 313e
000001f0: 42b9 d93d 8e86 173e 9040 b53d 383c a23e
00000200: f648 c2bd b3fc 0fbd 238e 69bd 462c 983d
00000210: 6fa6 9d3d 176f 07bd 111e 243c d373 b63c
00000220: 8246 7b3c d4db 7b3d 0bfe dc3d 21f3 673d
00000230: 49ab 52bd 19ed c23c 19d1 21bd f25b b1bc
00000240: 729f 62bd f6be 353d 5386 96bd 0481 253e
00000250: 6440 afbd 5561 95bd 21ce d4bd 5f8a d6bd
00000260: 3c93 b6bd b97a b0bd 693a f73d eb99 aebd
00000270: a396 773d 9510 77bd f6e0 6dbe 051a b13d
00000280: af81 ad3d 0a2e 01be 6918 9e3d dc86 fe3d
00000290: d79d 723d b081 c23d 325b 52bd e8fe ed3c
000002a0: 6ff3 1d3e d52f fcbd 4a69 753d d3fd 79bc
000002b0: 7bc7 de3d b147 1c3d bd13 a33d add4 3dbe
000002c0: 2878 ccbc 083e 003b e14b f4bd 653d 163a
000002d0: 3063 5a3e 152c aa3d 32a2 db3d f559 2ebe
000002e0: 2c7d a2bc 50aa 48bd e1bb 6d3d 5f87 123e
000002f0: efff f8bc b965 4e3d befd 8fbc 5091 103d
00000300: 2f4e 003d 94b6 aebc 26d6 cc3d 60fe 653b
00000310: b3e0 c93d 4ec5 1bbd 7ee5 bf3d 3246 efbd
00000320: 01cb cabd 7310 733a 7c66 8cbd 2195 82bd
00000330: e2c6 9f3d 444a 90bd 9b1a fabd d783 7e3d
00000340: a789 b0bc e036 973b ef3c d03c f9f8 fabd
00000350: 786b 163d fff4 2b3d 8556 38bc 28b9 8abc
00000360: 9559 e8bd 5b9b a1bd 6f43 70bd c37b d03d
00000370: e0b2 00bd 43a6 f4bd a6a7 aa3b 8ee2 aabd
00000380: be5b ffbb 5e9c 4b3d cc39 9ebd e07d adbd
00000390: 6f5b eb39 f6c1 fd3d 2187 2c3d e1f5 29bc
000003a0: cc8c 84bd 2b08 61bd b6fd 013d 995b 90bd
000003b0: ba9b 90bd a4f8 953d 2f3d a53d 7066 d1bd
000003c0: 1df3 f5bd ad1b e23d 454c 093d 412d e3bd
000003d0: ce4b 9b3d b08d e6bd ae6f 3ebc cb4e 9bbc
000003e0: 5824 d83d 8e8e 963c 05f4 603d 8ecf b5bd
000003f0: a6d2 d7bd 2317 e5bd c824 073e 3650 74bd
0.089064606 0.0914929 0.3031071 -0.051990982 0.17280057 0.08089746 0.0039662295 0.0843398
0.16843432 0.038134206 0.048781127 0.35227883 0.20196931 0.09887898 0.061761986 0.11795709
0.22554505 0.025773967 0.062321667 0.06787044 0.30713776 0.49713287 0.12713917 0.04450334
0.13828544 0.18972155 0.18994837 -0.028947914 0.19237868 0.06869052 0.12040558 0.11326054
0.14043398 0.04781787 0.054473795 0.13271528 0.060677785 0.14640258 0.39245743 0.32723746
0.1947214 0.20627919 0.23138602 0.35731232 0.13952349 0.08193622 0.22443451 0.33777532
0.27628458 0.12399844 -0.0066457186 0.18582478 0.18972798 -0.0046286327 0.05912602 0.2034155
-0.010839696 0.05383923 0.25109258 0.12464265 -0.0149484305 0.26278168 0.05216349 0.23438953
0.09557442 0.15749297 0.17275235 0.0942351 0.08541103 0.27309415 -0.016244413 0.1702688
0.029114388 0.07622276 -0.019810738 0.06271596 0.13486943 -0.014236033 0.041764665 0.14818174
0.025009014 -0.08865426 0.15195046 0.025226075 0.227773 0.49355784 0.04403864 0.18890218
0.14565411 0.18045156 0.050549336 0.023753425 0.18001604 0.13013779 0.14859287 0.072846115
0.18221325 0.12087579 0.054587 0.10296417 0.31975952 -0.050156735 0.15981735 0.41825786
0.07206732 0.2638136 0.08242157 0.25488594 0.02154744 -0.022683285 0.05310133 0.33685285
0.15267713 0.048472766 0.09958524 0.093949385 0.08781494 0.038939353 0.08064818 0.093797565
-0.023168087 0.19889112 0.13316558 0.17300384 0.10631038 0.14797422 0.08850205 0.31686568
-0.094865724 -0.035153102 -0.057020318 0.074303195 0.0769776 -0.033064928 0.010016934 0.022272026
0.015336635 0.06148894 0.10790642 0.05662835 -0.05143288 0.023794698 -0.03950605 -0.021650288
-0.05532784 0.044371568 -0.07349839 0.16162497 -0.085572034 -0.07293955 -0.103908785 -0.10475611
-0.089148015 -0.086171575 0.12071688 -0.08525451 0.060446393 -0.06031855 -0.23230347 0.08647541
0.08472001 -0.12615219 0.077194996 0.12428066 0.05923256 0.09497392 -0.051356502 0.029052213
0.15424894 -0.12313811 0.059914865 -0.01525827 0.10877892 0.038154308 0.07962749 -0.1853816
-0.024959639 0.0019568224 -0.11928535 0.00057311944 0.213269 0.08309189 0.10724296 -0.17026503
-0.019835077 -0.048990548 0.058040503 0.14309452 -0.030395476 0.05038998 -0.017577048 0.03529483
0.03132456 -0.021327294 0.10001783 0.0035094246 0.09857311 -0.03802996 0.09369944 -0.116833106
-0.09902001 0.00092721655 -0.06855485 -0.063761 0.07801606 -0.07045415 -0.12212106 0.06213745
-0.021550013 0.004614696 0.02541968 -0.12254519 0.036723584 0.041981693 -0.011251097 -0.016933993
-0.113452114 -0.0789096 -0.05865806 0.10179856 -0.03142059 -0.119457744 0.0052079735 -0.08343993
-0.007792919 0.04970967 -0.07725868 -0.084712744 0.00044890816 0.12390511 0.042121056 -0.0103735635
-0.064721674 -0.05493943 0.0317361 -0.07048721 -0.070609525 0.07322815 0.080683105 -0.102246165
-0.12009261 0.11040435 0.033520002 -0.11092616 0.07582818 -0.112574935 -0.011623306 -0.01895847
0.10553807 0.018378522 0.054920215 -0.088774785 -0.10538225 -0.111860536 0.13197625 -0.059646808

onnx::LSTM_202 f4 [1, 256, 64]
00000000: 3338 db3d 9b1a b13d 0021 613e ed6c 92bc
00000010: b79e 3c3e 1143 063e 7678 bf3c 626f 863c
00000020: 9df4 0abe cb44 523c 67f4 ccbd 7671 a6be
00000030: 29c9 6b3b 1881 07be 4d84 383d 880b cebc
00000040: b16e 473e 63fb 253e a0dd 09bd b827 dbbd
00000050: d43d 16be f97a edbd 98fa c3bd cd7e 00bb
00000060: b5ae bb3c 2f93 27be f4cc 65be b717 133e
00000070: 2961 4a3e cd02 8f3d d280 f43c c1ea 963c
00000080: 0f8c 4f3e 9ea1 7fbe 4c8a 6fbd 46ac 26be
00000090: 53ec ccba e912 3e3e e5b3 86bd 41d4 d7bd
000000a0: 9508 c03d 2817 593d bfc6 edbb ee1c 673b
000000b0: f9f3 18be 07f2 6dbe 06c7 133c 7d37 d1bc
000000c0: 428f 83be 1ded bd3c 86b6 f5bd cda4 07be
000000d0: 362e 86bd 9095 f0bd a2c6 2dbd 6e31 eebc
000000e0: af81 783e fea4 4dbd 6dcf b33d 5cab e9bd
000000f0: ae98 ddbc abfd 373d 4b02 1f3e aca7 0ebe
00000100: 011f ae3b 9772 80bd 5d98 1fbd 6bcd ccbd
00000110: c812 e83d f07c 99bd 0df9 9cbc 6d26 74bd
00000120: bb3f a2bd 6a06 0f3e 04aa 633d 7b01 a33c
00000130: a3a6 56bc fcbe 823d 72ec 8a3d a787 28bc
00000140: 9595 533d 7ecb 93bd 6ff0 b83d be17 7f3d
00000150: 3e78 7dbc ee9f 95bb fa73 84bd ade2 b13d
00000160: d55e 373e 0f8e 31be e941 aebd 3354 483c
00000170: e609 8c3d bf2c aebc 0f56 a23c e4f1 04be
00000180: e222 0abe 6880 f23c 59ab 073e de84 bdbd
00000190: a641 823b 61ad 243e ca7e a93c c73f 8bbd
000001a0: d25f 46bd 214c 39bd 05d1 22bd 9bcf 593d
000001b0: 7e2a 89bd a38e 36be 1ee2 5d3d 2816 363d
000001c0: 01d4 a23d fabf 283d 09b1 ac3d 8e15 03be
000001d0: a67f 9fbb e0a2 bfbd 60eb 11bd 29ca 7abd
000001e0: 42b7 383e 15c8 273e 49b9 5bbc 3107 0dbd
000001f0: fb2f e13d 0511 e43c 5e17 c4bd 047f 9e3d
00000200: a81f 1cbd 097f be3c e547 d83d 0ef5 2bbd
00000210: 60d8 a43c 3b6f 6a3d d65f d3bd 5faf 433d
00000220: d37e 0cbe d6dc e03c f4dc ed3c 46fa f9bd
00000230: 6276 d7bc eb6c efbd aa6f 853d b99c ba3d
00000240: 262e 06bd 1d0d d13c 2437 36be 4df9 4dbd
00000250: 31f0 233d 42a8 183e 233b 10be afc1 533c
00000260: 0e53 933c 68eb 983a 58ce 86bd 148c 323c
00000270: ab6e 3c3e 9cc6 99bd 5026 93bc ef27 d73d
00000280: 1a27 18bd b078 e5bd 8be3 fcbc e704 4bbd
00000290: 0f8d e43c e817 153e 7c2d 043e d4f0 ffbd
000002a0: 46c2 a1bc 126f 83bc 7729 9e3c f3ec 333d
000002b0: b1e4 f9bc 0b7e 75be 24e5 203e 74a2 dc3c
000002c0: f3b5 d2bd 51c8 273e bc48 bb3d 481a debd
000002d0: 6165 173d a3cf 3e3d 1413 18bb 095b 523a
000002e0: 5b9e 03be 515a a4bc da8f f9bd 7695 dbbd
000002f0: 1846 02be 5d82 8abd 4c0a 9b3c 56d5 aabd
00000300: 049e 533e d835 013d c8b1 1b3b 37be 603d
00000310: 9440 543e 8736 abbd b617 5cbd 8de1 8ebb
00000320: eb9b ecbc 10a5 e0bc daf4 0b3e 1ed3 fa3c
00000330: 306d 8bbc 4bd6 4cbd b09a e7bd ea5d 7dbd
00000340: 8149 273d 3788 693d fe9d c23d 883d 50be
00000350: a9f3 0bbe d8fe 023e 80b2 2e3e f730 e3bd
00000360: 31b6 0dbd e1bd 953d dbf9 51be 14eb 4b3e
00000370: c627 8f3c 59eb ae3d 62a8 64be 6166 4fbe
00000380: aec5 8b3d b969 24be cec3 1bbe 18a1 cd3d
00000390: a01a e53d 1af0 8dbc 42ab c73d aa33 25be
000003a0: 36f3 89bd 7fcb 503e 8456 0cbc b8f8 bc3d
000003b0: 3051 a9bd 247b b8bd 9194 353e b2de bc3d
000003c0: 68d5 03be f247 a8bd 1547 ab3d d8f7 94bd
000003d0: 3690 d9bd 4d16 863d 2138 5f3c cfbc 323c
000003e0: a558 32bd 0c72 753e 42ba 673e 7863 d4bd
000003f0: c761 95bd 9255 a13d 6a5c e13d d86a a03d
0.107040785 0.08647653 0.21985245 -0.017874205 0.1841992 0.13111521 0.02337287 0.016410533
-0.13569875 0.012833784 -0.100075535 -0.3250844 0.0035978055 -0.13232839 0.045048047 -0.025151983
0.19475819 0.16209178 -0.033658624 -0.10700935 -0.14672023 -0.11595721 -0.09569281 -0.001960683
0.022910455 -0.1636474 -0.22441465 0.14364515 0.19763626 0.06982956 0.029846583 0.018422486
0.20268272 -0.24963996 -0.0584815 -0.16276655 -0.0015634395 0.18561901 -0.06577281 -0.10538531
0.09376637 0.0530006 -0.0072563584 0.0035265046 -0.14936818 -0.23236857 0.009019619 -0.025539154
-0.25695235 0.023184353 -0.11997704 -0.1324646 -0.06551783 -0.11747277 -0.04242576 -0.029076304
0.2426822 -0.050206177 0.08779798 -0.11409637 -0.027050342 0.04491965 0.15528218 -0.13931149
0.0053137545 -0.06271856 -0.038963664 -0.10000118 0.11331707 -0.07494533 -0.019161725 -0.05960696
-0.07922312 0.1396729 0.05558206 0.019898167 -0.013101253 0.06384084 0.067833796 -0.010286248
0.051656324 -0.072165474 0.09030234 0.0622785 -0.0154705625 -0.0045661842 -0.06467433 0.08685813
0.1790727 -0.17339347 -0.08508665 0.012227106 0.068378255 -0.021261571 0.019816427 -0.12982899
-0.13489869 0.029602244 0.13248958 -0.09253858 0.003975111 0.16081764 0.02069034 -0.06799274
-0.048431225 -0.045238618 -0.039750118 0.053176504 -0.06697558 -0.17827849 0.05417072 0.044454724
0.07950593 0.041198708 0.08432204 -0.12801191 -0.004867512 -0.09357238 -0.03562486 -0.06122795
0.18038657 0.16384919 -0.013410875 -0.034430686 0.1099548 0.027840147 -0.095747694 0.0773907
-0.038116127 0.023253934 0.10560588 -0.04198175 0.020122707 0.057234984 -0.10321014 0.04777467
-0.13720255 0.027449053 0.029036023 -0.12205939 -0.026301567 -0.11690696 0.06515439 0.09111924
-0.032758854 0.025518948 -0.17794472 -0.05028658 0.040023986 0.14907935 -0.14085059 0.012924596
0.01798394 0.0011666836 -0.06582326 0.010897655 0.18401591 -0.07508585 -0.017962605 0.105056636
-0.037146665 -0.1120466 -0.03087022 -0.049565222 0.027899293 0.14559901 0.12907976 -0.12497106
-0.019745957 -0.016044173 0.019306881 0.043927144 -0.030504556 -0.23973863 0.1571241 0.026932932
-0.1028861 0.16385008 0.09144732 -0.108448565 0.036961917 0.046584737 -0.002320473 0.00080244296
-0.12853377 -0.020062597 -0.12185641 -0.10721867 -0.12722051 -0.06763146 0.018925808 -0.08341472
0.20665747 0.03154549 0.002375709 0.054868903 0.2072776 -0.0836001 -0.05373355 -0.004360384
-0.028882941 -0.027422458 0.13667622 0.030618247 -0.017019838 -0.050009053 -0.11308801 -0.06185714
0.040841583 0.05701467 0.09502791 -0.20335972 -0.13667168 0.12792528 0.1706028 -0.11093324
-0.03459758 0.07311607 -0.20505469 0.19913894 0.01747502 0.08540983 -0.22329858 -0.20253898
0.06824814 -0.16055955 -0.15211412 0.10040492 0.11186719 -0.017326403 0.09749462 -0.1613299
-0.06735842 0.20390128 -0.008565549 0.09227127 -0.082674384 -0.09007862 0.17732455 0.09222163
-0.12874377 -0.082168475 0.08363167 -0.07273835 -0.10623209 0.06547222 0.013624222 0.010909273
-0.04354157 0.23969287 0.22629645 -0.10370535 -0.0729404 0.07877649 0.11003955 0.07832879

onnx::LSTM_203 f4 [1, 256, 64]
00000000: 9bf8 a6bc dfdb 81be a69e 6d3d ad49 6e3e
00000010: 83b2 f43d 8a6f 683d 25e3 2a3d f5e7 f5bd
00000020: 2aa3 b73c aade 153e e487 72be 529a 863e
00000030: 838a f9bd 9cdf bebd 19bd 51be 083e 3a3d
00000040: 44a0 303e 5822 253d 7aca f63d 6f74 82bd
00000050: b205 0e3e 3bd6 9a3e 9449 f8bd 7100 2d3e
00000060: 50f0 2f3e b6d4 ba3a 0617 253d cb30 68be
00000070: 664d a1ba 3e14 173e ce2a 6c3e 17a7 413b
00000080: 1a2b 203e 5c11 003e ca80 403d 1002 89be
00000090: 88f3 e23d 73a6 efbd 9053 83bd b7a3 3f3d
000000a0: 3f93 7fbc 899b 0ebe 9a8e b2bd a49a 33be
000000b0: 8dbb adbd 58c2 403e 4500 c3bd 8c84 b03c
000000c0: d4b5 003e c540 72bc ecb4 c53d 94cf ccbd
000000d0: 32ae 50be d38f 50bd d5c1 87bd 9265 1fbe
000000e0: 8e26 69be 24e1 123c 4fa0 4f3e cb83 313e
000000f0: a109 45be 7ae8 3f3e 0fbe a9be d6ba e33b
00000100: 329c 5f3c f4d5 533c 089a 1a3d 0c78 cf3d
00000110: 9888 ba3d 8103 de3d ed98 20be 0c54 893d
00000120: bded f4bd 3d05 cebd b11f eabd c85c 0bbd
00000130: a5f6 88bd 3092 123d d1f6 093d c962 683d
00000140: 8caf eabc 13d6 2fbd b9ac a2bc e69e d83c
00000150: 3182 77bd 7c05 893c 5eba 97bd 5c2e c23d
00000160: d71d 0a3e b721 18be c1fd b43d 174f f6bd
00000170: 9bbb b73c 6af5 643d f586 4a3c eb06 a03d
00000180: 0465 a53d 1cfd 1d3e f012 2b3e ddf6 4fbe
00000190: 484d 33bd 60d5 dbbc 675a 9c3d 39a7 1b3e
000001a0: b90a 493d 35b3 e5bd ba18 50be f6e8 3f3d
000001b0: 11a2 2bbe 43b4 97bc 5354 ef3d de5f 243e
000001c0: 2613 053e 363b f23d cb4e 35bb 8fa4 a0bd
000001d0: 4a4d 6e3d dced babd 8cf1 35be c3eb c3bc
000001e0: 3440 0f3d 6cd2 51bd 8da8 3b3d b1d3 433e
000001f0: 4ea0 2abd a4df 09be 2ed5 f5bc d6a2 ba3d
00000200: 0a15 283d 35a4 0abe af88 86bd 4b9b f3bc
00000210: 3e0e b2bd b438 113d 63f2 5cbc 3266 66be
00000220: 99b9 6e3d d88e 1ebe 3b87 b03c acb4 cf3d
00000230: 5a77 30be 7007 33bc 373c 21be 3327 d53c
00000240: dc7a 0b3e 2539 9a3d 2c74 7b3e a50c b6bd
00000250: 95b7 373d b582 923d ab84 8e3d c9d9 943c
00000260: 5e82 733d 077c 983c 7de8 bb3c 5d13 a23a
00000270: f584 0dbe aea5 4f3e 78f4 483d 6ebd 05be
00000280: c12a b43d 653c 463e 4115 0ebe b3c0 15be
00000290: 33ec 92bc 7320 87ba c0e4 633c be2b 543d
000002a0: de02 ca3d 33f7 ef3c 3e05 a8bd 01e5 64bd
000002b0: 4196 12be 757c 06be 3633 2abe 34be 863d
000002c0: d091 8fbd b075 473d 7f07 6d3e 488d 8bbd
000002d0: 8c51 943d 34ab 68bd 0bab 35be 6236 173d
000002e0: ab16 0cbc 7418 a9bd e1c0 393c 7c5d f2bd
000002f0: 8fa3 92bc 9489 213e 49b6 e4bd b483 4c3e
00000300: 01d3 25be e04f e8bd f705 3e3d 8dc1 2b3e
00000310: 0c33 0f3e 0a2c f2bd f3f9 853c cc22 dabd
00000320: e32b 193c 8a88 c9bc ef29 8dbd 99e9 373e
00000330: 0274 bbbd 110a d2bd 71ec 23bd e632 30bd
00000340: 705f 003e 47f4 333c 5eb4 843d e1ba 6cbd
00000350: a98a 543e 4662 603c 2c0a 133e 9c6c fa3d
00000360: 2655 563e 8c4d bbbd 1a8b debc b022 933d
00000370: 7f3f 633b 8957 4bbd ad88 4cbd 8ca9 a0bd
00000380: b11c 56bd 8feb 193e c14b 46bd a17c a93d
00000390: 28c7 c4bc 95a2 9ebc 2f4d fd3c ea7b 88bd
000003a0: 3892 e23d f06d 963d a00d bdbd 4016 51be
000003b0: c004 00be 80d3 e33b f674 02be a6d5 de3d
000003c0: 903a 42bd 0d92 98bd 0030 103e ab95 49bd
000003d0: b402 0d3e 46ab cc3a 43dc 25be dfa5 c23d
000003e0: b50d 31bd 2fb8 80bd e36e 0b3d 1a18 d1bc
000003f0: 7602 2f3b 8b79 693b c3c2 b6bd da13 133e
-0.020382216 -0.2536306 0.058012627 0.23270293 0.11948111 0.056746997 0.04172053 -0.12007133
0.02241667 0.14635721 -0.2368465 0.26289612 -0.12184622 -0.09319994 -0.20482291 0.045469314
0.17248636 0.040315956 0.12050338 -0.06369864 0.1386936 0.3024157 -0.12123409 0.168947
0.17181516 0.0014254067 0.04030516 -0.22674863 -0.0012306392 0.14753816 0.23063204 0.0029549056
0.15641442 0.12506622 0.046997823 -0.26759386 0.11081606 -0.117016695 -0.06412423 0.04678699
-0.015599071 -0.1392652 -0.08718605 -0.1753946 -0.08483038 0.18824136 -0.09521536 0.021547578
0.12569362 -0.01478595 0.09653649 -0.1000053 -0.2037895 -0.05091841 -0.066287674 -0.1556609
-0.22768614 0.0089648105 0.20275997 0.17335431 -0.19241954 0.18741027 -0.33152816 0.006949763
0.01364808 0.012929428 0.037744552 0.10130319 0.091080844 0.10840512 -0.15683337 0.06705484
-0.119594075 -0.10059593 -0.11431826 -0.03402403 -0.06687669 0.035783947 0.033682648 0.056734834
-0.02864816 -0.042928766 -0.019857751 0.026442956 -0.060426895 0.016726248 -0.074085936 0.094814986
0.13487945 -0.14856611 0.08837462 -0.12026804 0.022428324 0.055898108 0.012361278 0.078138195
0.08075908 0.15428585 0.16706443 -0.20309015 -0.043774873 -0.026835144 0.076344304 0.15200509
0.04908249 -0.11215822 -0.20321932 0.04685303 -0.16761042 -0.018518573 0.116860054 0.16052195
0.12995586 0.118277 -0.0027665372 -0.07843887 0.058179177 -0.09127399 -0.17767924 -0.02391613
0.03497334 -0.051226065 0.04581504 0.19123723 -0.041656785 -0.13464218 -0.030008879 0.0911309
0.04103569 -0.13539203 -0.06569039 -0.029737135 -0.08694123 0.035454467 -0.013485524 -0.22499922
0.05828247 -0.15484178 0.021548858 0.10141882 -0.17233029 -0.010927066 -0.15745626 0.026019668
0.13621086 0.07530431 0.24556035 -0.088891305 0.04485281 0.07153837 0.06958898 0.018170254
0.0594505 0.018613828 0.022938007 0.001236539 -0.1382025 0.20278046 0.04906127 -0.13060543
0.08797217 0.19358976 -0.13875295 -0.1462429 -0.017934894 -0.0010309353 0.013909519 0.05179953
0.09863828 0.029292678 -0.08204125 -0.055882458 -0.1431513 -0.13133414 -0.16621098 0.06579247
-0.070102334 0.04869622 0.23147391 -0.06814057 0.07242116 -0.056803897 -0.17741029 0.036917098
-0.008550326 -0.08256617 0.01133749 -0.11834237 -0.017900256 0.15775138 -0.11167581 0.19972116
-0.16193773 -0.1134336 0.046392407 0.16773053 0.13984317 -0.11824806 0.016354537 -0.10651168
0.009348842 -0.02460124 -0.06892764 0.17960204 -0.09152986 -0.10255826 -0.04002041 -0.04301729
0.12536407 0.010983533 0.06479715 -0.05779541 0.2075602 0.013695305 0.14359349 0.12227747
0.20930919 -0.0914565 -0.027165938 0.071843505 0.0034675298 -0.049644027 -0.04993503 -0.078448385
-0.052273456 0.15031265 -0.04841209 0.08275724 -0.024020746 -0.019364635 0.030920593 -0.0666426
0.11063045 0.07345188 -0.092311144 -0.20418644 -0.12501812 0.006952703 -0.1273993 0.10880594
-0.04741913 -0.07449732 0.1408081 -0.049215 0.13770562 0.0015615008 -0.16197304 0.09504294
-0.043225963 -0.0628513 0.034041297 -0.025524188 0.0026704348 0.0035625424 -0.089238666 0.14363042

onnx::LSTM_204 f4 [1, 512]
00000000: 8491 673e c099 773d ed00 ee3d dd0b 9a3d
00000010: 02a4 fa3d b36e c93d 92e9 283e 1d59 233d
00000020: 4de0 643e f07f b63e 59fc 3abc d3d9 6c3e
00000030: 5ab7 3e3e 1f24 243e 584e e73d 4e60 86bc
00000040: 5db4 91bd 1697 703e 4bd5 4c3e 48e6 193e
00000050: f726 303e a342 643e fa5e 783e e9c4 a93b
00000060: 0cae 043d caed 2b3d 1452 4e3d 157d 8b3e
00000070: f953 6c3e 8b21 083e 21a6 c83c 51e0 103e
00000080: 1e07 dd3d e118 66bd f50d 553e 243a 2cbd
00000090: a9d8 043c 54c2 2e3e 0c98 923d 4b62 2b3e
000000a0: ed5e fc3d e39a ff3d f4be 3a3e 030b 9e3d
000000b0: 739e 783e 1728 5d3e d791 2f3e 7cbc 5f3d
000000c0: 7f14 133e c12e 3d3e 05a9 143d e347 df3d
000000d0: d694 093e f8e0 093e 0f25 2e3d 2b94 8abb
000000e0: bf52 c03d 0c8b 743e 59d5 8dbd ce3f af3d
000000f0: 8fe0 73bc c020 203e 7355 813c 9439 bb3d
00000100: c3cd 5c3e 1b02 c9bb b971 3f3e 1713 583e
00000110: d7c0 3f3e b0a7 7d3e b641 2f3e 665f b13d
00000120: 31f9 ab3d f8ea 703e 7403 363e 401d 043e
00000130: e8db 123e 9e95 253d 5bcf b13d 077e fd3d
00000140: 9246 53bd d21b a23e 68dd 3f3e e5c6 1a3e
00000150: 76e9 023e 80f9 243e 1fd8 093e 49d6 b33d
00000160: f90e 113d c175 583e 6d27 39bb 4963 753e
00000170: 5e99 9e3e a24b 233c c04c 183e 839e 4e3e
00000180: 4628 1a3d 1248 2f3e b1f6 343d b4a7 ca3c
00000190: 2b85 243e 7b97 4f3e f5f2 cc3d f534 193e
000001a0: 75a5 523e b886 033e 5467 393d 5046 883e
000001b0: 167e be3e 672c 993d c362 cd3d bd43 293e
000001c0: 33e1 1a3e 15ce 0e3d dc65 83bd 20cb c13d
000001d0: fc8a 6c3e 9cdd 423e 53d3 e23c bce0 763d
000001e0: 95bb a4bc ffbf 3c3e 65c8 dfbc 8629 1f3d
000001f0: a0a6 393d 220a 473e 774f 48bd 0276 2c3c
00000200: 8994 973d 787e 15be 0dbc 87bd 3520 38bd
00000210: bf89 063d 55b5 2dbc 040c 113d cee8 b3bd
00000220: 4d87 13bd 93c5 3abe eed2 60bb 223d c13d
00000230: 4560 dcbd f0f7 593d b848 cdbc 3e64 aebd
00000240: 110d bdbd deff 18be d869 143d 1a5d 31bd
00000250: 7835 803d 0f86 a93d a1d2 19be 7742 02bd
00000260: c294 0f3d 35cd 89bd 2fe7 a03c 64c1 26bd
00000270: b84b 06bc 6142 efbc c686 94bd 0939 bebd
00000280: c055 a83b 5e33 92bd 4957 7fbc b151 2fbd
00000290: 7c9f e73c e8dd d5bc 8124 943c 2af7 13be
000002a0: 203c 84bc a2c3 2b3e 560b 48bd 591a 24be
000002b0: a3ef adbd b121 41be c740 3abe 0208 f2bd
000002c0: b201 91bd 33cf 48be dbd0 0d3e 8b43 f73c
000002d0: 4c11 b2bc d56e 7e3a 1efd 40bd f475 06bd
000002e0: 4d08 df3d da0b 0abe f193 df3d 298d 0bbe
000002f0: d788 42bd 4dc4 013d 6579 bdbc 662d 953c
00000300: 803a 01be 2005 55bd 2d96 0abd 789a 78bd
00000310: 2cf8 b33d a5e8 e3bc 4d6b 0f3e e77b d2bd
00000320: 1e47 c13d 5ce0 9abd c37e 9ebd 2c3e e83d
00000330: 953a 15bd 308e 97bd de8d b5bd b018 973c
00000340: 175f fb3d 9f9e 39bd d11d f23d 4374 99bd
00000350: abc5 9b3d cb2d 023e 733c bb3c 53de 9abd
00000360: e438 843c ebc2 0bbe ce67 623d b15b f33d
00000370: cb8f 2a3d a64e 183e 687d 183e 114d fbbd
00000380: 78a0 563d 29c0 973d 398d a1bc b903 abbd
00000390: b411 853d 39c0 4c3c 4af7 933d 9c9c c53d
000003a0: 5ed6 663d 08c5 58bd 5028 0739 f81e e8bd
000003b0: d6fc d03c 04da 2f3c 8193 dabb 34ac 00be
000003c0: c3a3 c93d 2358 5a3c 1554 87bd dd2f cabd
000003d0: a93d 03be d2e8 92bd 0d5c 7d3d 3a16 e0bd
000003e0: e485 03be 8c87 96bc f077 78bc c0ba 2a3c
000003f0: 1470 17be 60ce 163b d1cb 5bbc 01ee 0fbc
0.22614104 0.06044936 0.1162127 0.07521794 0.12238313 0.09835567 0.1649535 0.039879907
0.22351189 0.35644484 -0.011412703 0.23129968 0.1862463 0.16029404 0.1129424 -0.016403344
-0.0711448 0.23495135 0.2000324 0.15029252 0.17202364 0.22291045 0.2425498 0.005180944
0.032392547 0.04197482 0.050371245 0.27243868 0.23078908 0.13294046 0.024493279 0.1414807
0.10792373 -0.05617607 0.20806105 -0.042047635 0.008108296 0.17066318 0.07157907 0.16736715
0.12322793 0.12480714 0.18236905 0.07716944 0.24279194 0.21597324 0.17145477 0.054623112
0.14363287 0.18474866 0.036294002 0.10902383 0.13435683 0.13464725 0.04251581 -0.004229089
0.093907826 0.23881167 -0.069254585 0.08557092 -0.014885082 0.15637493 0.015787816 0.091418415
0.21562867 -0.006134284 0.18695726 0.21101032 0.18725906 0.24770999 0.1711491 0.08660774
0.08397139 0.23527133 0.17774755 0.12901783 0.143417 0.04042589 0.08682128 0.123775534
-0.051580973 0.3166185 0.18736804 0.15114935 0.12784371 0.16110802 0.1346135 0.08781106
0.03541467 0.2113867 -0.002825226 0.23963656 0.30976385 0.009966763 0.14873028 0.20177655
0.037636064 0.17117336 0.044180576 0.02473817 0.16066425 0.20272629 0.10007278 0.14961608
0.2057093 0.1284436 0.045264557 0.26616144 0.3720557 0.07479172 0.10028603 0.16529746
0.15124969 0.034864504 -0.064159125 0.09462571 0.23099893 0.1902985 0.027688658 0.060272917
-0.020108977 0.18432616 -0.027317235 0.03885796 0.04532492 0.19437459 -0.04890391 0.010526182
0.07401378 -0.14599025 -0.06627665 -0.04495259 0.03284621 -0.010602315 0.03541185 -0.08784638
-0.036017705 -0.18239431 -0.0034305411 0.09435488 -0.107605495 0.053214967 -0.025059089 -0.085152134
-0.09231008 -0.14941356 0.036233753 -0.04330168 0.06260198 0.08277523 -0.15021755 -0.031801667
0.035053976 -0.06728593 0.019641487 -0.040711775 -0.008196764 -0.029206457 -0.072522685 -0.09288222
0.0051371753 -0.07138704 -0.015584775 -0.042802516 0.02827429 -0.02610679 0.018083813 -0.14449754
-0.016141951 0.16773847 -0.048838936 -0.16025676 -0.08492973 -0.18860509 -0.18188773 -0.118179336
-0.070804015 -0.1961029 0.13849203 0.030183574 -0.021736763 0.00097058463 -0.04711639 -0.032827333
0.10890255 -0.13481084 0.109168895 -0.13628067 -0.047493782 0.031681348 -0.023129174 0.018210124
-0.12619972 -0.05200684 -0.033834625 -0.060694188 0.087875694 -0.027820894 0.14005776 -0.10277539
0.09437393 -0.075623244 -0.07739022 0.11339983 -0.03643282 -0.07400167 -0.0886495 0.01844439
0.12273996 -0.04531729 0.11822093 -0.07492878 0.076060615 0.12712781 0.022855973 -0.07561936
0.016140409 -0.13648574 0.055274777 0.11882723 0.041641038 0.14873752 0.14891589 -0.122705586
0.05239913 0.074096985 -0.01972066 -0.083503194 0.06497517 0.012497001 0.07224901 0.096490115
0.05635678 -0.05292228 0.00012889621 -0.11334032 0.025511187 0.010733131 -0.006670416 -0.1256569
0.09845688 0.0133266775 -0.06607834 -0.098724104 -0.1281649 -0.07173313 0.061855365 -0.109417394
-0.12844044 -0.01837518 -0.015165314 0.010420501 -0.14788848 0.0023011193 -0.013415293 -0.008784772
