models/model3.onnx (onnx, 26966 bytes, 8 tensors)

fc.0.weight f4 [16, 32]
000000 01 c3 3e be 20 ea 8a bd 9b 27 88 3e 8c e8 69 3d
       -0.18629076 -0.06782937 0.26592717 0.05710654
000010 8f 8a f1 bc 1f c9 07 be 35 9b 13 3d c0 b7 65 be
       -0.029485015 -0.13260315 0.03603669 -0.22433376
000020 ff c8 04 3e f1 b4 7e be 20 89 8c bd 55 29 11 3e
       0.12967299 -0.24873711 -0.06862092 0.14175923
000030 d2 68 19 3d 4e 86 1b 3e a9 8c d8 bd 5b 24 17 3e
       0.03745348 0.15187952 -0.10573704 0.14759962
000040 33 4f fa bd ac 41 3c bd dc 31 05 3e 66 3e d1 bd
       -0.12222137 -0.045961067 0.13007301 -0.1021698
000050 8e 51 72 3d 71 cc ea bd f9 ed 85 3d 82 64 74 be
       0.059159808 -0.11464775 0.0653953 -0.23866466
000060 70 fc 0d be 29 ab a2 3d 55 ed bb bd 8b 1a 89 be
       -0.13865829 0.079428025 -0.09176127 -0.26778063
000070 f8 15 0d bc 66 70 99 bd 1e 77 2a 3b 67 14 99 3d
       -0.008611195 -0.074921414 0.002601094 0.074745946
000080 4f e8 38 be c6 7e 41 be dd 08 d6 3c 8c ff d6 bd
       -0.18057369 -0.18896016 0.026127273 -0.104979604
000090 ce 19 a4 bd 6a e8 ff 3c b4 67 62 bd c5 c8 4c bd
       -0.08012734 0.031238753 -0.05527468 -0.049996156
0000a0 ce 84 36 3e 19 fe 78 bd 13 4f 28 bd b4 4a 3d 3c
       0.17824098 -0.0607892 -0.041091036 0.011553455
0000b0 10 ec 80 bd 4a 61 21 3e 5e 7a a2 bd 0c 41 25 3c
       -0.06295025 0.15759769 -0.07933496 0.010086309
0000c0 eb a4 39 be 81 14 e8 3d a4 f4 e7 3d 3f 86 74 be
       -0.18129317 0.11332036 0.11325958 -0.23879336
0000d0 4a bb 6f bd eb 32 9d 3b 66 b8 8e 3d 7a c4 a1 3c
       -0.058528222 0.0047973297 0.06968765 0.019747008
0000e0 c4 79 29 3d 1f 7c 5d 3e 90 7a 40 be ca 85 9c 3c
       0.04137589 0.2162938 -0.18796754 0.019106764
0000f0 96 c9 46 be 30 67 ac 3d 8a 3b 69 be 81 e3 98 bc
       -0.19412836 0.08418119 -0.22776619 -0.01866317
000100 03 c2 58 3e 09 86 f1 bd 9a ac 58 be 52 68 8b 3d
       0.2116776 -0.11793143 -0.21159592 0.06807007
000110 a5 6a d9 3b d7 6f da 3d cc 35 0d bd bd a8 75 3d
       0.0066350275 0.10665863 -0.034475133 0.059975374
000120 30 f4 96 be 07 f7 5b bd f1 af 1b 3e 50 f7 62 bd
       -0.29483175 -0.05370238 0.15203835 -0.055411637
000130 3c 6d ba 3d f2 ca 6b 3c 6b 0c 3b bc fa 3b d8 bc
       0.09102866 0.014391648 -0.011416535 -0.026395787
000140 17 cb 95 3c 50 7a cb bd 62 22 8c be 8a 24 13 bd
       0.018285317 -0.09935439 -0.27369982 -0.03592352
000150 88 4a 66 3d cd 73 9b bd 0d c1 1c 3e d8 bd 91 3d
       0.056223422 -0.075904466 0.15308018 0.07116288
000160 29 e0 c2 bd 65 fd 85 bc 1d 42 14 be 2e 69 5d 3d
       -0.095154114 -0.01635618 -0.14478345 0.054055385
000170 76 28 0a bd f4 9c 2e 3e 46 83 b7 bb 44 9b 6c 3e
       -0.033729993 0.1705206 -0.005600366 0.23106104
000180 76 ca 05 be 53 38 93 3d d4 af 10 3d a6 dd 1d 3d
       -0.13065514 0.07188477 0.035323933 0.03854146
000190 47 fe 95 bd a8 e2 5c bd bc e8 82 bd 1e e3 33 3d
       -0.0732389 -0.053927094 -0.06392047 0.043917768
0001a0 65 2e cd 3d e1 4b 28 3e 93 67 3f be f0 d6 31 be
       0.10018615 0.16435196 -0.18691854 -0.17367148
0001b0 6d 65 29 be c5 8c c3 bc ac 53 f3 3d 71 0b 50 3d
       -0.16542597 -0.023870835 0.118811935 0.05079216
0001c0 53 8b 6a bd 90 45 1e bd 3b 93 a4 bd be c4 51 3d
       -0.057261776 -0.03864056 -0.080358945 0.05121302
0001d0 61 36 88 3d e8 43 d3 bd 5d f6 fc bd 84 62 6e 3d
       0.06650997 -0.103156865 -0.123516776 0.05819942
0001e0 f4 2d a5 3d 61 d3 3a be 98 16 31 3e ab 74 89 3d
       0.080654055 -0.18244697 0.17293775 0.06711706
0001f0 64 de 3e 3e 1e 44 1e 3e 9c 55 76 bd d4 58 22 be
       0.18639523 0.15455672 -0.060140237 -0.15854198
000200 b0 16 56 be b4 1c 3a bd 8b 16 03 3e ce 31 19 be
       -0.20907092 -0.04543753 0.12801568 -0.14960405
000210 bd 5b d3 bd f6 ce 44 bd a3 63 64 3d 8b cc 8f bd
       -0.10320232 -0.048048936 0.055759083 -0.07021435
000220 62 07 0d 3e 76 29 64 be e1 43 fc bc fb 81 2b 3e
       0.13772348 -0.22281441 -0.030794086 0.16748802
000230 14 92 bb 3d 00 d3 1d 3e 52 e7 05 3e 4e 63 d0 bd
       0.091587216 0.15412521 0.13076523 -0.10175191
000240 be b4 0a be 78 26 dc bc 2f 42 1d 3d 54 60 db bd
       -0.1354551 -0.026873812 0.038393196 -0.107117325
000250 86 d9 19 bb 96 ae 40 be 0f ba 43 be 78 67 2b be
       -0.0023475601 -0.18816599 -0.19113944 -0.16738689
000260 57 48 25 be 04 07 a3 bd b8 89 2b 3d 00 17 cb bd
       -0.16140877 -0.079603225 0.041879386 -0.09916496
000270 80 de ae bd d8 01 45 be 06 c9 97 3d e2 be f7 bd
       -0.08538532 -0.19238985 0.07411389 -0.12096955
000280 43 0c 1b be 4e df de 3c c2 c5 b2 3c 39 8f 44 be
       -0.15141396 0.02720609 0.021822814 -0.1919526
000290 55 fd e0 bd a0 01 cd 3a b5 99 0a be 1b 7b 3e be
       -0.10985819 0.0015640743 -0.13535197 -0.18601649
0002a0 8f 63 a4 3e 65 f8 aa 3d 0c e1 c8 3d 8f cd 78 3e
       0.32107207 0.08348159 0.09808549 0.24297164
0002b0 f8 ea 95 bd d0 2d 6e bd 5c e2 03 bd d3 38 99 bd
       -0.07320207 -0.05814916 -0.032198295 -0.074815415
0002c0 69 1c fe 3c d6 45 db 3d ad c7 0d 3e 6c 96 07 be
       0.031019406 0.107066795 0.13845702 -0.13240975
0002d0 1a 74 ad 3d e7 4b 30 be 1a 19 24 be 69 3c 75 be
       0.0846941 -0.17216454 -0.160252 -0.23948826
0002e0 44 1b 5c 3d 28 ed 5f 3e 2c a2 0b 3c b6 75 28 be
       0.05373694 0.21867812 0.0085225515 -0.16451153
0002f0 8d 7b 3b be 3e 40 d0 3c 6c f8 ec bd 2f 32 5e 3d
       -0.1830885 0.025421258 -0.1157082 0.054247078
000300 96 b3 90 3e 97 8c 15 bd 9d e3 1c be 36 89 57 3e
       0.28262013 -0.03651103 -0.15321203 0.21048436
000310 ec 81 f3 3d ea 2d bc bd 88 6d 19 3d fc d9 12 3e
       0.11890015 -0.09188445 0.037457973 0.14340967
000320 58 13 49 be d2 51 8c 3e 4c d6 93 3d 8b 16 f6 bd
       -0.19636285 0.27406174 0.07218608 -0.120160185
000330 70 d2 34 3e a1 cd d2 bd bd d2 23 be 51 6e 07 be
       0.176584 -0.10293127 -0.15998359 -0.13225676
000340 a9 3e 11 3e ba c4 ca bd 79 6c 04 be d9 29 48 3e
       0.14184059 -0.09900804 -0.12932004 0.19547214
000350 d9 94 c2 3d d1 a1 63 bd 80 57 4a 3d c2 7c 8b 3e
       0.09501047 -0.055574242 0.049399853 0.2724362
000360 c1 f1 67 3d bc 01 cd bc 87 07 ea 3b 44 d2 c9 3d
       0.05662704 -0.025025241 0.0071420106 0.09854558
000370 fb b9 37 bd e9 01 45 3e 5a 6d 26 3e e7 65 9a bd
       -0.0448551 0.1923901 0.16252652 -0.075389676
000380 41 bd 6b 3c d6 70 b9 3d 49 eb 2a 3e 10 53 69 be
       0.014388383 0.09054725 0.16691317 -0.22785592
000390 b6 f9 23 3d a7 92 fc bd 6f 5b 48 3d 5c db 87 3c
       0.040033065 -0.12332659 0.048915323 0.01658409
0003a0 df 02 13 3e bf b9 9b 3d 18 5f dd 3d aa e9 64 3e
       0.14356564 0.07603788 0.10809153 0.22354761
0003b0 d8 bd 35 3b 97 c1 9d 3d c2 4d 06 3d ef 7c f6 bc
       0.0027731564 0.0770294 0.032789 -0.03008887
0003c0 74 1c 19 be 11 9a b3 3d a7 e1 17 3e 7c 70 ae 3d
       -0.1495226 0.0876962 0.14832173 0.085175484
0003d0 24 2f 4a 3d 55 2f 13 be 30 46 28 bc 92 44 b1 bd
       0.049361363 -0.14373524 -0.01027064 -0.08655657
0003e0 e1 83 eb bc 68 fb 4d 3d 23 dc e1 3d ba da 3d be
       -0.028749408 0.050288588 0.11028316 -0.18540469
0003f0 3e f4 1a be c1 a5 bc bd 9d a2 b6 3d 06 34 f7 3d
       -0.15132234 -0.092113025 0.08917735 0.120704696

fc.0.bias f4 [16]
000000 50 d4 b0 3d 97 f9 cf bd a5 ea a2 bd e0 ca 47 be
       0.086342454 -0.10155027 -0.07954911 -0.19510984
000010 7c 47 97 bc 8d b3 0f 3e 14 a8 8b 3d 6e 39 ac bd
       -0.018466704 0.14033337 0.06819168 -0.08409391
000020 a7 93 04 3c da e9 2c 3c 25 5e 13 3e 5d 2f 0c 3e
       0.008091844 0.010553801 0.14391382 0.13689943
000030 91 92 a7 bc dd a9 a2 3d 85 57 52 3d c8 48 a8 bb
       -0.02045563 0.07942555 0.051352996 -0.0051356293

fc.3.weight f4 [2, 16]
000000 92 99 aa be 12 ca 68 be f1 c4 7f 3d 7b 3c 67 3d
       -0.3332029 -0.22733334 0.062443677 0.056454163
000010 24 06 9e bd f1 46 04 be 33 b5 d2 3e 55 6c 9a be
       -0.07716015 -0.12917687 0.4115387 -0.30160776
000020 fd 7e 19 be 42 72 9a be 0e fd 45 be fe ce b5 bd
       -0.14989848 -0.30165297 -0.19334814 -0.08877371
000030 d0 6f e2 3d 53 29 98 3e 92 31 a7 3e 45 10 1a be
       0.11056483 0.29719028 0.32655007 -0.15045269
000040 f1 86 d3 bd bb f3 e1 3c 90 22 98 be b9 6b 4c be
       -0.103284724 0.02758204 -0.2971387 -0.19962968
000050 57 16 6a 3e a8 9b 0a 3e e8 d4 77 be a8 2e 87 3c
       0.22860084 0.1353594 -0.24202311 0.01650174
000060 0d 6c 7f 3c 8a 59 b4 bd c5 5d 0b bd b5 ec 80 3e
       0.015589726 -0.08806141 -0.034024972 0.25180593
000070 66 28 9b 3e cb e0 10 be 29 8f 8d be 6f 10 f1 3d
       0.3030426 -0.14148252 -0.27648285 0.117707126

fc.3.bias f4 [2]
000000 f0 dc ae 3d 68 4b 87 be
       0.08538234 -0.26424718

onnx::LSTM_114 f4 [1, 128, 9]
000000 7e 51 43 be 9f a1 a5 3d f5 0f 65 3e 9d 64 0a 3e
       -0.19074056 0.080874674 0.22369368 0.13514943
000010 89 ab a9 bd 8e 40 1d 3e bb b3 7d 3e 32 37 ba 3d
       -0.08284671 0.15356657 0.24775593 0.09092559
000020 f0 95 49 3e ff 0f f6 3d 02 ec 9a bd 2c 2b 43 3e
       0.19686103 0.1201477 -0.07564546 0.19059438
000030 4b 85 b4 bd cb 60 e2 3d a7 d3 43 3d 8f 09 4c bc
       -0.08814486 0.11053618 0.04780927 -0.012453451
000040 5a 13 28 3e 78 21 b4 bd bc 3e 32 3d 0e a6 a1 bd
       0.16413632 -0.08795446 0.04351686 -0.078930005
000050 8d ae 65 3e ed f1 ce 3c bf db 2e 3d c4 c0 92 bd
       0.22429867 0.025261844 0.042690035 -0.071656734
000060 d4 c1 00 3c 27 35 08 3e e5 95 59 3e 9f 87 8c bd
       0.007858712 0.13301526 0.21248586 -0.06861805
000070 c1 2b c4 3d 01 97 31 3d 38 ef 42 3e 32 15 f6 3d
       0.09578658 0.0433569 0.19036567 0.120157614
000080 c7 c8 12 bd a3 9f 0f be 8c 58 77 bc a3 91 7c 3d
       -0.035836007 -0.1402574 -0.015096795 0.061662327
000090 bd 6b e2 3c ce d3 25 3e 62 5b 0e be 9d c9 29 3e
       0.027639264 0.16194078 -0.13902047 0.16580816
0000a0 66 22 df bd 21 a5 b8 bd 0b 5e 5a 3e 97 b4 27 be
       -0.10895233 -0.09015871 0.21324937 -0.16377483
0000b0 c7 35 3e be 01 73 f7 3c 5e 19 96 bd 42 68 3e 3e
       -0.18575202 0.030206205 -0.07329057 0.18594459
0000c0 17 2d 85 3e 66 e9 5f bd 07 3a 3e be 70 ff bc 3c
       0.26010963 -0.054665945 -0.18576823 0.02307102
0000d0 6b 80 fc 3d d9 1f 2c 3c 00 3d c9 bd 4d ed 16 be
       0.12329181 0.01050564 -0.09826088 -0.1473896
0000e0 42 bd d3 3c b8 d1 76 bd 4e 8d c5 3c d7 45 68 bd
       0.025847081 -0.060258597 0.02411523 -0.05670723
0000f0 7a 5f 76 3e 9a 83 09 be f0 f7 6c bb a3 d2 c5 bd
       0.24059859 -0.13429108 -0.0036158524 -0.096593164
000100 4b 96 09 be ae cb 22 3d a3 65 fc bd c2 b6 0b 3e
       -0.13436238 0.039745025 -0.12324073 0.13643935
000110 08 29 f6 3b 35 c8 0e 3e 3e 0b b4 3d 0a 9d b8 3d
       0.0075122155 0.1394356 0.08791207 0.09014328
000120 ae 0f aa bd 07 36 5b 3e 8e 79 82 3e 79 4c 23 3e
       -0.08303772 0.21407329 0.25483364 0.15947141
000130 e9 25 d7 3d 6f a3 25 3e 4b c9 6e 3d 92 dc 12 be
       0.10505278 0.16175626 0.058297437 -0.14341953
000140 7d ca a1 bd cf 09 95 3d 78 96 67 bb 23 5c e3 3d
       -0.0789995 0.072772615 -0.003533749 0.11101558
000150 23 d8 f4 3d 08 a6 f3 3b 27 38 09 3d 00 ac ce 3d
       0.11955287 0.007435564 0.033500817 0.100914
000160 10 9e 6a 3d 54 ec 00 bd 7c f4 70 bd 2a b6 09 3d
       0.057279646 -0.03147538 -0.05882691 0.03362099
000170 d9 d0 5b 3d 6b f2 82 bd 0a 8e 3f 3e 18 14 d7 3d
       0.05366597 -0.06393894 0.18706527 0.105018795
000180 d5 66 f9 bc 8d 26 63 3c d4 06 ec bb 05 39 00 be
       -0.030444542 0.013864172 -0.0072029624 -0.12521751
000190 1a 8d f6 bc 54 fe 84 3e 00 e2 0c 3e e6 af 05 be
       -0.03009658 0.25975287 0.13758087 -0.13055381
0001a0 c1 f7 f1 bc 70 cf 62 3e 58 71 d0 bc 84 83 8e 3e
       -0.029537084 0.22149444 -0.025444672 0.27834713
0001b0 2c d1 46 be 0d b5 88 3d 7e fd 5b 3d 9d d6 5e 3e
       -0.1941573 0.06675158 0.053708546 0.21761556
0001c0 c9 a8 ab 3d 51 18 e0 3d 98 01 da 3d d0 4d 87 3e
       0.083818026 0.10942138 0.10644835 0.26426554
0001d0 32 80 d0 bd 80 1a 3c 3e 1a 6f 65 3e e9 8a 09 3e
       -0.10180701 0.18369484 0.22405663 0.13431896
0001e0 df 5f 4e 3e 34 3d d5 3b c3 f4 18 be 2b 67 ca bd
       0.2015376 0.00650754 -0.14937119 -0.09882959
0001f0 e5 08 39 be 8b 6c 9b 3b 61 92 24 be 5b e6 01 be
       -0.18069799 0.004743164 -0.16071464 -0.1268553
000200 ef 4b 90 3d 25 ce 51 3e a9 c1 f0 bb d4 1e b3 bd
       0.07045733 0.20488794 -0.007347305 -0.087461144
000210 50 53 8f ba 1f e6 cc bd 2c f5 39 bd 73 2b da bc
       -0.0010934863 -0.100048296 -0.04539983 -0.026632046
000220 92 d2 29 bd d2 a8 bf 3d 98 b4 a3 3d bb cf 86 bd
       -0.04146058 0.09358372 0.0799343 -0.0658259
000230 41 d2 49 3d 0a 03 ac 3d 2b 60 c0 3d ea 64 14 be
       0.04927278 0.08399017 0.093933426 -0.1449162
000240 26 94 74 bb 3e c1 00 3e c9 ee 2a 3e 9d a4 a4 3d
       -0.0037319749 0.12573716 0.16692652 0.0803921
000250 bd 1e 9e bc 3f ad 21 be 47 e9 04 3e d2 32 3d bd
       -0.019301767 -0.15788744 0.12979613 -0.046191044
000260 2f 58 af 3c d3 ae 14 be c2 84 17 3d ab fd 95 3d
       0.021404354 -0.14519815 0.036991842 0.07323774
000270 67 b8 dd bd 18 00 2e be bb f9 50 be 32 bd a5 3c
       -0.108261876 -0.16992223 -0.20407765 0.020231817
000280 c4 74 14 3e 1f ba c9 bd 9d cc d0 3d ca 61 81 bc
       0.14497668 -0.09849953 0.10195277 -0.0157937
000290 cc 61 f8 3d 84 e5 bf 3d cc 55 31 3c 1f 9a c4 3d
       0.12128028 0.093699485 0.010823678 0.09599709
0002a0 72 b9 ad bd bf 55 9e 3b ad aa 0d be 61 6b 7d bc
       -0.084826365 0.004831999 -0.13834639 -0.015467496
0002b0 99 c4 0e 3e aa 2f 05 38 a9 65 c3 bd 36 f1 19 be
       0.13942184 3.175406e-05 -0.095408745 -0.15033421
0002c0 51 f2 27 be 40 df 12 bb 99 0d ea 3d 57 78 86 3d
       -0.1640103 -0.00224109 0.11428375 0.06565922
0002d0 a1 f2 5b 3e 38 5b 23 3d 62 0a ff 3d a2 e9 bb 3a
       0.21479274 0.039881915 0.12453152 0.0014336596
0002e0 60 49 77 3e cc cf 80 3d e0 06 63 3e f5 92 2c bd
       0.24149084 0.06289634 0.22170591 -0.042132337
0002f0 74 02 0c bc 7a 97 d1 bd 51 de a9 3d 93 ec b7 bd
       -0.008545507 -0.1023397 0.082943566 -0.0898067
000300 27 9d 76 3d 74 c2 3b bd bb 5f 5b bd a8 24 0a 3d
       0.060208466 -0.04583974 -0.053558093 0.033726364
000310 c8 78 3c 3e 92 2a f1 bd da d6 e7 bc 39 86 26 3e
       0.1840545 -0.11775698 -0.028300691 0.1626214
000320 01 df 7e 3e ce 00 22 3e 92 f3 74 be a7 c8 7b bd
       0.24889757 0.1582062 -0.2392104 -0.061470654
000330 c0 a3 3a 3e e7 78 84 bd 89 6c 86 bc 76 e1 50 be
       0.18226528 -0.06468373 -0.016409175 -0.20398507
000340 33 06 8b bd aa 5d 81 3e f2 f1 a6 bd 90 ae a6 bd
       -0.06788292 0.25266773 -0.08151616 -0.08138764
000350 21 14 91 3d 8a 3a 60 bd 50 4b 03 be 71 24 01 3e
       0.070839174 -0.054743327 -0.12821698 0.12611558
000360 d5 cd 04 3e 75 d1 95 bd 2d d2 0c 3d 85 aa 31 3e
       0.12969144 -0.073153414 0.034380127 0.17350204
000370 da 32 22 be 9a 2f e3 bd ce 89 ff 3d 0c 2f ac 3c
       -0.15839711 -0.11093064 0.12477456 0.021018527
000380 7e c3 2e 3d 00 53 cb 3d 72 8d e3 3d ce 42 7d bd
       0.042666905 0.0992794 0.11110963 -0.061831288
000390 77 c6 d6 bc 40 ff 86 3c 70 92 25 be 6e ed c5 bd
       -0.026217682 0.016479135 -0.16169143 -0.09664427
0003a0 d1 36 8b bd ef 2c 6a bd 61 f1 38 be 18 f9 e6 bc
       -0.06797565 -0.05717176 -0.18060829 -0.028194949
0003b0 ac bf 6e 3c fd 2a f7 3d 4c fc 13 3e d5 f3 42 be
       0.014572065 0.12068746 0.14451712 -0.19038327
0003c0 2f 10 5b 3e 34 9d 96 3d a5 46 f0 3d db 0c 81 3d
       0.21392892 0.07354203 0.117322244 0.0630128
0003d0 54 e5 f3 bc 1d f5 df 3d e2 ca 53 3e c1 f2 12 be
       -0.029772438 0.109354235 0.20682862 -0.14350416
0003e0 14 02 5e 3d 56 77 2b 3e 6e 32 08 be 9d 79 0a 3e
       0.0542012 0.16744742 -0.13300487 0.13522954
0003f0 77 f6 f0 bd 05 8a f2 bd 20 ca c9 3d 51 36 de 3d
       -0.117657594 -0.118427314 0.098530054 0.10850204

onnx::LSTM_115 f4 [1, 128, 32]
000000 d7 36 05 be b2 48 35 be 01 40 d0 bd 3a 8a a6 bd
       -0.13009201 -0.17703512 -0.10168458 -0.081318334
000010 10 7f 76 3d cf 2b 60 be 12 b5 9c 3e 79 a5 12 be
       0.06017977 -0.21891712 0.30606896 -0.14320935
000020 be 06 5f 3b 2b ec 14 3d 47 dd 2c 3e bc bb f9 3d
       0.0034031118 0.03635804 0.16881286 0.121940106
000030 c2 f5 99 3d 80 3a d8 3d d1 32 4d 3e 0c 46 a7 bd
       0.07517578 0.10558033 0.20038916 -0.08167657
000040 a0 54 e1 3c 11 06 5d bd ec 5a 60 bd b8 b2 17 3e
       0.027506173 -0.053960864 -0.05477421 0.1481427
000050 a6 c8 51 bd 24 70 46 be 3e 64 24 be ef 39 0c bd
       -0.051216744 -0.19378716 -0.16053864 -0.034234937
000060 75 05 4e be 67 01 77 be 46 08 16 be a8 b6 eb bd
       -0.20119269 -0.24121629 -0.14651594 -0.11509448
000070 52 18 65 be 80 2c 6a 3d 6c 55 7b bd e8 2e 89 3d
       -0.22372559 0.057171345 -0.06136076 0.066984
000080 ac 39 4b 3e 18 e3 b7 bd f3 9c 56 bd 28 26 6a 3e
       0.19846219 -0.089788616 -0.052395772 0.22866118
000090 28 31 80 3d db 8d 67 3e d4 c4 4c bd 4f d0 8d 3c
       0.06259376 0.22612707 -0.049992397 0.017311243
0000a0 28 4d a9 bd 76 bb 47 3d e4 bb 02 bd 25 fc 17 3d
       -0.082666695 0.04876276 -0.031917468 0.0371057
0000b0 18 2b 62 bd 81 77 7d 3d e8 b9 ab bd 3b a9 8e be
       -0.05521688 0.061881546 -0.08385068 -0.27863488
0000c0 5a c5 27 3d 77 71 09 3e 05 7b 2f be c1 9a d2 bc
       0.040959693 0.1342219 -0.17136772 -0.025708558
0000d0 96 82 11 bd a2 c8 0e be ed 24 86 3d e2 22 ef bc
       -0.035524927 -0.13943723 0.06550012 -0.029191438
0000e0 8c d3 3c 3e e7 a9 f3 bd 70 d6 23 3d 22 de 1a bd
       0.18440074 -0.11897641 0.039999425 -0.0378095
0000f0 e5 9f 30 be 2e 92 9a 3a fb 36 09 3e 16 43 36 bd
       -0.17248495 0.0011792833 0.1339988 -0.044497572
000100 9a 5a 40 3e a0 5a 14 3d 83 2f 05 be 4d 64 c8 bd
       0.18784562 0.03621924 -0.13006406 -0.09784756
000110 20 c3 51 3e e4 34 97 be 10 11 8b 3e 0c 75 e8 bd
       0.2048459 -0.2953254 0.27161455 -0.1135045
000120 43 99 38 bd d8 76 ff bd 5a 1c 8a 3e f5 06 3f 3d
       -0.045068037 -0.124738395 0.26974756 0.046637494
000130 c7 73 d1 bd e5 91 1f 3e ac 17 86 3d 46 a4 69 3d
       -0.10227161 0.15582998 0.06547484 0.05704143
000140 fb 23 03 3b 06 ea 03 bc 73 b3 cf 3d 2e 94 c1 3d
       0.002001046 -0.008051401 0.10141649 0.09452091
000150 6b 44 86 bd a6 d5 04 bd b4 b4 18 be 47 e1 df 3d
       -0.065560184 -0.032430314 -0.14912683 0.1093164
000160 b2 62 df bd 5d 04 e6 3d 5b aa d7 bd df 10 fc 3d
       -0.109074965 0.11231301 -0.105305396 0.123079054
000170 45 9f 1c bd 57 77 1a be 00 fe 4b be 92 46 ea 3d
       -0.03823783 -0.15084587 -0.19921112 0.114392415
000180 03 91 47 bb 93 54 90 3d 3c f2 16 3d f6 f3 b5 3d
       -0.0030451424 0.07047381 0.036852106 0.088844225
000190 22 83 6c 3e 88 5d d8 bc 8b c0 7d 3e 93 b5 98 bd
       0.23096898 -0.026411787 0.2478048 -0.074565075
0001a0 7e e7 02 3d 57 64 36 be b3 8f 85 3e 63 4c c0 bd
       0.03195905 -0.17811714 0.26086196 -0.093895696
0001b0 23 83 a3 bd 56 d7 6c 3d a0 03 04 3e e2 7d 5e be
       -0.07983997 0.057822548 0.12892008 -0.21727708
0001c0 90 25 16 3e 0c 88 76 3e 5d f2 92 3d 26 19 6e bd
       0.14662766 0.24075335 0.071751334 -0.058129452
0001d0 1f 27 86 bd 63 6e dd 3d e3 85 dd bd 60 6d 00 3e
       -0.065504305 0.1081207 -0.108165525 0.12541723
0001e0 3e b0 5c be e4 6e b6 bd b2 10 67 bd 9e da ac 3b
       -0.21551606 -0.089078695 -0.056412406 0.0052750846
0001f0 03 e2 11 be 1c 66 54 be 2a 65 da bb 89 bf 7a 3e
       -0.14246373 -0.20742077 -0.0066648917 0.24487127
000200 4b d2 07 3d 29 44 b9 bd 89 74 cc bd 5e 8c d8 3a
       0.033159535 -0.09046204 -0.09983165 0.0016521325
000210 98 d0 73 bd 0d 55 16 bd 69 6f 5a 3d ff da 40 bc
       -0.059525102 -0.036702204 0.053328905 -0.011770963
000220 fc d5 d5 bd 73 d3 bc bd 68 41 16 3e 79 51 c5 bd
       -0.10441205 -0.09220018 0.14673388 -0.0963468
000230 dd e6 56 bd 2f 5d 3d 3e d1 04 e3 bc cc 3e bd bd
       -0.052466262 0.18492578 -0.027712258 -0.09240493
000240 12 ea 45 be 83 ec 3e 3d 71 aa a6 bd a9 75 df bd
       -0.19327572 0.046612274 -0.08137978 -0.10911114
000250 62 3d 08 3e c0 b6 00 be fd a1 f7 bd ea df 8e bc
       0.13304666 -0.12569714 -0.12091444 -0.017440755
000260 cc 9f c1 bb 31 d2 05 3d 9b 55 01 be 3c 8a 1c 3e
       -0.005908942 0.032671157 -0.12630312 0.15287107
000270 02 73 b4 3d bc 8d e6 3d 46 2b 21 3d 03 4d d0 3c
       0.088109985 0.112575024 0.03934791 0.025427347
000280 bb de 52 3d af f7 a6 bd 93 dc 06 be 64 34 63 bd
       0.051481944 -0.08152711 -0.1317008 -0.055469885
000290 a4 8a 09 3e 0a b0 a6 3d 34 c2 03 3e 69 69 1e be
       0.13431793 0.081390455 0.12867051 -0.15469898
0002a0 7c f1 44 3e 43 9c 36 bd ba 1e 59 3d 16 a2 a4 bc
       0.19232744 -0.044582617 0.05300782 -0.02009682
0002b0 e2 43 0d bd 1c 37 d3 3d f4 cf d0 3c 21 26 e2 bb
       -0.034488566 0.10313246 0.025489785 -0.006901518
0002c0 72 60 5a 3d 6a 5a 50 3e 2d 67 9f bd 96 14 48 bd
       0.053314634 0.2034699 -0.07783351 -0.048847757
0002d0 2f c4 35 bd 53 38 19 be 55 a3 47 be 2c be 4c 3d
       -0.04437655 -0.14962892 -0.194959 0.04998605
0002e0 ac b6 ea bd cb b9 b1 3d d2 74 b0 3d 06 05 64 3d
       -0.11460623 0.08678015 0.08616032 0.055668853
0002f0 6f 6d 85 3d 0d c2 12 be ae ac f0 3c 11 74 bc 3d
       0.065150134 -0.14331837 0.029379215 0.092018254
000300 f7 60 af 3c 32 b4 38 be ae f1 4d be 94 ab 14 be
       0.021408541 -0.18037489 -0.20111725 -0.14518577
000310 42 cc 2f 3e 22 68 b0 bd 56 08 dd bc 2a 36 40 be
       0.17167762 -0.08613612 -0.026981514 -0.18770662
000320 f0 95 2e be f7 bc 23 3e 09 e6 30 3e 70 2d 8e be
       -0.17049384 0.15990053 0.17275251 -0.2776904
000330 ea c1 4f 3e 55 ff e8 3b f3 92 f6 3d 06 01 81 bd
       0.20288816 0.007110516 0.12039747 -0.06299023
000340 7a 80 e3 3d 75 91 51 3e 0b 7d 17 be 42 63 24 be
       0.11108489 0.20465644 -0.14793794 -0.16053489
000350 2c da db 3d ce a7 14 be 45 88 84 3d f6 fc 3b bd
       0.10734972 -0.14517137 0.06471304 -0.04589554
000360 10 f6 0c be 09 16 e0 bd 3d 35 67 be 22 ea e0 3d
       -0.1376574 -0.10941703 -0.22578903 0.10982157
000370 98 7d a2 3d 93 96 ad 3c 4f 24 e6 bd 4d ac 2d be
       0.07934111 0.021189963 -0.11237394 -0.16960259
000380 99 24 08 be 44 79 a2 bc 29 8b f7 bd e7 69 c9 bd
       -0.13295211 -0.019833215 -0.120870896 -0.098346524
000390 af 01 f6 3d fb b5 0b be 99 ce c1 bd 82 a7 af 3d
       0.1201204 -0.13643639 -0.094632335 0.085768715
0003a0 28 34 c9 bc 7c 6a 31 bd fa cb 7d 3e a3 60 2b 3e
       -0.024561003 -0.043314442 0.24784842 0.16736083
0003b0 06 f0 80 bd f4 1a ff 3d 84 7c 72 3e e5 5b 1b bd
       -0.06295781 0.12456313 0.23680311 -0.037929434
0003c0 2e d2 35 be 69 84 10 3e ed cd 01 be f3 a6 2b 3d
       -0.17755958 0.1411301 -0.1267621 0.041907262
0003d0 43 b7 26 3e 9e 65 6d 3d ec a1 ee bd 05 23 27 3e
       0.16280846 0.057958238 -0.11651978 0.16321953
0003e0 25 a6 a1 bd c8 9c bf 3b 0c e3 12 3d 83 dc d5 3d
       -0.07893018 0.005847547 0.03586106 0.1044245
0003f0 f9 d6 4d 3d be 05 58 3d d4 fc 0e be 6d 6d 15 3e
       0.050253842 0.05273985 -0.13963634 0.14592524

onnx::LSTM_116 f4 [1, 256]
000000 70 d1 3a 3d 81 14 6f 3e 66 53 61 3d f3 d2 3c bd
       0.04560989 0.23347665 0.055011176 -0.046099614
000010 64 28 a8 3c 80 3d df bc 78 bb c9 bd ac ce e4 3d
       0.020527072 -0.027251005 -0.0985021 0.11172232
000020 44 b3 cf 3d d4 2a 32 bd 34 e4 58 3e 48 bb 65 3e
       0.10141614 -0.043497875 0.21180803 0.22434723
000030 8b 9d 31 3e 95 68 be 3c b7 d7 08 3e dd a0 86 3e
       0.17345254 0.023243228 0.13363539 0.26294604
000040 10 f3 c4 3d b8 85 e3 bc 21 9a 9a bc f1 26 20 3e
       0.09616673 -0.027773723 -0.018872323 0.15639855
000050 18 06 35 3d d5 9a a3 3c 74 17 1e 3d 2a e2 6a 3e
       0.044195265 0.01997129 0.038596585 0.22937837
000060 d9 d8 2a 3e 08 5c fc bd 1b fd 83 3d ed 80 92 3e
       0.16684283 -0.12322241 0.064447604 0.28613988
000070 f3 cf 65 3d 77 cc 4c 3d 29 47 27 3e 8b 62 50 bd
       0.05610652 0.04999968 0.16335739 -0.050875228
000080 c1 42 c1 3b e5 26 fc 3d f5 84 a4 3d 8d 15 eb 3d
       0.0058978503 0.12312106 0.08033172 0.1147872
000090 12 ae 56 3e 50 5f 50 3e 05 81 06 3e fc e2 ce bc
       0.2096484 0.20348859 0.13135155 -0.025254719
0000a0 fc 44 52 3d 2b 8d f6 3a e8 b0 c3 bc 6f 89 a1 3e
       0.05133532 0.0018810382 -0.023888066 0.31550166
0000b0 73 f1 a8 3c e7 50 0d 3e 97 2f 57 3e 9d 59 2e 3e
       0.020622944 0.13800393 0.21014248 0.17026372
0000c0 7e b6 48 3d 62 14 51 bc a3 ca c6 3d 67 fc f3 3d
       0.049002163 -0.012761207 0.09706619 0.11913376
0000d0 7e 32 12 3e 41 2b 03 be 9e 4e 4a 3e 48 74 5d 3d
       0.14277074 -0.12809469 0.19756553 0.054065973
0000e0 44 ec dd 3d 7c 71 09 be 2c fb 70 3e 29 4d b8 3c
       0.1083608 -0.13422197 0.23533314 0.02249773
0000f0 34 02 8d bd 0b 2b 1b 3e 8b 95 42 bc c1 62 ae bc
       -0.06885186 0.15153138 -0.011876474 -0.021287324
000100 c0 60 d4 3d fc e6 45 bd 50 07 24 bc 81 ab 29 bd
       0.10370016 -0.048315987 -0.010011509 -0.041423324
000110 85 e9 b7 bd a4 4e be bc b7 eb e9 3d e7 9f 32 3e
       -0.08980087 -0.023230858 0.11421912 0.1744381
000120 91 6d 07 3e ae 57 d5 3d b4 fd d9 bc d7 30 b5 3d
       0.1322539 0.10417114 -0.026610233 0.08847206
000130 99 3e 4c 3d 7c 07 04 3d 7d 31 2b 3c 3a b6 2b 3e
       0.049864385 0.0322337 0.010448811 0.16768733
000140 b8 e3 15 bd 80 56 2a 3e 6a 48 4e 3e a3 18 94 bd
       -0.036594123 0.1663456 0.20144811 -0.072312616
000150 33 81 b2 bd 45 ae 01 3e d3 74 9d 3d c9 f9 3d bd
       -0.08716049 0.12664135 0.07688298 -0.04638079
000160 72 42 da 3d 8a 0a ab 3d 2b 7d 05 3e 50 c8 0c 3e
       0.10657205 0.083516195 0.13036029 0.13748288
000170 df b2 83 3d e6 58 8f 3c 5b 8a e0 bd 75 e9 f8 3d
       0.06430601 0.017498445 -0.10963889 0.121539034
000180 77 58 25 be df db d4 bd 3b 71 13 be fe a0 e4 3b
       -0.16147028 -0.103934996 -0.14398663 0.0069771996
000190 5b b4 22 3e 17 27 ee bd c9 a7 32 3e d9 fb 0c 3e
       0.15889113 -0.116285495 0.17446817 0.13767947
0001a0 11 68 bc bd d9 93 ad bd 41 4a b9 3d e4 65 32 bd
       -0.091995366 -0.08475465 0.09047366 -0.0435542
0001b0 b0 59 25 3e a9 d9 a0 bd 2e ec c2 3d 55 5d 19 be
       0.16147494 -0.078540154 0.09517704 -0.1497701
0001c0 8f 03 47 3d 3d e3 ed 3d a5 c7 a2 3c 10 5a c7 3d
       0.048587378 0.11615608 0.019870589 0.09733975
0001d0 5e 6a 8a 3d 4c 00 38 be fd de 8b bd e5 3d 91 bd
       0.06758569 -0.17968863 -0.06829641 -0.070918836
0001e0 ef 43 a7 bd 70 ff c2 bd d2 d1 49 bd 6e 40 25 3e
       -0.08167254 -0.09521377 -0.049272366 0.16137859
0001f0 4e eb a6 3d 03 22 9f bd 64 e8 9d 3d 22 71 50 bc
       0.081503496 -0.07770159 0.077103406 -0.012722285
000200 fe c4 40 3e 8a 6c ab bd bd 72 81 3e 34 0d 8d 3e
       0.18825147 -0.083703116 0.2528285 0.27549136
000210 24 dc 77 3c 04 c9 18 bd 18 37 04 3e 63 af 58 3c
       0.015128169 -0.03730108 0.12911642 0.013225409
000220 8d 2f b4 3e 14 76 57 bd de fa 9d bd da fe 2d 3e
       0.35192528 -0.052602842 -0.07713865 0.1699175
000230 43 12 32 3e fc 58 38 3c 92 db 43 3e df 65 b6 3c
       0.17389779 0.011251684 0.19126728 0.022265373
000240 3a 8a 77 3e f7 81 41 3e 55 56 9b bc bd 4c 49 3e
       0.24173823 0.18897234 -0.018962065 0.1965818
000250 be 61 1c 3d 72 cc 58 bd 49 3c 54 3e 47 d8 8f 3e
       0.03817915 -0.05292935 0.20726122 0.28094694
000260 35 0a ea bd 95 a1 2c 3e 45 25 c3 bc 19 39 55 3e
       -0.11427728 0.16858514 -0.023821482 0.20822562
000270 3d 57 3d 3d 54 40 e7 3c a9 36 07 be 6f fb b5 3d
       0.046225775 0.028228916 -0.13204445 0.08885848
000280 9d 2f 2d 3e b3 6c ca 3d 96 ec 21 3e c9 eb d6 3d
       0.16912694 0.09884014 0.15812907 0.10494191
000290 e0 2a 47 bd 8d 69 37 3e ce 3a 80 3e 0b 52 8c bc
       -0.048624873 0.17911358 0.25044864 -0.017128965
0002a0 54 33 4c 3d 8e 66 8a 3d 35 b6 c5 3d 4f 79 7a 3e
       0.049853638 0.06757842 0.09653894 0.24460338
0002b0 d2 a1 7f 3d 98 24 01 3e a6 e7 ee 3d 4d 08 72 bc
       0.062410183 0.12611616 0.11665277 -0.014772487
0002c0 12 be e4 3c cf 73 b0 bc 78 c3 0a 3e 83 a9 88 bd
       0.027922664 -0.021539597 0.13551128 -0.06672957
0002d0 f3 e6 a9 3d ae 8a e1 bb 20 35 96 3d 55 1a ea 3d
       0.08296003 -0.006882987 0.073343515 0.11430804
0002e0 29 e1 19 3e 25 88 0f 3d 8f 3b 97 bd 03 6c 43 3d
       0.15027298 0.035041947 -0.07384407 0.04771043
0002f0 e9 67 f4 bd c5 01 84 3e 84 cc 41 3d f4 17 42 3c
       -0.11933882 0.257826 0.047314182 0.011846531
000300 e1 02 10 3e a1 83 c4 3d f8 e9 30 3b 33 21 56 3e
       0.14063598 0.09595419 0.0026994925 0.20911102
000310 fb d6 6f 3e 76 96 08 3d 77 df 45 3e 61 6e 1a 3d
       0.23421852 0.033346616 0.19323526 0.03770292
000320 d7 04 f9 3d c0 e1 96 3d f6 37 39 3c a3 b1 de 3d
       0.12159126 0.07367277 0.011304846 0.10873725
000330 30 da b9 3d 95 29 07 bc 6e 64 80 3e 31 54 5c bd
       0.09074819 -0.00824966 0.25076622 -0.05379123
000340 55 ae 90 3d 2b e1 69 bd 8e 90 de 3d 53 41 ea 3d
       0.07064501 -0.057099503 0.10867415 0.11438241
000350 d9 b6 23 bd 95 fa 48 bd 89 09 e4 3d 41 f5 e3 bd
       -0.0399693 -0.0490671 0.11134631 -0.11130763
000360 54 36 92 3d e1 be 2f 3d 16 2b b1 3d c5 a3 24 3e
       0.071392685 0.042906646 0.08650796 0.16078098
000370 ce 5e 16 3d a6 cc a2 bd 7f 64 07 3e f2 33 80 3e
       0.036711507 -0.0794919 0.1322193 0.2503963
000380 c0 ab 10 3d 96 8f 14 be a8 d8 a0 bc 5a 25 4f bd
       0.035320044 -0.14507899 -0.01963456 -0.05057273
000390 0c 77 e7 3d 10 03 78 bd e4 1e 08 3e 60 92 8a bd
       0.11302003 -0.060549796 0.13293034 -0.067662
0003a0 de eb 9f bc 66 2b 21 3e 69 76 0c 3e 1f eb 12 be
       -0.01952165 0.15739211 0.13717045 -0.14347504
0003b0 f7 6e 82 bd 23 03 d9 bd 59 25 bc 3d 0f 9f a5 3c
       -0.06368821 -0.105963014 0.09186811 0.020217447
0003c0 e3 f2 05 3e ea 70 06 3e a0 7f c5 bd 1c 28 c9 bd
       0.13080935 0.13129011 -0.09643483 -0.098221034
0003d0 25 ab 01 bd db ca b7 3d 5b 56 06 be 94 bc 05 3e
       -0.031657357 0.089742385 -0.1311888 0.13060218
0003e0 d7 40 68 3d 48 1a 2b be 92 53 70 bd f7 db a4 bd
       0.05670246 -0.16709244 -0.05867345 -0.080497675
0003f0 18 bb 0d be ba 61 3e bd a8 9d c9 bd 7e 45 08 3d
       -0.13840902 -0.046479918 -0.09844524 0.033269398

onnx::MatMul_117 f4 [32, 1]
000000 bc 0b 20 be 49 88 b2 3e 0a 33 06 bc 57 7c 94 3d
       -0.15629476 0.34869602 -0.00819088 0.072502784
000010 14 be e2 bc fd ab 11 be 83 d8 1b 3e 5a b8 bf bd
       -0.027678527 -0.14225765 0.15219311 -0.09361334
000020 7a 42 22 3e 3c e8 cd bd 36 25 d7 3d 6c 66 85 bd
       0.15845671 -0.10054061 0.10505144 -0.06513676
000030 28 c8 81 3d 74 67 f6 3d 1d 09 93 bd ed 4c cd 3b
       0.06337005 0.12031451 -0.071794726 0.006265274
000040 e1 7a 5c bb 25 c3 68 be 74 4d 31 3d 96 0b 39 3e
       -0.0033642577 -0.22730692 0.043286756 0.18070826
000050 a6 69 47 be 52 73 fe 3d d9 bd 13 bd 4d 2f ac bd
       -0.19473895 0.12424339 -0.036069725 -0.084074594
000060 94 44 e5 bc f4 31 be 3d 64 da 26 be 3e 75 ff bd
       -0.027986802 0.092868716 -0.16294247 -0.12473534
000070 c5 88 89 3d b7 28 12 3e ce 13 e4 bd 45 1a 41 bc
       0.0671554 0.14273344 -0.1113659 -0.011786048
