models/model_5min_pivot_reversal_v2_final.onnx (onnx, 229939 bytes, 8 tensors)

fc.weight f4 [3, 64]
0	0x3e5099e4	0.20371205
1	0x3dc7371e	0.0972731
2	0xbe178fed	-0.14800997
3	0xbd9d166f	-0.076702945
4	0xbe834cdd	-0.2564458
5	0xbe125027	-0.14288388
6	0x3d8dc9b8	0.069232404
7	0xbe238cb0	-0.15971637
8	0x3d9c3190	0.07626641
9	0xbda46e9c	-0.080289096
10	0x3df27112	0.11837973
11	0x3e4b63e2	0.19862321
12	0xbda782f9	-0.08179278
13	0xbe1cac4d	-0.15300103
14	0xbe5d817d	-0.21631427
15	0x3e4f6d0c	0.20256442
16	0x3d410911	0.047127787
17	0xbdbddf1b	-0.092710696
18	0xbe42bfdc	-0.19018501
19	0xbe3f3bb9	-0.18675126
20	0xbe0be8a8	-0.1366297
21	0x3e724fc6	0.23663244
22	0x3e172f31	0.14764096
23	0xbe3bd46a	-0.18342748
24	0xbe122ce4	-0.14274937
25	0x3e4bbe30	0.1989677
26	0xbe4c62c6	-0.19959554
27	0xbdcc5ea3	-0.09978988
28	0xbe38bdfb	-0.18041222
29	0xbda2f174	-0.0795621
30	0x3d9730b5	0.07382337
31	0xbdeb18ba	-0.114793256
32	0x3e1138ed	0.14181872
33	0xbdfb0f26	-0.12258749
34	0xbe039056	-0.12848029
35	0xbd941260	-0.07230067
36	0xbe44c0fb	-0.19214241
37	0x3da7d3f7	0.08194726
38	0x3da4f674	0.0805482
39	0x3d18a1d2	0.0372637
40	0x3e001e9c	0.12511677
41	0xbd2afdeb	-0.04174606
42	0x3e756073	0.23962574
43	0x3d8afeb0	0.06786859
44	0xbe50aace	-0.20377657
45	0xbdba4562	-0.09095265
46	0x3e32bf50	0.17455792
47	0xbe5fe663	-0.2186523
48	0xbdb85832	-0.09001197
49	0xbdb4ad35	-0.08822099
50	0x3e0ae26f	0.1356294
51	0x3e46bf29	0.1940886
52	0x3d49b9b5	0.04924937
53	0xbe233c73	-0.15941028
54	0xbe1b2105	-0.15149315
55	0xbe02d9e9	-0.12778439
56	0x3d961465	0.07328109
57	0x3d4d0fc9	0.050063882
58	0x3d310d80	0.043225765
59	0x3e4e93c9	0.20173563
60	0xbc9f9412	-0.019479785
61	0xbcffe53e	-0.03123724
62	0x3e1ac3e0	0.15113783
63	0x3e20b4d0	0.15693974
64	0xbeec88b5	-0.4619805
65	0x3e3c7b54	0.18406421
66	0x3e99fd6a	0.30076152
67	0x3e8febaa	0.28109485
68	0x3e582fff	0.21112059
69	0xbda353c3	-0.07974961
70	0xbe1678cc	-0.14694518
71	0x3e814c18	0.25253367
72	0xbe31fec4	-0.17382342
73	0x3d420198	0.0473648
74	0xbd45cdd2	-0.04829199
75	0xbe44196c	-0.19150323
76	0xbe68d221	-0.22736408
77	0xbdbfee60	-0.09371638
78	0x3ee7eb42	0.45296675
79	0xbd99f448	-0.07517296
80	0xbeb6a3ff	-0.35671994
81	0x3edf592d	0.43622723
82	0xbe257e55	-0.16161473
83	0xbc889dd4	-0.01667682
84	0x3ec29af3	0.38008842
85	0xbdb05e42	-0.08611728
86	0x3e142e83	0.14470868
87	0x3eb6426e	0.35597557
88	0xbdc76ac9	-0.097371645
89	0x3e20c928	0.15701735
90	0x3e107748	0.14108002
91	0xbe02e5ec	-0.1278302
92	0x3cc8fe8e	0.024535444
93	0xbe6018ec	-0.21884507
94	0xbefa7c24	-0.48922837
95	0xbe14b068	-0.14520419
96	0x3dc56e4f	0.0964018
97	0xbe12f237	-0.1435021
98	0x3e0d68ad	0.13809462
99	0xbe369411	-0.1782992
100	0xbe31ec2a	-0.17375246
101	0x3d385a15	0.045007784
102	0xbe90f6b3	-0.28313217
103	0xbdb17f3e	-0.08666848
104	0x3d3badae	0.04581993
105	0x3dfa6be6	0.12227611
106	0xbe474bca	-0.19462505
107	0x3ddeb2fa	0.10873981
108	0xbce6833c	-0.02813875
109	0x3e00d350	0.1258061
110	0xbe444acd	-0.19169159
111	0xbdfc9579	-0.12333197
112	0x3ee869a9	0.45393112
113	0x3d297e82	0.041380413
114	0xbe0c680d	-0.13711567
115	0xbdf2213f	-0.118227474
116	0x3dc81312	0.097692624
117	0x3ecdc5db	0.40190014
118	0x3e181ac6	0.14853963
119	0xbe27af71	-0.1637552
120	0x3e15a6e5	0.14614446
121	0x3e57513d	0.21027084
122	0x3dd6f2ed	0.10495553
123	0xbe87056f	-0.26371333
124	0xbdb69e50	-0.089169145
125	0xbdb087d4	-0.08619657
126	0xbe8f883a	-0.2803362
127	0xbee2032d	-0.44143048
128	0x3e741895	0.23837502
129	0xbe91c036	-0.28466958
130	0xbe29c371	-0.16578461
131	0xbdd7d244	-0.10538152
132	0xbd7eb24b	-0.062181752
133	0x3e98695a	0.29767877
134	0x3e5de351	0.21668746
135	0xbd5b55c1	-0.05354858
136	0x3e0cbc90	0.13743806
137	0xbd082c6f	-0.0332455
138	0xbe9da049	-0.3078635
139	0x3db28bac	0.087180465
140	0x3e2307d6	0.15920958
141	0x3eb0c2c5	0.34523597
142	0xbe443ce1	-0.19163848
143	0xbe9a2efb	-0.30113968
144	0x3e12b63f	0.14327334
145	0xbde94f5d	-0.113920905
146	0x3e98ce90	0.29845095
147	0x3e45c2a7	0.19312535
148	0xbe684c5e	-0.22685382
149	0xbdbec3fd	-0.093147255
150	0xbe59986f	-0.21249555
151	0xbe82d3e6	-0.2555229
152	0x3e860b40	0.26180458
153	0xbe761709	-0.24032225
154	0x3e22dce3	0.15904574
155	0x3e1b1833	0.1514595
156	0x3e8b7ce8	0.27243733
157	0x3e5f71fa	0.21820822
158	0x3e0a794e	0.13522837
159	0x3ec4aa4c	0.38411176
160	0xbe5d8f01	-0.21636583
161	0x3e857769	0.26067665
162	0x3bc77674	0.0060871188
163	0x3c22a712	0.009927528
164	0x3eaee844	0.3416158
165	0xbe90d30c	-0.28286016
166	0x3cbcb547	0.023035659
167	0x3e8707ae	0.26373047
168	0xbe8fd510	-0.2809224
169	0xbe106889	-0.14102377
170	0xbdcada57	-0.09904926
171	0xbe9dddbd	-0.30833235
172	0x3e9507ef	0.29107615
173	0x3e183499	0.14863814
174	0x3e689673	0.22713642
175	0x3eb02f8a	0.3441127
176	0xbd831473	-0.06400385
177	0x3dfa4ea3	0.1222203
178	0x3d6e1d3d	0.058133353
179	0xbd22b97d	-0.039727677
180	0xbe7dd793	-0.24789266
181	0xbdf43872	-0.119248286
182	0xbe4a1e51	-0.19738127
183	0x3ec32dfb	0.38121018
184	0xbe65b29e	-0.22431418
185	0xbd8b14b7	-0.067910604
186	0xbe67bd62	-0.22630838
187	0x3e220d19	0.15825309
188	0x3e3b23c9	0.1827537
189	0x3de95f8e	0.11395179
190	0x3daa3b3a	0.08312078
191	0x3e2a13e6	0.16609153

fc.bias f4 [3]
0	0x3e0e7d2e	0.1391494
1	0xbdfbc099	-0.122925945
2	0x3cf8d597	0.030375285

onnx::LSTM_182 f4 [1, 256, 24]
0	0xbe850081	-0.25976947
1	0xbeac433a	-0.3364504
2	0x3e8103f3	0.25198326
3	0x3e24d0b8	0.16095245
4	0xbbd7db80	-0.0065874457
5	0x3ee53477	0.4476659
6	0xbd06ec07	-0.032939937
7	0x3d5bb8ef	0.053643163
8	0xbd1d75a5	-0.038442273
9	0xbd2572d1	-0.0403927
10	0xbd666aad	-0.056254078
11	0xbc8ed446	-0.017435204
12	0x3d96803d	0.07348678
13	0xbd05a834	-0.032631114
14	0xbe22fd4a	-0.15916935
15	0x3d77e090	0.060516894
16	0xbdd866de	-0.10566495
17	0xbcbc01d2	-0.022950087
18	0xbe0b8e75	-0.13628562
19	0xbe644464	-0.22291714
20	0xbdc5a427	-0.0965045
21	0x3cb78da0	0.0224064
22	0xbcd8e154	-0.026474632
23	0xbd9b7e54	-0.075924546
24	0xbdfe9384	-0.1243048
25	0xbe53ff9f	-0.2070298
26	0x3d473b34	0.048640445
27	0x3d0cc2bd	0.034365404
28	0x3cbfd7a0	0.023418248
29	0x3ed7b1d6	0.42127866
30	0x3e34ae33	0.17644577
31	0xbce99341	-0.028512599
32	0x3de2ca48	0.11073738
33	0x3e822081	0.25415424
34	0x3c7afc0d	0.015318883
35	0xbd4d2f81	-0.05009413
36	0x3e6e05ae	0.23244354
37	0x3df800ea	0.12109549
38	0x3ef33c92	0.4750715
39	0x3d167cb1	0.03674001
40	0xbd2d9c76	-0.04238554
41	0x3e4d4c4c	0.20048636
42	0xbcd44f7d	-0.02591681
43	0xbe85fcf3	-0.26169547
44	0x3e8272e5	0.25478283
45	0x3dc60853	0.096695565
46	0xbdf07051	-0.11740173
47	0x3bacbe00	0.005271673
48	0xbdbbb1aa	-0.09164746
49	0xbd0cbb8d	-0.03435855
50	0xbd676ceb	-0.056500357
51	0x3db79787	0.089644484
52	0xbdccc14a	-0.099978045
53	0xbc424281	-0.011856676
54	0x3dcdb4d6	0.10044257
55	0x3da544c5	0.08069757
56	0x3e3bb3f1	0.18330361
57	0x3d9fe618	0.07807559
58	0x3e1ed52a	0.15511003
59	0x3c13cfe5	0.009021734
60	0xbde20416	-0.110359356
61	0xbdaafce8	-0.08349019
62	0x3e815121	0.2525721
63	0x3e1d8b01	0.15385057
64	0xbe9b2ff5	-0.30310026
65	0x3e020038	0.12695396
66	0xbd1c8ebe	-0.038222067
67	0xba85580e	-0.0010173337
68	0xbdcb109f	-0.099152796
69	0x3db3706f	0.087616794
70	0x3b3edcdd	0.0029123344
71	0x3e7694e8	0.2408024
72	0x3bcbbb29	0.0062173796
73	0x3dbb948b	0.09159192
74	0xbe58ff0c	-0.21191043
75	0xbd916fab	-0.07101377
76	0x3d8b5744	0.06803754
77	0xbc180596	-0.009278676
78	0xbdc36dc3	-0.0954242
79	0x3e6de680	0.2323246
80	0x3de749cf	0.11293375
81	0x3df50d8e	0.11965476
82	0x3e56d290	0.2097876
83	0xbcbd81ab	-0.02313312
84	0xbcef63e8	-0.029222444
85	0x3d79d820	0.06099713
86	0x3d866e45	0.06564001
87	0x3c9c8515	0.019106427
88	0xbc516eb5	-0.012782742
89	0x3d3dd449	0.04634503
90	0xbe2da64a	-0.16957965
91	0xbdc38953	-0.09547677
92	0xbd6f826c	-0.05847399
93	0xbd1ec8f7	-0.038765874
94	0xbda7a3b0	-0.08185518
95	0xbb43b068	-0.0029859785
96	0xbdfbb5cf	-0.122905366
97	0x3d3b5525	0.045735497
98	0x3cd0fcfa	0.025511254
99	0x3e693e0a	0.22777572
100	0xbdb45cee	-0.088067874
101	0xbbac33d5	-0.0052552023
102	0xbda712a6	-0.08157854
103	0x3e1e2256	0.15442786
104	0x3dcd8857	0.100357704
105	0xbd867ff8	-0.06567377
106	0xbe56b208	-0.20966351
107	0x3d138e8f	0.036024626
108	0x3e20e79b	0.1571335
109	0xbdeda620	-0.116039515
110	0x3e327e60	0.1743102
111	0xbce0db2a	-0.027448256
112	0x3c056d9e	0.008143811
113	0xbdd96c60	-0.10616374
114	0xbcbe76ec	-0.023250066
115	0xbe4974b3	-0.19673423
116	0xbc8dd502	-0.017313484
117	0xbda70bd8	-0.08156556
118	0xbe2be423	-0.16786246
119	0xbddef4ab	-0.108865105
120	0xbe779cbd	-0.24180885
121	0xbf046315	-0.5171369
122	0xbd02c2c7	-0.031924035
123	0x3ebdf466	0.37100524
124	0xbd51f968	-0.051263243
125	0x3e924f8e	0.2857632
126	0x3da71641	0.081585415
127	0xbde622fc	-0.112371415
128	0xbd24dbb4	-0.040248588
129	0x3d272735	0.040808875
130	0x3e193767	0.1496254
131	0xbda8374c	-0.08213672
132	0xbd2cc019	-0.042175386
133	0xbd0abbcd	-0.033870507
134	0x3e40d6b6	0.18831906
135	0x3e1644f2	0.14674738
136	0x3d476021	0.04867566
137	0x3e542704	0.20718008
138	0xbe26b13b	-0.16278546
139	0xbe840781	-0.25786975
140	0x3dd70fbc	0.10501048
141	0xbe64b18e	-0.22333357
142	0xbe606a62	-0.21915582
143	0xbd9163d6	-0.0709912
144	0x3d5e922c	0.05433862
145	0x3d6a68ca	0.05722884
146	0xbe3c919d	-0.18414922
147	0x3c9d2e7d	0.019187206
148	0xbd7b5340	-0.06135869
149	0xbd825e8b	-0.06365689
150	0x3e8d7710	0.276299
151	0xbd87a0f3	-0.066224955
152	0x3dd446fe	0.10365103
153	0x3ddcb46e	0.10776602
154	0x3e331bcb	0.17491071
155	0xbd851e09	-0.064998694
156	0xbd8b5b2b	-0.06804498
157	0xbd41aee3	-0.047285926
158	0xbe2e1ad9	-0.17002429
159	0x3db2ae33	0.08724632
160	0x3d0aa2b8	0.033846587
161	0xbd0f265e	-0.0349487
162	0xbdcc19e8	-0.09965879
163	0x3c2f003b	0.010681207
164	0xbe4052a6	-0.18781528
165	0xbdb2c454	-0.08728853
166	0xbd138fba	-0.03602574
167	0xbdebaa30	-0.1150707
168	0xbeaec68c	-0.34135854
169	0x3dec2197	0.11529844
170	0x3bbdca12	0.005791911
171	0x3d47946c	0.04872553
172	0xbb746e00	-0.003729701
173	0xbdbb7902	-0.0915394
174	0xbe2fd0c0	-0.17169476
175	0x3e396946	0.18106565
176	0x3dddb576	0.108256266
177	0xbd900b72	-0.07033433
178	0x3df500b1	0.119630225
179	0xbe07b63e	-0.13253114
180	0x3d9e038a	0.07715519
181	0x3db52d6f	0.088465564
182	0x3eaa101b	0.33215412
183	0xbdb7bdf0	-0.089717746
184	0xbd950550	-0.07276404
185	0x3e0b5c93	0.13609533
186	0xbd1cd374	-0.038287595
187	0x3acc1fdc	0.001557346
188	0xbdd0c718	-0.10194224
189	0xbe5c3123	-0.21503119
190	0xbd09ff44	-0.033690706
191	0xbe3e0dbe	-0.1855993
192	0xbdd78874	-0.10524073
193	0x3ca7f299	0.020501422
194	0x3e8d86e7	0.27641985
195	0xbcc6b700	-0.024257183
196	0xbc5cc460	-0.013474554
197	0x3e184fea	0.14874235
198	0x3e5d24fa	0.21596137
199	0xbe923e1b	-0.28563008
200	0x3cb2e2c4	0.021836646
201	0x3d8e6deb	0.06954559
202	0xbd4b7569	-0.049672518
203	0xbdd722e2	-0.105047
204	0x3c1365c2	0.008996429
205	0x3ceac842	0.028659943
206	0x3e127af0	0.1430471
207	0x3dcf937f	0.101355545
208	0xbe8bf8a2	-0.2733813
209	0xbd461347	-0.048358228
210	0xbd72fd3f	-0.059323546
211	0xbb84ad14	-0.004048953
212	0xbd121c36	-0.035671435
213	0x3e256e47	0.16155349
214	0x3d7dbf16	0.061949812
215	0x3d538b6f	0.051646646
216	0xbe20e689	-0.15712942
217	0xbd3e53cb	-0.04646663
218	0xbe8d56ed	-0.27605382
219	0xbc8caa35	-0.017171005
220	0xbd2f7514	-0.042836264
221	0x3bf3da64	0.0074418057
222	0x3d34cf4a	0.044143
223	0x3e287943	0.16452508
224	0xbdef852a	-0.11695321
225	0xbdd41b22	-0.10356738
226	0x3e011866	0.12606964
227	0x3ce52eb6	0.027976375
228	0xbda8ecd5	-0.08248297
229	0xbc88ab2c	-0.016683184
230	0x3d9b89bf	0.07594632
231	0x3af83938	0.0018937951
232	0xbdfb56c1	-0.12272406
233	0x3e0f0f48	0.13970673
234	0xbc99c31d	-0.018769795
235	0xbe0bbd47	-0.13646422
236	0xbd901838	-0.07035869
237	0xbdde774c	-0.10862598
238	0xbe0580e6	-0.13037452
239	0xbdb7a35e	-0.08966707
240	0x3e6e4889	0.23269857
241	0x3e8c6336	0.27419442
242	0x3e06c9ba	0.1316289
243	0xbd762c37	-0.06010076
244	0x3cbfaf88	0.02339913
245	0x3defb083	0.11703589
246	0x3e93520c	0.28773534
247	0xbe8941ad	-0.2680792
248	0xbda48a96	-0.08034246
249	0xbce6c1e2	-0.028168622
250	0xbbe87a78	-0.0070946775
251	0xbcde2fe6	-0.02712245
252	0x3e92c5ea	0.2866662
253	0x3d10c107	0.035340335
254	0xbdd6820d	-0.10474024
255	0x3e35b21e	0.17743728

onnx::LSTM_183 f4 [1, 256, 64]
0	0xbdf28333	-0.118414305
1	0xbcc455f1	-0.023966761
2	0xbe63ad50	-0.22234082
3	0xbb8a8309	-0.0042270464
4	0x3d46feae	0.048582725
5	0xbe24c7a3	-0.1609178
6	0xbdbf15a8	-0.093303025
7	0xbe0a8d06	-0.13530359
8	0x3e5483e6	0.2075344
9	0xbe3d7db5	-0.18504985
10	0xbe8ebf65	-0.27880397
11	0x3e5cf312	0.21577099
12	0xbdebe464	-0.115181714
13	0xbda5aeba	-0.08089967
14	0xbe8ad021	-0.27111915
15	0x3aa3181d	0.0012443099
16	0x3ea24f09	0.31700924
17	0x3e971c83	0.2951394
18	0x3e07ad32	0.13249663
19	0x3da9c35f	0.08289217
20	0x3d88ca4d	0.06679211
21	0xbe7a2a40	-0.2443018
22	0xbc9f604d	-0.0194551
23	0x3e355a68	0.17710268
24	0x3e47013a	0.19434062
25	0x3d012da2	0.03153766
26	0x3e1b10d5	0.1514314
27	0x3c97184f	0.018444208
28	0xbe36181c	-0.17782634
29	0xbe55efac	-0.20892209
30	0x3cc0f11f	0.023552475
31	0x3e05ee98	0.13079298
32	0x3e10055f	0.14064549
33	0xbda3cb16	-0.0799772
34	0xbe1370df	-0.14398526
35	0x3d9f9d6c	0.07793698
36	0xbd6e30ff	-0.058152195
37	0xbe53a066	-0.20666656
38	0x3c88dd43	0.016707068
39	0xbdf3299d	-0.118731715
40	0x3d1c8708	0.038214713
41	0x3b429a3c	0.0029693982
42	0x3ddff528	0.10935432
43	0xbe83a6a1	-0.25713065
44	0x3d174b3d	0.036936987
45	0xbe03652e	-0.12831566
46	0x3cd16a3f	0.025563357
47	0xbe6ed047	-0.23321639
48	0xbdf4913d	-0.119417645
49	0xbea550d4	-0.3228823
50	0xbdf98c96	-0.12185018
51	0xbcc1f546	-0.023676526
52	0x3e849ceb	0.2590097
53	0xbe4d307b	-0.20038025
54	0x3c5ab450	0.013348654
55	0x3daff170	0.085909724
56	0x3d80bfb1	0.06286562
57	0xbd0b3d20	-0.03399384
58	0xbd7b0823	-0.061287057
59	0x3e267ee7	0.16259347
60	0xbe235831	-0.15951611
61	0x3eb84f73	0.35998115
62	0xbcdf45c0	-0.02725494
63	0xbd0c2404	-0.034214035
64	0x3dead595	0.11466519
65	0x3d970ac6	0.07375102
66	0xbc680220	-0.014160663
67	0xbe622d3c	-0.22087568
68	0x3dc7adc0	0.09749937
69	0xbe018061	-0.12646629
70	0xbde8fd97	-0.113764934
71	0xbe456ae8	-0.19279063
72	0x3e2ef2f1	0.17084862
73	0x3e0a71a1	0.13519908
74	0xbd8e8a0f	-0.06959926
75	0x3eefb54e	0.46818012
76	0xbe01e20b	-0.12683885
77	0xbdcb5bb6	-0.09929602
78	0xbc1911ac	-0.009342592
79	0x3e9d9c23	0.30783185
80	0x3cc2cdad	0.023779714
81	0x3e849797	0.25896904
82	0x3e9af0a1	0.3026171
83	0xbe0feb4c	-0.14054602
84	0x3e554ca0	0.20830011
85	0xbe2bf220	-0.16791582
86	0xbd8d8365	-0.06909827
87	0xbeb116d2	-0.34587723
88	0x3e013183	0.12616543
89	0x3ecfce60	0.4058714
90	0xbd47481a	-0.048652746
91	0xbe81a9fa	-0.25324994
92	0x3e07999b	0.1324219
93	0x3d8da0bb	0.069154225
94	0xbe48731a	-0.19575158
95	0x3e87cf34	0.2652527
96	0x3de699a8	0.11259776
97	0xbe827964	-0.2548324
98	0xbe3a46d1	-0.18191077
99	0xbeb7d6de	-0.35906118
100	0x3dacab1b	0.08431073
101	0xbe5886fe	-0.21145245
102	0x3debb05d	0.11508248
103	0xbdd111ce	-0.10208474
104	0x3ed83999	0.42231444
105	0x3d8cd947	0.0687738
106	0x3e3aa67c	0.18227571
107	0xbe36821f	-0.17823075
108	0x3e9fd0e5	0.3121406
109	0xbd951a47	-0.07280403
110	0xbe0d4bef	-0.13798498
111	0xbe420f5e	-0.18951175
112	0xbde9edbf	-0.114222996
113	0xbe3d0e3b	-0.1846246
114	0xbd4ae337	-0.049533095
115	0xbd8648c0	-0.06556845
116	0x3e4a418f	0.19751571
117	0xbccdae65	-0.025107572
118	0xbdb78567	-0.08960991
119	0x3cc769cd	0.024342442
120	0xbda7a2e2	-0.08185364
121	0x3e141d8e	0.14464399
122	0xbdb108f0	-0.08644283
123	0x3e5d94c4	0.21638781
124	0x3c6aa034	0.014320422
125	0x3e1a3865	0.15060575
126	0xbe2941ad	-0.1652896
127	0x3e83510e	0.25647777
128	0x3d51412a	0.051087536
129	0xbdfaa83d	-0.1223912
130	0x3e100785	0.14065368
131	0xbe6b7874	-0.22995168
132	0xbe40c0c7	-0.18823539
133	0xbd8ae03f	-0.06781053
134	0xbe89dea4	-0.26927674
135	0xbde53a52	-0.11192764
136	0x3ec06620	0.37577915
137	0xbe2aef7c	-0.16692919
138	0x3dcb4dc4	0.09926942
139	0x3e8ecb91	0.27889684
140	0xbe807eed	-0.25096837
141	0x3d93db56	0.072195694
142	0xbd29881b	-0.041389566
143	0x3ec32ffc	0.38122547
144	0xbda78e10	-0.08181393
145	0x3e9a0bbd	0.3008708
146	0x3eed0949	0.46296147
147	0xbdd037c8	-0.101668894
148	0x3e83af17	0.2571952
149	0xbec5a6e5	-0.38603893
150	0x3d05cbc0	0.032665014
151	0xbe057543	-0.13033013
152	0x3e91b0c4	0.28455174
153	0x3e2b4933	0.16727142
154	0xbd0eae12	-0.034833975
155	0xbebb87d5	-0.3662707
156	0x3de4bda7	0.11168986
157	0xbedd341b	-0.43203816
158	0xbeafe639	-0.34355333
159	0x3ecd383e	0.40081972
160	0xbd913837	-0.070908
161	0xbe01ba99	-0.12668838
162	0xbea28c39	-0.31747606
163	0xbe43c401	-0.19117738
164	0xbed84678	-0.42241263
165	0xbeb3480d	-0.35015908
166	0x3e8ac03b	0.27099785
167	0x3d5bf91a	0.05370436
168	0x3ec1c1fb	0.37843308
169	0x3c05b1ee	0.0081600975
170	0xbe45db48	-0.1932193
171	0x3deedd74	0.116633326
172	0x3eb0b4e4	0.3451301
173	0x3cc150df	0.023598133
174	0xbde78c6e	-0.11306082
175	0xbe25172e	-0.16122124
176	0xbe3b1bd2	-0.18272331
177	0xbe3f2fd7	-0.18670593
178	0xbe3f0805	-0.18655403
179	0xbe468aa8	-0.1938883
180	0xbca58f37	-0.020209892
181	0xbcd53ca0	-0.026029885
182	0xbe22096a	-0.15823904
183	0x3ed968fc	0.4246291
184	0xbead3558	-0.3382976
185	0x3d3282e0	0.043581843
186	0x3d8d6d88	0.06905657
187	0x3e4372d4	0.19086772
188	0x3e00fe5f	0.12597035
189	0xbe2cefa7	-0.16888295
190	0xbe503f70	-0.203367
191	0x3eb05a59	0.3444393
192	0xbcb1c9eb	-0.021702727
193	0xbc822ac2	-0.01588953
194	0xbc08bbe5	-0.008345579
195	0xbcba08b3	-0.022709226
196	0xbcd441ac	-0.025910221
197	0x3e53cfa9	0.20684685
198	0xbd3e50b7	-0.046463694
199	0xbdcd51cd	-0.10025368
200	0xbc324072	-0.010879623
201	0xbe5f6150	-0.21814466
202	0xbb65f616	-0.0035089306
203	0x3dfd94b2	0.12381877
204	0xbda1094e	-0.07863103
205	0xbd957b45	-0.072989024
206	0xbe701ccd	-0.23448487
207	0x3e892c3e	0.26791567
208	0x3c52e456	0.012871822
209	0x3b20bbb8	0.0024525952
210	0x3e8abf10	0.27098894
211	0xbdf0fc0a	-0.11766823
212	0x3db73a40	0.08946657
213	0xbea87b80	-0.32906723
214	0x3e14ba4c	0.14524192
215	0xbe1be17f	-0.15222739
216	0x3daca3c9	0.08429677
217	0xbce6e36b	-0.028184613
218	0x3e99148d	0.29898492
219	0xbe8a4e69	-0.27012947
220	0x3db708ab	0.089372
221	0xbe393aa2	-0.18088773
222	0xbde5faea	-0.11229499
223	0x3e3db97d	0.1852779
224	0xbd43125f	-0.047624942
225	0x3dd6f1f0	0.10495365
226	0xbe6dd957	-0.2322744
227	0xbe1dcee9	-0.15410961
228	0xbcf863a7	-0.030320955
229	0xbd75bbb0	-0.059993446
230	0x3e789f31	0.24279477
231	0xbd89d3d1	-0.06729854
232	0x3ea69159	0.32532766
233	0xbb3c0836	-0.0028691418
234	0xbe114997	-0.14188229
235	0x3e31ee44	0.17376047
236	0x3e114cba	0.14189425
237	0x3db1db23	0.08684375
238	0xbd42c26f	-0.047548708
239	0xbdffe4a9	-0.12494785
240	0xbcde3dab	-0.027129015
241	0xbb296015	-0.0025844623
242	0xbe8e76de	-0.27825063
243	0xbda16df3	-0.07882299
244	0xbdbfd8d8	-0.093675315
245	0xbdcf074e	-0.10108815
246	0xbdcd8582	-0.1003523
247	0x3da08423	0.07837703
248	0x3d03b31a	0.032153226
249	0x3d50cec6	0.050978445
250	0x3e8ae011	0.27124074
251	0x3d9b14b3	0.075723074
252	0xbda30295	-0.07959477
253	0x3d078714	0.033087805
254	0x3da70183	0.08154585
255	0x3e5b4e68	0.21416628

onnx::LSTM_184 f4 [1, 512]
0	0x3da01aa7	0.078175835
1	0x3eac3e56	0.3364131
2	0x3ea59da3	0.3234683
3	0x3e10e291	0.14148928
4	0x3e1e6398	0.1546768
5	0x3e0588f2	0.13040522
6	0xbd068331	-0.032839958
7	0x3e1cbbf3	0.15306072
8	0x3d5ff448	0.054676324
9	0x3d12d24a	0.03584508
10	0x3e01628e	0.12635252
11	0x3c4a9ac8	0.012366004
12	0x3dd0ad1e	0.101892695
13	0x3e31a4f4	0.17348081
14	0x3ecbc3ea	0.39797908
15	0x3d0f2044	0.03494288
16	0x3e521677	0.20516382
17	0x3d9ff3f9	0.07810206
18	0x3e0cb62b	0.13741367
19	0x3e90f887	0.2831461
20	0x3df34470	0.11878288
21	0x3d5a136a	0.05324117
22	0x3e5fa1b3	0.21839027
23	0x3e500395	0.20313866
24	0x3e3149e6	0.17313346
25	0x3e904205	0.2817537
26	0x3e3be69a	0.18349686
27	0x3e35e720	0.17763948
28	0x3dfc5409	0.12320716
29	0x3e462542	0.1935015
30	0x3e5682de	0.2094836
31	0x3e1227e2	0.14273027
32	0x3e2c561b	0.16829722
33	0x3d89948a	0.06717785
34	0x3d923e47	0.07140785
35	0x3c331e2a	0.010932485
36	0xbd9502ba	-0.07275911
37	0x3e9e5007	0.3092043
38	0x3debbffa	0.11511226
39	0x3f2241e7	0.6338181
40	0xbcd8a6bb	-0.02644669
41	0x3eabbfd8	0.33544803
42	0x3f0cd477	0.55011696
43	0xbd9aa9be	-0.07551907
44	0x3e1d34ff	0.15352248
45	0xbda0fc15	-0.07860581
46	0x3de9dc61	0.11418987
47	0xbbcee15f	-0.0063134874
48	0x3da4a2d5	0.0803887
49	0x3e47b66c	0.19503182
50	0x3e1b2ba8	0.15153372
51	0x3e345cd9	0.17613544
52	0x3e427f5b	0.18993895
53	0x3d11ef55	0.035628635
54	0x3e31a451	0.17347838
55	0xbcca0702	-0.024661545
56	0x3bb9f7ae	0.0056752777
57	0x3edc455c	0.43021667
58	0x3ed68cc6	0.41904277
59	0x3ec04182	0.37549978
60	0xbc8ddb28	-0.017316416
61	0x3e9d8330	0.3076415
62	0xbba83f49	-0.0051344973
63	0x3e2331ff	0.15937041
64	0x3e9a15b8	0.30094695
65	0x3e9246a5	0.28569523
66	0x3ecf3d08	0.4047625
67	0xbc1aacbe	-0.009440599
68	0x3e7d4cd1	0.24736334
69	0x3e8cae5e	0.27476782
70	0x3d189677	0.03725287
71	0x3e679b1e	0.22617766
72	0x3d6e2bbe	0.058147185
73	0x3e022240	0.12708378
74	0x3e86455d	0.26224795
75	0x3e10a774	0.14126378
76	0x3e6fa66b	0.23403327
77	0x3e5c0edb	0.21490042
78	0x3ea6b33b	0.32558617
79	0xbd92297d	-0.071368195
80	0x3e1f2e11	0.15544917
81	0x3de9d950	0.11418402
82	0xbd4cc9b3	-0.049997043
83	0x3e8f0f65	0.27941433
84	0x3dfdf5bc	0.12400386
85	0x3e48126d	0.19538279
86	0x3e374e31	0.17900921
87	0x3d9cde1c	0.076595515
88	0x3d4596f6	0.04823967
89	0x3e0645c4	0.13112551
90	0x3e0c7a81	0.13718607
91	0xbc5997cf	-0.013280823
92	0x3ba28282	0.0049594054
93	0x3d2d71d6	0.04234489
94	0x3e17ec4c	0.14836234
95	0x3d12a20e	0.03579908
96	0xbd968147	-0.073488764
97	0x3dc74d89	0.097315855
98	0x3e425bf3	0.18980388
99	0xba2dd668	-0.0006631375
100	0x3c096583	0.008386019
101	0x3e81102f	0.2520766
102	0x3e9eca08	0.31013513
103	0x3f12604e	0.571782
104	0x3d7bcf9a	0.06147728
105	0x3e8227d7	0.2542102
106	0x3ec0ee6a	0.37681895
107	0x3e1e11e4	0.15436512
108	0x3e2adbb9	0.1668538
109	0x3df52f9a	0.1197197
110	0x3e4ae471	0.19813706
111	0x3e263253	0.16230135
112	0x3db6a4c5	0.08918146
113	0x3d66aa34	0.056314662
114	0xbdaef590	-0.08542931
115	0x3e7dabcd	0.24772568
116	0x3d6be06c	0.057587072
117	0x3d73be7e	0.05950784
118	0x3def7e2b	0.116939865
119	0x3dcea6a9	0.10090382
120	0xbd7e8297	-0.06213626
121	0x3eda7beb	0.42672667
122	0x3eeaec91	0.4588361
123	0x3e7d65f4	0.24745923
124	0xbde5aa07	-0.11214071
125	0x3ea5c471	0.32376435
126	0x3d6723a9	0.056430493
127	0x3d56f5e3	0.05248059
128	0xbd0aaf96	-0.033858858
129	0xbe620b6e	-0.22074673
130	0xbe05e94c	-0.13077277
131	0x3d56d540	0.052449465
132	0xbe5221d9	-0.20520724
133	0xbc9f3e4e	-0.019438889
134	0xbc6f50e7	-0.014606691
135	0xbcfdd0ea	-0.030983407
136	0x3dadb0e9	0.084810086
137	0xbe1ab819	-0.1510929
138	0xbe8474b8	-0.258703
139	0xbc4502dd	-0.012024608
140	0xbca6f620	-0.020381033
141	0xbe5cd915	-0.21567185
142	0xbe31da26	-0.17368373
143	0x3e509164	0.20367962
144	0xbd4a0218	-0.049318403
145	0xbd769097	-0.060196485
146	0x3d804c71	0.0626458
147	0xbdfe7abf	-0.12425756
148	0x3e1620fe	0.14661023
149	0x3c7e5936	0.015524199
150	0x3c94a7e3	0.01814646
151	0xbd506822	-0.05088056
152	0x3e30cf30	0.17266536
153	0xbdc2ea2c	-0.09517321
154	0xbe0d4db6	-0.13799176
155	0x3d8e2867	0.069413
156	0xbd809ad9	-0.06279535
157	0xbe595635	-0.21224292
158	0xbdb21249	-0.08694894
159	0x3ddfd7af	0.1092981
160	0x3d73a2b5	0.05948134
161	0x3c91c5fb	0.0177946
162	0xbce9d5e3	-0.028544372
163	0x3d10c8e9	0.035347853
164	0x3c509216	0.012730142
165	0xbdae23c4	-0.085029155
166	0xbdf43806	-0.11924748
167	0xbe90763c	-0.28215206
168	0x3d832941	0.06404353
169	0xbe864a80	-0.26228714
170	0xbddaa2e0	-0.10675597
171	0x3d03763f	0.03209519
172	0x3db41d3a	0.08794637
173	0x3c1db400	0.009625435
174	0xbd9257b5	-0.07145635
175	0xbc6a3f46	-0.014297312
176	0xbe08ac5b	-0.13346998
177	0xbb3d2fe8	-0.0028867666
178	0x3c842efd	0.016135687
179	0xbcb334fc	-0.02187585
180	0xbd53a2b4	-0.051668838
181	0x3dbeda9a	0.09319039
182	0x3d2d6683	0.04233409
183	0xbd1c0dd2	-0.038099118
184	0x3c24c785	0.010057335
185	0xbe9433b4	-0.28945696
186	0xbe790320	-0.24317598
187	0xbe822428	-0.2541821
188	0xbdcb17d6	-0.09916656
189	0xbe1abcbc	-0.15111059
190	0x3d48f381	0.04906035
191	0x3a557d0c	0.00081439386
192	0xbda80736	-0.082045004
193	0x3cd4d19e	0.02597886
194	0x3d4c88ad	0.04993503
195	0xbe00515c	-0.12531036
196	0xbdbba176	-0.091616556
197	0x3d9b55d3	0.07584729
198	0xbd5e53b3	-0.05427904
199	0xbdba58fb	-0.09099003
200	0x3e06167a	0.13094512
201	0xbd51d9b5	-0.051233012
202	0xbdd97380	-0.10617733
203	0xbd95cc66	-0.073143765
204	0xbd12a307	-0.035800006
205	0x3b995932	0.0046798224
206	0xbccc0cfa	-0.024908531
207	0x3e1fc717	0.1560329
208	0xbcb45ff6	-0.022018414
209	0x3c2d6910	0.010584131
210	0x3e686cf0	0.22697806
211	0xbd86657b	-0.065623246
212	0x3df1d1b1	0.118075736
213	0xbdc635bd	-0.096782185
214	0x3dfaca57	0.122456245
215	0x3d23aa8d	0.03995757
216	0x3d67ef1b	0.056624513
217	0x3d962b86	0.0733252
218	0x3c7129f2	0.014719473
219	0xbd19e262	-0.03756941
220	0xbcd1b361	-0.02559823
221	0xbe116440	-0.14198399
222	0xbe0d9738	-0.13827217
223	0xbc60dfa6	-0.013725197
224	0xbd683f4f	-0.056701
225	0xbdddefc3	-0.108367465
226	0xbddf0b42	-0.10890819
227	0xbe1268c4	-0.14297777
228	0xbe0a6460	-0.13514853
229	0xbb4aed25	-0.0030964103
230	0xbd8962de	-0.067083105
231	0xbd1137f3	-0.035453748
232	0x3d45d618	0.04829988
233	0x3d141485	0.03615238
234	0x3ce284e0	0.02765125
235	0x3e03d4a7	0.12874089
236	0x3d9844ee	0.07435022
237	0x3c71c6ed	0.0147569
238	0xbdcf87ee	-0.101333484
239	0xbc6729a7	-0.014109052
240	0x3d2ff5ac	0.0429589
241	0xbdb32f9d	-0.08749316
242	0xbdeab710	-0.11460698
243	0xbbd4def0	-0.006496303
244	0xbd4bdee1	-0.0497731
245	0xbd8b34f1	-0.06797207
246	0xbd5b7001	-0.053573612
247	0x3db58259	0.088627525
248	0xbdd915ed	-0.10599885
249	0xbbdca764	-0.0067338217
250	0xbcc11129	-0.023567753
251	0xbd030f6c	-0.03199713
252	0xbd6f3f9b	-0.05841027
253	0xbc364849	-0.011125633
254	0x3d9eeaa1	0.07759596
255	0x3da1af62	0.0789478

onnx::LSTM_202 f4 [1, 256, 64]
0	0x3e77e4b1	0.24208333
1	0x3de68ffd	0.11257932
2	0xbeadc0aa	-0.33936054
3	0x3da10547	0.07862335
4	0xbeb4b0a5	-0.3529102
5	0xbebb9aa0	-0.36641407
6	0xbe3afcd7	-0.18260513
7	0xbce9bfaa	-0.028533775
8	0x3e1cdcfa	0.15318671
9	0x3e886aa3	0.26643857
10	0xbe42d940	-0.19028187
11	0x3e603d8c	0.21898478
12	0xbdcf7ccd	-0.10131226
13	0xbe31bdd8	-0.17357576
14	0xbea3bcba	-0.31979924
15	0x3e297800	0.16549683
16	0x3e19879d	0.14993139
17	0x3c8a2537	0.016863449
18	0x3dddfe5f	0.10839533
19	0xbd8dc63a	-0.06922574
20	0xbb184a03	-0.0023237474
21	0xbdfeea57	-0.124470405
22	0xbdb9ae2c	-0.09066424
23	0x3dc08a15	0.09401337
24	0xbc1add37	-0.009452156
25	0x3e24942f	0.16072153
26	0x3e13ed07	0.14445888
27	0xbdedbd26	-0.11608343
28	0xbe9d9891	-0.3078046
29	0xbe83fbbb	-0.25777993
30	0xbd881178	-0.06643957
31	0xbaa3fddf	-0.0012511573
32	0x3ea6f753	0.32610568
33	0xbe20ecff	-0.15715407
34	0x3d8921a6	0.06695871
35	0xbc3b2df7	-0.011424533
36	0x3d4efc82	0.05053378
37	0xbe50181e	-0.203217
38	0x3ea530aa	0.3226369
39	0xbf07352d	-0.52815515
40	0x3d00f794	0.03148611
41	0x3e290754	0.16506702
42	0x3eec7109	0.4617999
43	0xbe15a8d3	-0.14615183
44	0x3d2c38ee	0.04204648
45	0xbe12020a	-0.1425859
46	0xbe950e7b	-0.2911261
47	0x3e23a14b	0.15979497
48	0x3ca5f066	0.020256232
49	0xbe08a147	-0.13342772
50	0x3e550b0e	0.20804998
51	0x3e33833d	0.17530532
52	0xbb3caaf7	-0.0028788426
53	0x3ce2d391	0.027688773
54	0x3e920b0d	0.28524056
55	0x3d5f9bd8	0.054591984
56	0xbdc881cd	-0.097903825
57	0x3f151095	0.5822843
58	0xbe386e63	-0.18010859
59	0x3ee1adac	0.44077814
60	0x3d99dc0d	0.075126745
61	0x3ed8d998	0.4235351
62	0xbd99cc63	-0.07509687
63	0xbda7ea40	-0.081989765
64	0x3e6de2b1	0.23231007
65	0x3d29ed1b	0.041485887
66	0x3e18a500	0.14906693
67	0xbd17de93	-0.037077498
68	0xbe99593d	-0.29950896
69	0xbcd4018d	-0.025879646
70	0xbcb80297	-0.022462172
71	0x3dbd6336	0.092474386
72	0x3dc618a5	0.09672669
73	0xbca9584c	-0.020671986
74	0x3e49214a	0.19641605
75	0x3e590ca1	0.21196224
76	0xbd153ed6	-0.03643688
77	0x3df18e87	0.11794763
78	0xbc971fca	-0.018447775
79	0x3e22d73d	0.1590242
80	0xbde38563	-0.11109426
81	0xbd3ffb2c	-0.046870396
82	0x3e1f8f2b	0.15581958
83	0x3d9eb290	0.07748902
84	0x3d72b9ae	0.05925911
85	0x3e83cbb3	0.25741348
86	0xbc885efb	-0.016646853
87	0xbd202662	-0.039099105
88	0xbd29c4b9	-0.041447375
89	0x3da3868c	0.07984647
90	0x3e2e808f	0.17041229
91	0xbe26977b	-0.16268723
92	0x3da7682b	0.08174165
93	0xbe44dd17	-0.19224964
94	0xbd80cf0d	-0.06289492
95	0x3d41fcc2	0.04736019
96	0xbd894342	-0.067022815
97	0x3d3034f7	0.04301926
98	0xbd95940b	-0.073036276
99	0xbe227f33	-0.15868835
100	0xbc630ace	-0.0138575565
101	0xbe915439	-0.2838457
102	0xbd43457e	-0.047673695
103	0x3d48fb20	0.049067616
104	0x3d0a0daf	0.033704456
105	0xbe1e8e5a	-0.1548399
106	0xbddf8d26	-0.10915594
107	0xbe5047c0	-0.2033987
108	0x3df79c48	0.12090355
109	0xbd932d0a	-0.07186325
110	0xbdf8edda	-0.121547416
111	0xbd1bf220	-0.038072705
112	0xbe11ca64	-0.14237362
113	0x3ba2cdf4	0.004968399
114	0x3d8b4923	0.06801059
115	0xbe319be7	-0.17344628
116	0x3d39c4d3	0.04535372
117	0x3d3cb002	0.04606629
118	0xbe147c4f	-0.14500545
119	0xbd4cc0be	-0.0499885
120	0x3d1f434a	0.03888253
121	0xbe568b20	-0.2095151
122	0x3e69f0b8	0.22845733
123	0x3d84426a	0.0645798
124	0x3e51a33b	0.20472424
125	0xbe5291c0	-0.20563412
126	0xbdb23f27	-0.087034516
127	0x3e02f1ae	0.12787506
128	0x3d80a563	0.06281545
129	0x3d721e3b	0.05911086
130	0xbe80d916	-0.25165623
131	0xbdb27a4c	-0.087147325
132	0x3b926bc4	0.004468413
133	0xbeb14a54	-0.3462702
134	0x3bcdb3b0	0.006277524
135	0x3c94e1c7	0.018174065
136	0x3d257f78	0.040404767
137	0x3e359c9b	0.17735521
138	0xbe192779	-0.14956464
139	0x3da168b8	0.07881302
140	0x3e053c1d	0.13011213
141	0x3dabbcf5	0.0838565
142	0xbe8a31de	-0.2699117
143	0x3e557658	0.20845926
144	0x3d5d3701	0.054007534
145	0xbccb1c76	-0.024793845
146	0x3dec90dd	0.11551068
147	0xbafe8d67	-0.0019420803
148	0xbcd7bbaa	-0.026334602
149	0xbdb6ffc1	-0.089355
150	0x3d874eb4	0.06606808
151	0x3e153a15	0.14572938
152	0xbe14b517	-0.14522205
153	0x3d1becdb	0.03806768
154	0x3dda506a	0.10659869
155	0xbab77b15	-0.0013998473
156	0xbd93be77	-0.07214063
157	0xbddc0149	-0.107424326
158	0x3b231caa	0.0024888911
159	0xbd9f5c11	-0.07781232
160	0x3e4c9e36	0.19982228
161	0xbe258d27	-0.16167127
162	0x3baa24bf	0.0051923688
163	0x3dda36cb	0.10654982
164	0xbdd1fc03	-0.102531455
165	0xbcd31dcb	-0.025771042
166	0x3df71022	0.12063624
167	0xbead17d2	-0.33807236
168	0x3d8c676f	0.06855666
169	0x3e920900	0.2852249
170	0x3ec75ea3	0.3893939
171	0x3beebefc	0.0072859507
172	0x3d84ab3c	0.06477973
173	0xbda964e9	-0.082712
174	0xbe65a6cc	-0.22426909
175	0xbd87c982	-0.066302314
176	0xbc83b38b	-0.016076824
177	0xbe2ae59c	-0.16689152
178	0x3e05ff4f	0.13085674
179	0x3d583934	0.05278893
180	0x3e45dffc	0.19323725
181	0xbdc58905	-0.09645275
182	0xbd23ebca	-0.040019788
183	0x3e3aec0d	0.18254109
184	0xbe2585fe	-0.16164395
185	0x3eb5ab4c	0.35482252
186	0xbe1e3473	-0.15449695
187	0x3dbdae0e	0.09261714
188	0xbc78c2e5	-0.015183185
189	0x3eeadf00	0.4587326
190	0xbd8d1542	-0.0688882
191	0x3e053295	0.13007577
192	0x3e3ce426	0.18446407
193	0x3e4bd7f6	0.19906601
194	0xbe91c59f	-0.28471085
195	0xbdced7dd	-0.100997664
196	0xbd911804	-0.07084659
197	0xbebccdbb	-0.3687571
198	0x3dac9821	0.08427454
199	0x3e50b95f	0.20383213
200	0x3d1e8881	0.0387044
201	0x3c4b0dc2	0.012393417
202	0xbcca4573	-0.02469132
203	0x394460eb	0.00018728121
204	0xbc870051	-0.016479643
205	0xbe7d1eba	-0.24718753
206	0xbe34157d	-0.17586322
207	0x3d78a71c	0.060706243
208	0x3ce61e92	0.028090749
209	0xbdf38e5a	-0.11892386
210	0x3cdd8a14	0.02704338
211	0x3eb0322b	0.34413275
212	0xbd8effd0	-0.06982386
213	0x3c7a0e26	0.015262162
214	0xbd95e355	-0.07318751
215	0x3db07517	0.08616083
216	0x3de021f0	0.10943973
217	0x3dc93fbb	0.09826609
218	0xbdcc8600	-0.09986496
219	0x3d2aa5df	0.041662093
220	0x3da8699b	0.08223268
221	0xbcc92e84	-0.024558313
222	0xbd0952fc	-0.033526406
223	0x3de33144	0.11093381
224	0x3e10920c	0.14118212
225	0xbd346278	-0.04403922
226	0x3deb4230	0.11487234
227	0x3e0749f9	0.13211812
228	0x3dbe4959	0.09291334
229	0xbc14bed7	-0.009078703
230	0x3e2445af	0.16042207
231	0xbe2b22ee	-0.16712543
232	0xbcf910a4	-0.030403443
233	0x3ef33b6d	0.47506276
234	0x3e366ef4	0.17815763
235	0xbe0a9b46	-0.13535795
236	0x3d094d44	0.033520952
237	0x3d09c00f	0.033630427
238	0xbd725f67	-0.059173014
239	0x3d9e19ed	0.07719789
240	0xbc8a9839	-0.016918289
241	0xbdbf8311	-0.09351171
242	0x3e2a3f05	0.16625603
243	0x3e45f286	0.19330797
244	0x3e5693ee	0.20954868
245	0xbcb7d6a1	-0.02244121
246	0xbd347ced	-0.04406445
247	0x3ba06eca	0.0048960196
248	0x3d8e7c67	0.069573216
249	0x3e9603f7	0.292999
250	0xbe6113b3	-0.21980171
251	0x3e9bb75c	0.3041333
252	0xbd174687	-0.036932494
253	0x3e3aed5b	0.18254606
254	0xbc021307	-0.007939107
255	0xbd9108d8	-0.07081765

onnx::LSTM_203 f4 [1, 256, 64]
0	0xbd91a2bc	-0.07111117
1	0x3dee0de6	0.11623745
2	0xbdebb74d	-0.11509571
3	0xbdf376a5	-0.11887864
4	0x3e23caa2	0.15995267
5	0x3d382506	0.044957183
6	0x3d33906b	0.0438389
7	0xbe0ddf84	-0.13854796
8	0x3dc46f36	0.09591524
9	0x3e277643	0.16353707
10	0x3e8d4402	0.27590948
11	0xbdc50aa5	-0.09621171
12	0xbce30801	-0.027713777
13	0xbc850fac	-0.016242824
14	0xbc319cc3	-0.010840598
15	0xbe15b091	-0.14618136
16	0x3d0a4b24	0.033763066
17	0xbdb9fb3b	-0.090811215
18	0xbcc567ae	-0.02409729
19	0xbc56a6d8	-0.013101302
20	0xbe164ea9	-0.14678444
21	0xbe106102	-0.14099506
22	0x3dec741f	0.11545586
23	0x3d2c6da3	0.042096745
24	0xbe866e3c	-0.26255977
25	0xbde762c3	-0.11298134
26	0xbe097f4b	-0.13427465
27	0xbd1ecf0d	-0.038771678
28	0x3e5fd995	0.21860345
29	0x3e0dfb86	0.1386548
30	0xbd612967	-0.054971125
31	0xbd0e2991	-0.03470761
32	0xbd4b9114	-0.049698904
33	0xbdcfa22b	-0.10138353
34	0xbbfeaaa2	-0.007771806
35	0xbd99092c	-0.074724525
36	0x3d7afe9e	0.061277978
37	0x3e319c99	0.17344894
38	0xbceec361	-0.029145898
39	0xbe04f80b	-0.12985246
40	0x3e02ccb8	0.12773407
41	0xbdba6421	-0.09101129
42	0xbd392f54	-0.04521115
43	0x3e322d81	0.17400171
44	0xbd6b82ea	-0.057497896
45	0xbe3b0bd6	-0.18266234
46	0x3c25c2be	0.010117231
47	0xbe065ee1	-0.13122131
48	0xbe11a2c6	-0.1422225
49	0x3e38f7f2	0.18063334
50	0x3c837b91	0.016050132
51	0xbe4d1c89	-0.20030417
52	0x3e074ec1	0.13213636
53	0x3d35126e	0.04420703
54	0xbc5b9121	-0.013401301
55	0x3bbb4dbd	0.0057160542
56	0x3e403db4	0.18773538
57	0xbecc2c6b	-0.39877638
58	0xbda7dd91	-0.08196557
59	0x3e94ce62	0.29063708
60	0x3d8454ea	0.064615086
61	0xbdf6eace	-0.12056504
62	0x3c3fb757	0.0117014265
63	0x3ce3e823	0.027820652
64	0x3e64129d	0.22272725
65	0xbe0b19f7	-0.13584124
66	0xbe48e0ab	-0.19616954
67	0xbce30576	-0.027712565
68	0xbd69d657	-0.057089176
69	0x3b7acaee	0.0038267928
70	0x3db2b363	0.087256216
71	0x3b0a3e50	0.002109427
72	0x3e531011	0.20611598
73	0xbe1cee14	-0.15325195
74	0x3d91babe	0.07115696
75	0xbbefe0a5	-0.007320481
76	0x3e478651	0.19484831
77	0x3e07f518	0.1327709
78	0xbe0eea71	-0.1395662
79	0xbcca0248	-0.02465929
80	0x3dc14ea9	0.09438831
81	0xbd83b3c5	-0.06430773
82	0x3e18ff4d	0.1494114
83	0x3dea173a	0.11430211
84	0xbde0fbff	-0.109855644
85	0x3d3dae13	0.04630859
86	0xbca58e46	-0.020209443
87	0xbe002117	-0.12512623
88	0xbd2b77f1	-0.041862432
89	0xbd9a9245	-0.0754743
90	0x3b631388	0.0034649093
91	0x3d9b5dbf	0.0758624
92	0x3e90ca1f	0.28279206
93	0x3df0d1ca	0.11758764
94	0x3e3f23cc	0.18665999
95	0x3e2ba262	0.16761163
96	0x3dbf2ea8	0.09335071
97	0x3d66a2a4	0.05630745
98	0x3d1a43db	0.03766237
99	0x3cb25fb0	0.021774143
100	0x3e3d6414	0.18495208
101	0xbdffd8ba	-0.12492509
102	0x3e09b31b	0.1344723
103	0xbbbb02df	-0.0057071294
104	0xbc523ee3	-0.012832376
105	0xbc9b90e1	-0.018989982
106	0xbd6a2c94	-0.05717142
107	0xbbedc354	-0.007255951
108	0x3ccaaa83	0.02473951
109	0x3d8d3a4f	0.06895887
110	0x3e0fb2ee	0.140331
111	0x3e4d9c77	0.20079218
112	0xbdc4da42	-0.09611942
113	0x3e2f5a88	0.17124379
114	0xbca1f93a	-0.01977216
115	0xbde3ba74	-0.111195475
116	0x3d4dd476	0.050251447
117	0x3c92e9ac	0.017933689
118	0xbe192844	-0.14956766
119	0xbdd81061	-0.10549999
120	0x3c7b03e3	0.015320751
121	0xbd8b84fb	-0.068124734
122	0x3c72e23c	0.014824446
123	0x3dc29ca8	0.09502536
124	0xbc826ae4	-0.01592011
125	0xbc94bda2	-0.01815683
126	0x3ce527b7	0.02797304
127	0x3dc6ab03	0.09700587
128	0xbd60d28d	-0.054888297
129	0xbacb6e54	-0.0015520551
130	0xbbec8c04	-0.0072188396
131	0x3ccd94f8	0.025095448
132	0xbb234414	-0.0024912404
133	0xbdbccbd0	-0.09218562
134	0xbd9578b0	-0.0729841
135	0xbd8d0d55	-0.068873085
136	0x3e2164cc	0.15761107
137	0x3d4b7d84	0.049680248
138	0x3c85d41d	0.016336495
139	0x3c417ea0	0.011809975
140	0x3c081168	0.008304931
141	0xbd479237	-0.048723426
142	0xbd0d5326	-0.034503125
143	0x3d9ae3a3	0.075629495
144	0x3d23f0d6	0.0400246
145	0xbde475af	-0.11155259
146	0x3c62ab29	0.013834753
147	0xbdbd1de3	-0.09234216
148	0xbb6a1c18	-0.0035722312
149	0x3d557192	0.052110262
150	0x3c2ebd38	0.01066523
151	0xbd1e8f1d	-0.038710702
152	0xbe2016eb	-0.15633743
153	0x3d965513	0.07340445
154	0x3de27bf2	0.11058797
155	0x3de2100d	0.11038218
156	0x3d0851ef	0.033281263
157	0xbcab247b	-0.020891419
158	0x3d25114d	0.040299702
159	0xbbc9913e	-0.0061513474
160	0x3e04236c	0.12904137
161	0xbd06828b	-0.03283934
162	0x3dcf58bd	0.10124347
163	0x3e79a0f3	0.24377804
164	0xbc943455	-0.01809136
165	0x3cb59917	0.022167725
166	0x3c4a3c60	0.012343496
167	0xbe0b1a6e	-0.13584301
168	0xbd44a254	-0.04800637
169	0xbcbac9c2	-0.022801284
170	0x3d21aa79	0.039469216
171	0xbd6b555e	-0.05745446
172	0xbe23f440	-0.16011143
173	0xbe5d2f13	-0.21599989
174	0xbce62d71	-0.02809784
175	0xbde358e2	-0.111009374
176	0x3e0448fc	0.12918466
177	0x3cc5e9b0	0.024159282
178	0xbd7855bf	-0.06062865
179	0x3c7bdfa6	0.015373146
180	0xbcedd526	-0.029032301
181	0x3e0eefa3	0.13958602
182	0x3df53cf7	0.11974519
183	0xbc20be3d	-0.009810981
184	0x3d0aba97	0.033869352
185	0xbde8dae2	-0.113698736
186	0x3e3b5b82	0.18296626
187	0xbd922e2b	-0.07137712
188	0x3c4ac2ee	0.012375576
189	0xbc07ad0a	-0.008281002
190	0xbd63c875	-0.055611093
191	0xbd7f6f36	-0.06236192
192	0x3e6dc359	0.2321905
193	0x3d1d6795	0.03842886
194	0xbdd8dd0f	-0.105890386
195	0xbdcaecc1	-0.099084385
196	0x3d8ec846	0.06971793
197	0xbd967c4c	-0.073479265
198	0xbcc13b9e	-0.023587998
199	0x3c66c27f	0.014084457
200	0x3e08c9fa	0.13358298
201	0xbdb66737	-0.089064054
202	0x3d1a8407	0.037723567
203	0x3da31d93	0.07964625
204	0x3e403af0	0.18772483
205	0xbd58d87e	-0.052940838
206	0xbe268464	-0.1626144
207	0x3d9271cb	0.071506105
208	0xbbb8ba70	-0.0056374595
209	0xbe09b91c	-0.1344952
210	0x3d8ee6ac	0.06977591
211	0xbde12c72	-0.109948054
212	0x3d2668b2	0.04062719
213	0x3d15e518	0.036595434
214	0x3c2eee26	0.010676896
215	0xbe26d486	-0.16292009
216	0xbdfbe325	-0.12299184
217	0x3d3205dd	0.043462623
218	0xbaa9db42	-0.0012959021
219	0xbe24d2f5	-0.16096099
220	0xbe03d4dc	-0.12874168
221	0xbdb7c935	-0.08973924
222	0x3d030aa9	0.03199259
223	0xbcab15a1	-0.020884337
224	0xbd7971b2	-0.060899444
225	0x3d0775c3	0.03307129
226	0x3dcbe59f	0.09955906
227	0x3d8a1bc4	0.06743577
228	0xbe1fbec5	-0.15600117
229	0x3de4894d	0.111590005
230	0x3e528459	0.20558299
231	0xbcb051e7	-0.02152343
232	0xba9b7587	-0.0011860587
233	0x3e226999	0.15860595
234	0x3dab41c5	0.08362154
235	0xbd78834d	-0.060672093
236	0xbd41b1c0	-0.047288656
237	0x3da781df	0.08179068
238	0xbe0fe757	-0.14053093
239	0xbdba5b86	-0.09099488
240	0xbd9a52f6	-0.07535355
241	0x3d1ab75f	0.037772533
242	0x3d97c0f2	0.07409848
243	0xbb8fdeda	-0.0043905796
244	0xbb72affc	-0.0037031164
245	0x3c8ea9a7	0.01741488
246	0x3d09cd85	0.033643264
247	0x3d683f56	0.056701027
248	0xbde09418	-0.10965747
249	0xbe2c4d80	-0.16826439
250	0x3d70d3ca	0.058795728
251	0x3e529a14	0.20566589
252	0xbd9cb7cd	-0.07652245
253	0xbd98a79a	-0.074538425
254	0xbc5c62e0	-0.013451308
255	0x3dacfb46	0.08446364

onnx::LSTM_204 f4 [1, 512]
0	0x3e36b667	0.17843018
1	0x3dbe0033	0.09277382
2	0x3def2b75	0.11678211
3	0x3e133c30	0.14378428
4	0x3d7864f7	0.060643163
5	0xbd40b38c	-0.04704623
6	0x3ef5bcf4	0.47995722
7	0x3d09ff9e	0.03369104
8	0xbbd3fcdb	-0.0064693517
9	0x3dd91cfb	0.10601231
10	0x3e282b99	0.16422881
11	0x3e19d950	0.15024304
12	0x3e4f1730	0.20223689
13	0x3e0155d9	0.12630405
14	0x3e57b95f	0.21066807
15	0xbce15fcf	-0.027511505
16	0x3e2d8105	0.16943748
17	0x3e3b479b	0.18289034
18	0x3e23df55	0.16003163
19	0xbc603414	-0.013684291
20	0x3e3161d6	0.17322478
21	0x3b58393e	0.0032993103
22	0x3e1d45c4	0.15358645
23	0x3dda0243	0.10644963
24	0x3e5cab14	0.21549636
25	0x3e26fbdd	0.16307016
26	0xbd5aaf6b	-0.053389948
27	0x3d82f83a	0.06395002
28	0x3cec4085	0.028839359
29	0x3e7b41d9	0.24536838
30	0x3e066d96	0.13127741
31	0x3e08c70e	0.13357183
32	0x3d4d5e73	0.050138902
33	0x3e148fe6	0.14508018
34	0x3e275d5c	0.16344208
35	0x3d387ba1	0.045039777
36	0x3d33e00c	0.04391484
37	0x3dc165a2	0.09443213
38	0x3d01c373	0.031680536
39	0x3da5e7f3	0.081008814
40	0x3dbaecd1	0.091272004
41	0xbcfbfe23	-0.03076083
42	0x3da91081	0.08255101
43	0xbd233b31	-0.03985137
44	0x3e00238b	0.12513559
45	0x3de265fc	0.11054608
46	0x3e062fb1	0.1310413
47	0x3d533c2b	0.051571053
48	0x3e02f7c4	0.12789828
49	0x3dd59714	0.104292065
50	0x3cb26a8b	0.02177932
51	0x3d8f0f22	0.06985308
52	0x3e22aeef	0.15887044
53	0x3c094f1a	0.008380676
54	0x3d76ba58	0.060236305
55	0x3e6786e9	0.22610058
56	0x3e3e8feb	0.18609588
57	0x3de25548	0.11051422
58	0x3e7b4e59	0.24541606
59	0x3e200078	0.15625179
60	0xbd8f9741	-0.07011271
61	0x3da19da7	0.07891398
62	0x3e2e1cdf	0.17003201
63	0x3e16eb86	0.14738283
64	0x3e047d4d	0.12938423
65	0x3d62eefd	0.0554037
66	0x3ddf4c56	0.10903232
67	0xbd2d504e	-0.042312913
68	0x3d1fdbf2	0.039028116
69	0xbddfbeac	-0.1092504
70	0x3e6b551b	0.22981684
71	0x3decc58a	0.11561115
72	0x3e3b4d7a	0.18291274
73	0x3b59e143	0.0033245839
74	0x38d03560	9.928155e-05
75	0x3e05d328	0.13068831
76	0x3e0c565d	0.1370482
77	0xbd776b15	-0.060404856
78	0x3e629c9e	0.22130057
79	0x3d0cbf98	0.034362406
80	0x3e422370	0.18958831
81	0x3df2a263	0.11847379
82	0x3e4761ab	0.19470851
83	0xbd2aaa79	-0.04166648
84	0x3e38cbe5	0.1804653
85	0x3dda27ae	0.106520995
86	0xbc719c82	-0.014746787
87	0x3da9305f	0.08261179
88	0x3b213414	0.0024597691
89	0xbd37c478	-0.0448651
90	0x3e1d0284	0.15332991
91	0x3d3d1618	0.04616365
92	0x3dad24df	0.08454298
93	0x3da93a85	0.08263115
94	0x3ec6771f	0.38762757
95	0x3dba9a06	0.09111409
96	0x3df71a5f	0.12065577
97	0x3bf089e4	0.0073406566
98	0x3e1c032e	0.15235588
99	0x3ace6885	0.0015747702
100	0xbb8eb89e	-0.004355504
101	0xbdb035a8	-0.08603984
102	0xbd9c4aca	-0.076314524
103	0x3b505e6a	0.0031794556
104	0x3deadda2	0.11468054
105	0x3d384415	0.044986803
106	0x3d323596	0.043508135
107	0xbd8eb645	-0.06968359
108	0xbba05784	-0.004893245
109	0xbd53571d	-0.05159675
110	0x3d81d7da	0.063399985
111	0x3e61cd80	0.22051048
112	0x3d171026	0.036880635
113	0x3d5366a6	0.051611565
114	0x3de2ab3c	0.110678166
115	0x3e28c4f2	0.16481379
116	0x3de53494	0.11191669
117	0x3cf4fa2a	0.029904444
118	0x3e0e9da0	0.13927317
119	0x3e2f84dd	0.17140527
120	0x3e72d90f	0.23715614
121	0x3cf20dc9	0.029547589
122	0x3e3678f7	0.17819582
123	0x3d0b9d3c	0.034085497
124	0xbe0a8d65	-0.135305
125	0xbdd17f82	-0.10229398
126	0xbaacb7e6	-0.0013177365
127	0x3e6d1d34	0.23155671
128	0xbe15d179	-0.14630689
129	0x3d9346cc	0.07191238
130	0xbd8a5b35	-0.067556776
131	0x3d6cf59f	0.05785143
132	0xbdc30bee	-0.0952376
133	0xbe2ace1a	-0.16680184
134	0xbe18bb3d	-0.14915176
135	0x3acbb0b8	0.0015540337
136	0xbe06db2e	-0.13169548
137	0x3d822e0a	0.063564375
138	0xbd2ce90d	-0.042214442
139	0xbe534fe5	-0.20635946
140	0xbe2c14fc	-0.1680488
141	0x3cabd822	0.020977084
142	0xbdd061d1	-0.10174907
143	0xbe5b1c49	-0.21397509
144	0xbe60b8b3	-0.21945457
145	0xbc2c79ea	-0.010527113
146	0x3d0806ff	0.033209797
147	0xbc7f89ad	-0.015596789
148	0xbd4cd9c8	-0.05001238
149	0xbd1389e2	-0.036020167
150	0xbd99ac58	-0.07503575
151	0x3d8bdbec	0.06829056
152	0xbdbf3831	-0.093368895
153	0x3d6edcad	0.05831592
154	0xbcccb263	-0.024987405
155	0x3dbb160d	0.09135065
156	0xbdee717a	-0.11642738
157	0xbd805f75	-0.06268207
158	0xbd7aab76	-0.061198674
159	0xbd065cc1	-0.0328033
160	0xbc3188f0	-0.010835871
161	0xbe227e4f	-0.15868495
162	0x39046ab2	0.00012628248
163	0x3d8a8e3e	0.06765412
164	0xba38a6c2	-0.0007043892
165	0x3dd4c9e4	0.1039007
166	0x3d81f1ce	0.06344949
167	0xbd311753	-0.043235134
168	0xbe05c9c7	-0.13065253
169	0x3d62c8e6	0.055367373
170	0xbbd237e7	-0.0064153555
171	0x3dbeb359	0.093115516
172	0xbe51f909	-0.20505156
173	0xbdd5537f	-0.10416316
174	0xbd58ebcd	-0.052959252
175	0xbdb39df2	-0.0877036
176	0xbc2e4f71	-0.0106390575
177	0xbe34cb1f	-0.1765561
178	0x3d529dcf	0.05142003
179	0xbdd63b02	-0.104604736
180	0x3d3108af	0.043221172
181	0xbe33ef96	-0.17571864
182	0xbe24146c	-0.16023415
183	0xbd0ca1aa	-0.034333862
184	0xbe284bce	-0.16435167
185	0xbe848a7a	-0.258869
186	0xbe363e93	-0.17797308
187	0x3baeebbf	0.0053381617
188	0x3e08e089	0.13366903
189	0x3a60d01b	0.0008575932
190	0x3dd2cc81	0.10292912
191	0xbde4c1e1	-0.11169792
192	0x3df02b24	0.117269784
193	0xbc57d0d3	-0.013172346
194	0xbd927592	-0.07151331
195	0xbd486aa1	-0.048929814
196	0x3d95c603	0.07313158
197	0xbccab8af	-0.024746267
198	0x3dbefa46	0.093250796
199	0xbd8057e0	-0.06266761
200	0x3db592b0	0.08865869
201	0xbe00c339	-0.12574472
202	0x3e10b2b6	0.14130673
203	0x3d0cc824	0.034370556
204	0xbd92955b	-0.071573935
205	0x3cb14db9	0.021643506
206	0x3d155b4d	0.036464024
207	0x3c716c66	0.014735317
208	0x3d8d29de	0.06892751
209	0xbd99e3ed	-0.075141765
210	0x3d0a4a4a	0.033762254
211	0x3c03f17e	0.008053182
212	0xbd8ff7e1	-0.07029701
213	0xbd92795f	-0.07152056
214	0xbd74b334	-0.059741214
215	0x3da30158	0.07959241
216	0xbdad403c	-0.08459517
217	0x3da0b4cf	0.078469865
218	0xbdb21ef1	-0.08697308
219	0xbe05c9fc	-0.13065332
220	0x3cb97bec	0.022642098
221	0x3dd589e3	0.104266904
222	0x3d9a7097	0.07541006
223	0xbd63e980	-0.055642605
224	0xbc85178e	-0.016246583
225	0xbe178605	-0.14797218
226	0x3d9faab1	0.07796229
227	0x3da6a9f9	0.081378885
228	0x3d883a33	0.066517256
229	0x3e385ef7	0.18004976
230	0x3dcb8f44	0.09939435
231	0x3da1f757	0.079085045
232	0xbdb7c08e	-0.08972274
233	0x3ddd725f	0.1081283
234	0xbd838abe	-0.06422947
235	0x3dc9a1b1	0.09845293
236	0x3d438c4b	0.047741216
237	0xbd42dd15	-0.04757412
238	0xbd240ce2	-0.04005135
239	0xbde82206	-0.113346145
240	0xbc863db5	-0.016386846
241	0x3da49041	0.08035327
242	0x3d975bd6	0.07390563
243	0x3da7762a	0.08176835
244	0x3b38b3cb	0.0028183337
245	0x3a236400	0.00062328577
246	0xbd31cc55	-0.043407757
247	0xbcb59cbf	-0.022169469
248	0xbd904760	-0.07044864
249	0xbd036b68	-0.032084852
250	0xbdb835b8	-0.08994621
251	0x3d155874	0.03646131
252	0x3df177a6	0.11790399
253	0xbdc4ef49	-0.096159525
254	0x3dca3a62	0.09874417
255	0x3d3fd642	0.04683519
