models/model_squeeze_v3_final.onnx (onnx, 26966 bytes, 8 tensors)

fc.0.weight f4 [16, 32]
00000000: a1ff 493e b3c6 983d 9483 813d 3992 cb3c
00000010: 7635 3abd a653 b0bc a0d1 543e c941 5e3c
00000020: 67d6 38bc c459 53be 8b50 19be 74be 2e3e
00000030: 6c24 263d ccd3 0d3d 02ea 70be bb23 e43c
00000040: 964e b0bc bb5e 96bd 9756 ba3d 8ba9 31bd
00000050: be3d 93bd 72c2 92bc 470b ae3d 6091 68bb
00000060: e798 b7bd 7040 f6bc 0203 2ebc 25b6 373e
00000070: 840e a73d 131c 91be 54a0 ebbc 1d7f ce3c
00000080: 904f 47bd 52b7 fe3d 6d37 cbbd 6607 08be
00000090: 2911 6d3d cbda b13d 8cb6 8fbe b198 fcbd
000000a0: 5131 3fbe 806c bb3e 4ce7 543e f3e0 b3bd
000000b0: f452 5c3d 3911 92bd c416 82bd 8aea 223e
000000c0: 1124 033e 587c b63e 8405 45be 0d83 303e
000000d0: 44b3 c93d dc00 6ebd dbf8 c9be cbe1 903b
000000e0: 1865 293d 9d57 ec3d 43be 873c 2c58 d0bc
000000f0: f8c2 cdbd 27dd 993d acd1 61bd 9677 343e
00000100: 3945 7dbe 33c1 553d 99ac 163e 1b2a 52bd
00000110: 83eb 29be 3120 813c bd0f 6cbe 2306 063d
00000120: 8ba4 40be ee6b 0f3e 3358 15bc 8a1a 40be
00000130: 141f 12be 0002 34bd ad36 033e a14f 88bd
00000140: 467b 763d 49cc c23c 1dcb 61be d1d7 4a3e
00000150: 2477 623c 7619 86bd 2f0e 2fbe f0a4 3cbd
00000160: c5fc f23d 91e1 83bd 156a 63bb 0415 653d
00000170: 662d 8c3b eecf 453e 1b26 87bc 84ae 563d
00000180: a71c bfbc 3294 26bd f5eb d9bd 86fd 073d
00000190: 1755 aabd fd10 10bd 62ec e0bd d091 93bc
000001a0: cf4a 88bc 46cd af3e 97a0 263e 6c09 4ebb
000001b0: cff9 fd3c 9d58 273d ce16 033e 5ead 053e
000001c0: 18c0 d33d d5fa b43e 3f4a 26be d7c9 b03e
000001d0: 85de 0ebd e683 a4ba d075 a4be c8d2 523c
000001e0: 7132 c23d 0aab 2d3e 4357 9b3d d9ca ce3b
000001f0: 7e20 e0bd 3809 3b3d 4ef3 47bc 1a13 6fbd
00000200: 9556 58be 4a2a 7b3d bfa8 dfbb b060 44ba
00000210: a84c 90bd 5413 fabd 4092 9ebe c1f7 8a3d
00000220: 4771 06be 315a 1d3e 5819 ab3b 13f4 22bd
00000230: 5341 b7bd 64f9 ea3d ab01 2b3e fe58 8e3d
00000240: 3204 ef3d 5869 673e 438c ddbd e711 553e
00000250: 963f c43d e306 87bc 2ea3 5dbd d206 5ebd
00000260: 95ca f33c a5e2 90bd b82c 4a3d ab24 d5bd
00000270: 8000 7bbe 8d63 0d3e 03a1 e8bc 82f3 77bb
00000280: 8488 0ebd 4e96 43bd e501 b93d 4e68 c7bd
00000290: 4d7e 203e e9ff 03be 5567 40bd fcc9 95bc
000002a0: 4cde d8bd 483f 11be 2564 11bd 39aa fcbb
000002b0: 17aa dd3c 59d4 c7bc f8c2 8fbc afab 2ebd
000002c0: 8b63 4f3c 4090 613a 51e5 c23d e236 de3d
000002d0: faa2 85bd 5a69 a1bd 0226 e1bc 6710 43be
000002e0: 50ab dabc ae1e 033e 8c8d bbbd dd12 debd
000002f0: 0d68 c23d b9e8 2a3d 5f1c a9ba ca85 083e
00000300: d934 813e 85a3 223e 736d 18bd 0905 713c
00000310: 10aa 44bd edec 683c 2652 553e cf0f 29bd
00000320: ce27 743e 7074 6cbe 1c25 15be 27b2 e93d
00000330: f259 cf3d 59c0 d0b9 96e0 423d 7706 7d3c
00000340: f78a 06bd 71a6 5ebe d9e7 553e 240b d1bd
00000350: f12d 12be c635 f83d f2d2 6d3e b4fb bebd
00000360: be96 053c e9e8 653d d7d6 0f3d 1a38 b83d
00000370: 19de 143e 9568 35be ba6c 173e 0634 17be
00000380: 7046 123d 2bf6 4ebd e465 a73d 6857 d1bc
00000390: 6824 85bb 1788 a53c 92b2 a83d aed4 cb3c
000003a0: 1673 4b3e 8c2b 59be f61b 8cbe 1426 92bd
000003b0: 128d 053e 5356 d03d 03a5 04be ed9a fc3d
000003c0: b379 803d f30b 6fbe e766 683e 0585 84be
000003d0: f74d 87be ca28 c9bc cf0d b33d 0e9b 653d
000003e0: fd24 c7bd 655b 31bd f978 06bd 4aab bf3d
000003f0: ba27 183e c98a e8bd 85b6 d0bd 1caa 4fbe
0.19726421 0.07459774 0.06323925 0.024849998 -0.04546114 -0.021524262 0.2078309 0.013565489
-0.011281586 -0.20639712 -0.14972131 0.1706484 0.04056208 0.034625813 -0.23526767 0.027849069
-0.021521848 -0.07342287 0.09098547 -0.04337458 -0.07189511 -0.017914984 0.08498245 -0.003548704
-0.08964711 -0.030060023 -0.010620834 0.17940576 0.081570655 -0.2834173 -0.028762974 0.025207097
-0.04865986 0.12437309 -0.09922681 -0.13284072 0.057877693 0.086843096 -0.2806896 -0.12333811
-0.18671156 0.36606216 0.20791358 -0.0878314 0.053790048 -0.07132191 -0.063519984 0.15909782
0.12806727 0.35641742 -0.19240385 0.17237492 0.09848645 -0.05810629 -0.39447674 0.004421448
0.041356176 0.115401484 0.016570216 -0.025432669 -0.10046953 0.075128846 -0.0551316 0.17623743
-0.24733438 0.052186202 0.14714278 -0.051309686 -0.16593747 0.01576242 -0.23052879 0.032720696
-0.18812768 0.14006016 -0.009115267 -0.18760124 -0.14269668 -0.04394722 0.12813826 -0.06655813
0.060176156 0.023779051 -0.22050138 0.1980889 0.013822351 -0.06547825 -0.17095254 -0.046055734
0.11864618 -0.06439508 -0.003470068 0.055928245 0.004277873 0.193176 -0.016497662 0.052412525
-0.023329092 -0.040668674 -0.10640708 0.033200763 -0.08317011 -0.03517245 -0.109825864 -0.018013865
-0.016637234 0.343363 0.16272198 -0.0031438721 0.031002907 0.040855993 0.12801668 0.13054416
0.10339373 0.3534762 -0.1623926 0.34528992 -0.03488018 -0.0012551516 -0.32121134 0.012867637
0.09482277 0.16959777 0.07585003 0.0063108024 -0.109436974 0.04566309 -0.012204004 -0.058367826
-0.21126778 0.061319627 -0.006825536 -0.0007491214 -0.07045871 -0.12210718 -0.30970955 0.067855366
-0.1312915 0.15366437 0.005221527 -0.03978355 -0.089480065 0.11473349 0.16699855 0.06950568
0.11670722 0.22598779 -0.108177684 0.2080761 0.095824406 -0.016482776 -0.0541107 -0.054205723
0.029759685 -0.07074479 0.049359053 -0.104073845 -0.2451191 0.13807507 -0.028397089 -0.003783435
-0.03479816 -0.047750764 0.090335645 -0.097366914 0.1567318 -0.1289059 -0.046973545 -0.01828479
-0.10589275 -0.14184296 -0.035495896 -0.007710722 0.027058644 -0.024393247 -0.017549023 -0.0426442
0.01265801 0.0008604564 0.09516395 0.10850312 -0.06525226 -0.07881422 -0.027483944 -0.19049226
-0.026693016 0.12804672 -0.09157857 -0.10843442 0.09492502 0.041725848 -0.0012902132 0.13332286
0.25235632 0.1588269 -0.037213754 0.014710673 -0.048013747 0.014216644 0.20832118 -0.041274842
0.2384331 -0.23091292 -0.14564937 0.11410933 0.101245776 -0.00039816162 0.047577463 0.015443436
-0.03284737 -0.2174318 0.20889224 -0.10207203 -0.14275338 0.121196315 0.23225 -0.09325352
0.0081536155 0.056130324 0.035116997 0.089950755 0.14537849 -0.17715676 0.1478757 -0.14765939
0.035711706 -0.050527733 0.08173731 -0.025554374 -0.004063178 0.020206494 0.082371846 0.024881687
0.1986812 -0.21208018 -0.27365083 -0.07136169 0.13042095 0.10172715 -0.12953572 0.12334237
0.06273212 -0.23344402 0.22695504 -0.25882736 -0.2642667 -0.024555583 0.08742868 0.056056075
-0.09723852 -0.04330005 -0.032830212 0.09358843 0.14858904 -0.11354596 -0.10191063 -0.20279735

fc.0.bias f4 [16]
00000000: a47e c83d b958 db3d d2c5 103d 070d fabc
00000010: 9951 05bd 5283 44be 4c54 383e a98e 67bd
00000020: 2c29 16bd 4608 063e 9641 70bd 81af 1f3d
00000030: 510a 64bd 3d05 88bc 91b1 343d 691a fabb
0.0978978 0.10710282 0.035344906 -0.03052379 -0.03254852 -0.1919072 0.18000907 -0.056532536
-0.03666036 0.13089094 -0.058656298 0.038985733 -0.0556739 -0.01660406 0.044114653 -0.007632543

fc.3.weight f4 [2, 16]
00000000: f0f7 a63e 195e 15be 5d0c 06be ddb7 8dbe
00000010: f4ea 14be cb8e 2b3c 0848 3b3e 1a6c 373e
00000020: 53d7 2d3d eb56 363e 1bb9 aabe c947 67be
00000030: 3b0a 84bd dc48 3bbe e1ad 13be 24cc 853c
00000040: 49f0 98be 5cd5 343e 87ba 9d3e cdd2 6d3d
00000050: 1b59 893e 83c8 c4bd d3a5 9bbe 52e7 8bbe
00000060: 398d b6be c95c 87be 0794 a83d 72e0 613e
00000070: 66a8 803e db2c 403e a066 583e 7efe b93e
0.32611036 -0.14586677 -0.13090654 -0.2767934 -0.14542753 0.010471056 0.18289196 0.17912331
0.042441677 0.17806594 -0.3334435 -0.22585978 -0.06447264 -0.18289512 -0.14421798 0.016332693
-0.29870823 0.17659515 0.30806372 0.058062363 0.26825795 -0.09608557 -0.3039995 -0.2732492
-0.3565462 -0.26437977 0.08231359 0.22058275 0.25128478 0.18767111 0.21132898 0.36326975

fc.3.bias f4 [2]
00000000: 4aa3 7c3e 232e 43bd
0.24671665 -0.04765142

onnx::LSTM_114 f4 [1, 128, 9]
00000000: 9070 d3bd 1236 c03d 34ca 403e 0f14 fc3c
00000010: 5516 5d3d 4899 b2bd 9d60 01bd d929 9c3d
00000020: 9cf5 8bbd 4f96 acbc e628 243d 4b21 f33d
00000030: 48c9 01be 6e8b b7bd 28ba 473e bf0c 8b3d
00000040: 289f babd 9ba0 ad3d 3d0c 173e 080a a93d
00000050: 0276 00bc f008 ab3c e62d 813c f8c6 c4bc
00000060: 28db b63e fcac 933d 2acb 263c b833 db3d
00000070: 2531 463e b01e 8fbd 922b acbd 00fe 8bbe
00000080: af2c a8be d9cb ba3d a16e 07bd 7323 463d
00000090: ab5c 25bd 542d 93bd 83d0 85bc 9263 973d
000000a0: 48b4 3abd 3a05 17bc 5728 94bd 999c 9fbd
000000b0: 4b71 70bd 14db 4bbe a91b d03d 211b 703e
000000c0: e2a5 8a3e 6306 59be e94b 33bd e04b 98bd
000000d0: 32f6 1d3c 5b55 583e 07f2 5ebd 4ab2 31bd
000000e0: 4f3d 183e e711 953e 4d67 1fbd 8fd2 04be
000000f0: 43af fcbc 5b61 753e 4ca8 d03d 5f5b 29be
00000100: abe2 a7bd 7740 2bbd 5e8f 17bd a299 b2bd
00000110: da6c 87bd 4a12 483e e956 29bc 5621 d23d
00000120: 7428 25bd d1e6 0d3d 0501 223e ffc9 073e
00000130: 009b e23d 0810 83bd f029 c43d 0698 393e
00000140: 1887 d03c e0d2 f13d 3a3d 083e 29a8 143e
00000150: ca0e b3bd 5c80 bcbd d809 d03d 8b64 973c
00000160: 4fbb 91bc 7619 2d3d bc7c 1f3c 99c8 453e
00000170: 1938 f9bb 5a1a 8b3d 336b 923d 5d67 2e3d
00000180: d188 703e bcdd 453e 58bd 8dbd 093c 29be
00000190: 9e5f c1bd 44e2 d0bc 0828 453e 5c16 e83c
000001a0: 03c0 96bd 7843 793e df47 473d a293 adbc
000001b0: 122a 32be 458d f7bc b419 943d f07a 9c3c
000001c0: 669b da3c b03b a73d 4107 953d 90a7 843d
000001d0: 2108 da3d b626 10be 0c73 35be 214d b1bc
000001e0: f18c 523c 8ddd 073d 9dc1 35be e4dd 193e
000001f0: f332 66bd 37f3 d6bb 62aa 11be 2ec2 c13c
00000200: fa96 1a3d 87d3 eabd e3c4 133e fbb7 0d3d
00000210: b199 b03d b06f ebbc c0c9 c73a 9279 ae3d
00000220: 76c6 023d 0e07 37bd a87c f1bd c97a a23d
00000230: 1b6d 0abd a87a 3d3e a88e 31be 8c99 823d
00000240: ab58 43bd b227 8dbd 8501 8abd ca16 ba3d
00000250: db59 f4bd e468 013d 7a51 12bd dd51 433e
00000260: 2cff 603e 20b0 c1bd 8536 003e ed25 3f3c
00000270: 6bae a23d ce5a fbbc 60d5 f23d 60bf 453d
00000280: 0e67 12be 1397 ccbc 772c c03d 8cee 74bd
00000290: 8a00 e6bc da1b e1bc dcd2 f9bd 5797 113e
000002a0: 5fb9 66ba d9f9 843d de9a 083e 431f 113e
000002b0: bd64 6bbe 80a9 853e bc9e 633e f574 a2bc
000002c0: 6a84 2d3e b22c 1e3e db1c 593c 867e 093e
000002d0: 57d0 48be 323a 093c 2bbe b63d bb55 883c
000002e0: 8e43 a03d bdf3 16bc 2209 633d 1a39 aa3e
000002f0: de6f 5b3e 22d3 b43d f99c a2bb 3b3b 203e
00000300: 6f27 f73c 30cb d6bc c9bb 09bd ddfd 5c3e
00000310: aacd eebd 2037 71bd 042f 613d d75b cd3c
00000320: bd26 633e e87c a53c 1674 253e df0d 61be
00000330: a83a 563d b28d 8a3d 3332 20be f4f4 f93d
00000340: ec5a f2bc 79d0 46bd c053 b53d c8e1 af3d
00000350: 5340 e6bd f820 0cbd e008 21be 9f01 0abe
00000360: 57ea 983d ee09 ad3d 3f96 89bd 3d0b 123e
00000370: 6972 c23c 256c 003e ee05 fbbd f0cd 3cbe
00000380: 6b3a 1a3e fe27 8dbe fd8e c3bd b2ae de3c
00000390: 0fce e93c 680e 65bd 784b 143e 7c47 143d
000003a0: c81c 03be 225b 433e 44c3 35be ee6a 0d3e
000003b0: 11de 493e 910c 923d f8fb dfbd 4b69 eabd
000003c0: 298c 4f3e 504b 1dbd 3378 26be d67c 943d
000003d0: aec2 34be e2fa 623e 871e 2b3e dbec e23c
000003e0: 082f 053b 1846 51bd b732 f43d b517 95bd
000003f0: 1fce c53c 55d9 68bd f87a ac3d 00e5 cebd
-0.10324204 0.09385313 0.18827134 0.030771283 0.053976376 -0.08720642 -0.03158628 0.07625169
-0.06833956 -0.021067766 0.040078066 0.118715845 -0.12674439 -0.08962141 0.19504607 0.067895405
-0.09112388 0.08477899 0.14750762 0.082538664 -0.007840635 0.020878285 0.015768956 -0.024020657
0.35714078 0.072107285 0.010180274 0.10703224 0.19354685 -0.06988275 -0.08406748 -0.27342224
-0.3284659 0.09120912 -0.03306449 0.04837365 -0.04037158 -0.0718638 -0.016334778 0.073920384
-0.045582086 -0.009217555 -0.07234257 -0.077935405 -0.058701795 -0.1990779 0.10161526 0.23447849
0.27079684 -0.21193843 -0.043773565 -0.07436347 0.009641217 0.2112631 -0.054430034 -0.04338292
0.14867137 0.2911522 -0.038916875 -0.12970947 -0.03084529 0.2396292 0.1018835 -0.16538762
-0.0819753 -0.041809525 -0.03700196 -0.087207094 -0.06612559 0.19538227 -0.010335662 0.102602646
-0.040321782 0.03464395 0.15820701 0.13260649 0.1106472 -0.06399542 0.095783114 0.18124399
0.025455043 0.11807799 0.13304606 0.14517273 -0.08743055 -0.0920417 0.101581275 0.01848056
-0.017789511 0.04226061 0.009734329 0.19314803 -0.0076055643 0.067921355 0.07149353 0.042579044
0.23489691 0.19322866 -0.0692088 -0.16526808 -0.09442066 -0.025498517 0.19253552 0.028330974
-0.07360842 0.24342144 0.048652526 -0.02118856 -0.17398861 -0.03021873 0.07231465 0.01910159
0.026685428 0.08165681 0.07276774 0.064772725 0.10646082 -0.14077267 -0.17719668 -0.021643223
0.012850986 0.03317027 -0.17749639 0.15026051 -0.056200933 -0.006559755 -0.14225152 0.023652162
0.03774164 -0.11466127 0.14430575 0.034599286 0.08623064 -0.02873978 0.0015242621 0.085192814
0.03192755 -0.044684462 -0.117913544 0.07933576 -0.033795457 0.18503821 -0.17339575 0.06376943
-0.047691982 -0.06892337 -0.06738571 0.09086378 -0.11931201 0.031594172 -0.035722233 0.19074197
0.2197234 -0.09457421 0.12520798 0.011666757 0.07943424 -0.030682947 0.11857104 0.048278213
-0.14297125 -0.024974382 0.09383481 -0.05979781 -0.028076429 -0.027479101 -0.12198421 0.14217888
-0.0008801426 0.06492967 0.13340327 0.14172082 -0.22987647 0.2610588 0.22228521 -0.01983116
0.16945043 0.15446737 0.013251509 0.13427171 -0.19610725 0.008375691 0.089229904 0.016642442
0.07825385 -0.009213385 0.05542863 0.3324669 0.21429393 0.08829333 -0.0049625603 0.15647595
0.03017017 -0.026219934 -0.03362635 0.21581216 -0.11660321 -0.058890462 0.05497648 0.025068207
0.22182746 0.020201162 0.16157565 -0.21977948 0.052302033 0.067653075 -0.1564415 0.12204924
-0.02958437 -0.04853866 0.08853865 0.08587986 -0.112427376 -0.03421113 -0.15726042 -0.13477181
0.07466572 0.084491596 -0.0671811 0.142621 0.023736196 0.12541254 -0.122569904 -0.18437934
0.15061347 -0.27569574 -0.09548757 0.02718291 0.02854064 -0.055921942 0.14481914 0.036200985
-0.12803948 0.19077733 -0.17750269 0.13810322 0.19713618 0.07131303 -0.10936731 -0.11445864
0.2026831 -0.0384019 -0.1625679 0.07250373 -0.1765239 0.22166017 0.16710864 0.027700832
0.0020322222 -0.051092237 0.119237356 -0.072799124 0.024146138 -0.05684789 0.08421892 -0.10102272

onnx::LSTM_115 f4 [1, 128, 32]
00000000: 2709 a5bd 40de 793d d4c8 26be 5150 803d
00000010: 41d9 eebd 6247 5d3d b343 03bd ff52 883e
00000020: 1f64 c53d d2d7 2e3e de0d c4ba 65e2 c9bd
00000030: ed31 563e e1fb 123d 6a85 88bd dca1 673e
00000040: 71bf 2f3e e18e 1bbe f6e5 33bd e935 0ebb
00000050: bf50 ae3d d761 8c3d 8694 76bc 0cb7 5b3e
00000060: 59eb 803d c45e a1bd 1bf7 e0bc b368 9a3d
00000070: 7573 ad3b ba9e b93b 387b a93d 974b 16be
00000080: bd6c c43d 8789 a2bd 7442 b03c 984e cdbd
00000090: 2049 08be ba4f a43b 116f 1dbe 1c2a d9bb
000000a0: 7b4e 1f3e 6532 02ba 5271 ccbd e791 c73d
000000b0: 543a cd3d 9019 34be d6cd a63d ab93 ecbd
000000c0: b90f 1c3d 8032 46be 51b6 2a3c 1da4 a0bd
000000d0: 5b76 f63c 51e8 08bd 5d0d f1bd 5890 60be
000000e0: 1246 943d c339 78bd d5ed 3a3d 0bb0 8cbd
000000f0: 3c33 ee3c 8976 66be 338c 1ebe edf7 c33d
00000100: 2c41 52bc 1d58 a93d 8591 93bd 8486 663d
00000110: 6366 1fbe 7ec9 283e dce8 2fbb abdd 763e
00000120: c7aa 42be 2d1b 7dbc 071a ebbd f197 8abd
00000130: ce1c ed3d 3c6e 9bbd fb55 783d 19f9 5b3e
00000140: 5302 193e c14d e0bd a599 17bd 92c5 31be
00000150: 9cc3 9ebc 376d 19be 8ad0 50bd ebb9 1f3e
00000160: 951b d23c 4d00 4f3d a6da b4bc 5741 3abc
00000170: 0883 103e afe8 cb3c cc8e 4ebe 8c90 a6bd
00000180: a885 ffbd eecf 323c b677 d93d 7c5e 03be
00000190: 3102 cbbd aa9f 983d 1ee7 f3bc b88d 913d
000001a0: a6e4 403d 1d95 ad3d 2d13 ba3d 8eae 273d
000001b0: 397f 51be e8fb 253e e2bf 413e 5589 79bd
000001c0: cf8e 0a3e 71d9 663c 6fef b8bc 8190 d43b
000001d0: b80d 5e3e 08d4 37be 3d0f 3fbd 9bf0 25be
000001e0: e14b e23d 5ae7 dcbd 4560 3e3e 7729 6fbd
000001f0: ae7b 0b3e 471b d3bd 2ee8 27be 2c5e fcbd
00000200: 1c59 0cbe e276 3bbe a2c7 ed3d ff00 a73d
00000210: 1de3 f2bd 63e6 adbd cb61 fdbd 2396 3d3e
00000220: f967 993c 8e47 413d bc02 37be 3140 363e
00000230: f1a8 343e 1694 e43c 4f22 b5bc 30db d03d
00000240: a2f3 a8bc 75c5 7c3d 828d a63d 6c5c 373d
00000250: 3ee5 953d 1a25 3b3c d2b1 bdbd 22e0 0abe
00000260: 6c4c 173e f61d 373d ccdc 6e3e daaf 80bd
00000270: a9f8 2c3e 6bee 7d3d af8a 0abe a7ff 893d
00000280: 6bca abbc 1df4 283c fb7b 14be 844f d3bc
00000290: 3bb1 42bd b0e5 18bd c6f8 883d c5a5 043e
000002a0: 8934 b83d 1f8c 593d 3072 aabc bf0e 063e
000002b0: 752b 1bbc 1e37 d43c d544 9ebc 2bd4 7d3e
000002c0: 661e 0c3e de99 1fbe 1f72 2dbe 0a96 923c
000002d0: a57b 793e 27d6 d8bc 5172 f2bd 05cd 61bd
000002e0: 7343 083e 55e6 52bd 42b0 88bd 43a7 de3d
000002f0: 4077 35bc e4a2 083e 38c9 6a3c cdf7 e13c
00000300: 2d50 9dbd 0c17 2a3d 3f6f d0bd d878 18be
00000310: 7bbc 76bd ad4d 983d 0723 173e b188 813e
00000320: 1275 033e 3459 f8bd f9e6 5f3d 1d4d 03be
00000330: 44f3 893e deec 003e b7da 3a3d 0c8d eebc
00000340: 6ca7 a43e 2cff 2e3e db76 48be 40b2 b9bb
00000350: 4274 553e 35f2 87be 442f 003e 1a1b 673e
00000360: c61d 603d ff71 8ebd a950 d9bc ffb1 803d
00000370: f207 b1bd 5bbd 3d3e 6581 0d3e 262f 3bbe
00000380: 19d9 6abe 6482 233e 4fc5 11bc c66b 9d3d
00000390: 00c0 1ebe d466 b93d 6c41 0bbe 7639 dd3d
000003a0: 9df6 d23c 1060 b63d 0ee9 c73d f2ef ec3c
000003b0: 8233 523e 53fc 633e d4d9 073e d6d3 813e
000003c0: ae79 0e3e 0632 4bbd 879c 05be d128 96bd
000003d0: c3c5 303e d5cb 18bd 35f1 e1bd 204f 353e
000003e0: 547b b93d c84b 1dbd 20e5 0f3e 8bdc fabc
000003f0: dec9 163d 7eb0 08be 746e 593d 925f 72be
-0.08058386 0.06100297 -0.16287547 0.06265319 -0.11662532 0.054023154 -0.032046985 0.2662582
0.09638237 0.17074516 -0.0014957746 -0.098576345 0.20917483 0.03588474 -0.06666072 0.22620338
0.17162873 -0.15191223 -0.04392048 -0.0021699613 0.08511495 0.06854599 -0.015050059 0.21456546
0.06294889 -0.07879403 -0.02746158 0.07539501 0.0052933046 0.0056646736 0.08275455 -0.14677273
0.09591053 -0.079363875 0.021516062 -0.10024756 -0.13309145 0.005014387 -0.153744 -0.0066273343
0.15557282 -0.0004966616 -0.09982552 0.097446255 0.10020891 -0.17587876 0.08144729 -0.11551603
0.03810093 -0.19355202 0.010419444 -0.07843802 0.030085733 -0.03342468 -0.11770127 -0.21930063
0.07239927 -0.06060196 0.04563697 -0.06869515 0.029077165 -0.22506155 -0.1548317 0.095687725
-0.012832921 0.082687594 -0.0720549 0.056280628 -0.15566401 0.16483113 -0.0026841676 0.24107997
-0.19010459 -0.015448374 -0.11479574 -0.06767262 0.1157776 -0.07589385 0.060628872 0.21481742
0.14942293 -0.109523304 -0.03701176 -0.17360523 -0.019380383 -0.14983068 -0.05098013 0.15598266
0.025647918 0.050537396 -0.022076916 -0.011368117 0.14112484 0.024891226 -0.2017166 -0.08133039
-0.12476665 0.010913832 0.10618536 -0.12829012 -0.09912527 0.074523285 -0.029773291 0.07107109
0.047093056 0.08475707 0.09085689 0.040937953 -0.20458688 0.16209376 0.18920854 -0.060921986
0.1353104 0.014089928 -0.022575108 0.006486953 0.21684921 -0.17951977 -0.04664539 -0.16205065
0.11049629 -0.10786314 0.18591411 -0.058389153 0.13621399 -0.10307937 -0.16397163 -0.12322649
-0.13705868 -0.18307069 0.116103426 0.08154487 -0.11859725 -0.084912084 -0.12372168 0.18514304
0.018726336 0.04718738 -0.17872137 0.17797925 0.17642571 0.027902644 -0.022111086 0.10198057
-0.020623986 0.061711747 0.08132459 0.044765875 0.07319115 0.01142242 -0.09262432 -0.13562062
0.14775246 0.044706307 0.23326415 -0.06283541 0.16891731 0.06199495 -0.13529466 0.06738215
-0.020970544 0.010312107 -0.1450042 -0.025794752 -0.0475323 -0.037328422 0.06688075 0.12953861
0.08994395 0.053112146 -0.020806402 0.13091563 -0.00947081 0.025905188 -0.019319931 0.24787967
0.13683471 -0.1558604 -0.16938065 0.01789381 0.24363573 -0.026469303 -0.118382104 -0.055127162
0.1330698 -0.051489193 -0.066742435 0.108717464 -0.011075795 0.13343388 0.014330201 0.027583981
-0.07681308 0.041525885 -0.101774685 -0.14889848 -0.060238343 0.074366905 0.14759456 0.252996
0.12837628 -0.12126389 0.054663632 -0.12822385 0.2694341 0.12590358 0.04561874 -0.02911999
0.32158983 0.17089528 -0.1957659 -0.005667001 0.2084513 -0.26551977 0.1251803 0.22568932
0.054715894 -0.06955337 -0.02652772 0.0628395 -0.086440936 0.18529265 0.13818891 -0.18279704
-0.22934379 0.15967709 -0.00889714 0.07686572 -0.1550293 0.09052816 -0.13599175 0.108019754
0.02575236 0.08905041 0.097612485 0.028923009 0.20527461 0.22264223 0.13266689 0.2535693
0.13913605 -0.049608253 -0.13047992 -0.07332004 0.1726294 -0.037303764 -0.11032335 0.17705965
0.09056726 -0.03840235 0.14052248 -0.030622741 0.03681361 -0.13348576 0.053083852 -0.2366927

onnx::LSTM_116 f4 [1, 256]
00000000: 912c 0ebe 6b2b 08be 5d77 183e baef aabd
00000010: 8b4c 03be d4b3 b7bc c9e7 353e 7d1d 133e
00000020: d56f 273e 72c5 873e b404 833e 11d5 f33d
00000030: 4302 4bbd 28cf 1fbd 852a 0b3e 3de0 f43d
00000040: b527 293d 5302 2a3e 4825 933d 7042 8c3d
00000050: 5374 d23d 34b3 fd3d f247 113e e26f 65bd
00000060: d1f3 723d 5157 363e b934 7e3b 9d8c 3a3d
00000070: 951a 0f3e f5ad 723d b30b 103d 95d5 a73d
00000080: 5096 fd3d e1b1 233e 3345 603e 85d3 853c
00000090: d00a 873d e8cf 88bc 3762 1b3e 368f 6d3e
000000a0: 19a4 f23d b3e7 1c3e fbac 293d 0327 233e
000000b0: 4db1 c83d d1df 38bd b43d f83c f5c5 5e3d
000000c0: 5b22 653e 7d12 ce3d d8b9 4fbd 6e9c 993e
000000d0: f1d1 303d 1e59 c3bd b98a 4b3e 47b8 18bd
000000e0: c5cd b53d 9dce 813d d9da 0c3e da37 6e3e
000000f0: 6732 ccbd e41e 863e 7597 b83d 1bfd 6d3e
00000100: f0ff 7abd c82a 353e dac7 2f3e 6a14 6bbd
00000110: fd40 5e3d 3c28 033e 70d7 80bd 78ac 6d3e
00000120: 51d9 63bd 91d2 87bb 0630 923d 6b96 663e
00000130: 384d 903d 325d 1b3e 7c8e 963d c056 c23d
00000140: 0b78 97bd e988 efbd 0c58 0f3d 840b 063e
00000150: f859 d23d bfa3 1f3e f7f7 a0bd adbc 08be
00000160: 6591 a73d 4dcb 1f3d a7ca 203e a513 e93d
00000170: 709c d8bd edf0 083e c2e3 203e ba5b c23d
00000180: e06a edbd 46c3 8d3d 6399 d2bd 870f 24be
00000190: 55cb f33d b415 e8bb 9343 d8bd 8474 33bd
000001a0: 14e6 28be 5664 6a3d 6b0c 01be b283 dc3d
000001b0: 4964 0cbc e1bb d3bd 9ea0 c3bc 19c8 1a3e
000001c0: 3a85 8a3c 0155 213d 96be c43d 48b5 5abd
000001d0: e1da 3dbc ad1b d6bd 20fd 263e f6b9 0a3e
000001e0: f916 8a3d 8f5d edbd 40f0 b7bd 0fc3 e73d
000001f0: 40d6 08be e8c2 b13c 6003 1bbe 2e50 2cbe
00000200: 9a86 83bd a57e 86bd 922f b3bd 0ca2 57bd
00000210: f4e1 85bd db95 c0bd f48e 7bbd 093e de3d
00000220: 1bd6 4b3e eb4e 7a3e b1e4 6c3e 838e d83b
00000230: 450a 64bd 499c 093e 1ff8 a23d 0f35 bebd
00000240: 34f6 0ebd 5132 b6bb 7f0a e03d 0180 163e
00000250: 5355 9e3d 034e d9ba 14e6 a23c e39a f0bd
00000260: 6350 47bd e590 c4bd da3f 6e3d 40e3 5c3e
00000270: 0f80 103e 934c 583e c59f 8fbd ebdb 07be
00000280: 04a9 d33d b24d 0b3e 508e c43d 3d74 36bc
00000290: c463 143e 4c23 5e3e f999 3d3e 7254 21bd
000002a0: d616 fd3b c3ae 933e 7841 d13d 5fc4 883e
000002b0: 4b1c f53c dbe2 653d 5c54 343e 43ea eb3d
000002c0: df8f afbc 7c45 233e 4147 193e a5c0 893e
000002d0: b9a5 8d3e 750f 2e3e 2906 823e b337 0b3e
000002e0: 2c71 eb3d 547c 66bb 72f7 95bc 3a62 56bd
000002f0: c1e0 5b3e 2308 be3d fbd5 6a3e fb66 383e
00000300: f89b c7bd 325a 3d3e 72ce 973d 9e7a 05bd
00000310: d820 b4bc 7032 cfbd 3940 523d 2094 e03d
00000320: b3ae 083e c3dc f43d 7468 b33d 00b9 ad3b
00000330: b154 163e 9f56 ca3d 78b1 653e be10 513e
00000340: d00c 523e 0d1c 2bbd 6364 c73d f7ae 873e
00000350: 5e23 013d c973 163e d9ad aabd 9310 2c3e
00000360: b581 5abd a77a b7bd d44c 233e 1d8d ecbd
00000370: 6aa8 d03d e0ed 3c3e 5f6f c03d f320 8bba
00000380: d5d8 493d cf12 e83d 9b8a 88bd b3d6 7cbd
00000390: 3908 04bd 7df8 1d3e 1b69 08be 2f2f 1c3e
000003a0: d24c 013e 7dfe 86bd a3e9 883c 9887 03be
000003b0: ea7f 153e abda 423e 598d 8cbd 982c e4bd
000003c0: bc71 21bd 5506 1c3e e3f6 efbd e69c 0dbd
000003d0: 4275 e5bd d78e d7bd e465 84b9 fdde e13d
000003e0: 6515 b13c 0585 e1bd 290a dd3d db52 8f3d
000003f0: 7af6 093e d3d8 8fbd ec63 76bd d479 a43d
-0.13884188 -0.13297813 0.14889283 -0.083465055 -0.12822168 -0.022424616 0.177642 0.14366718
0.16351254 0.26517826 0.25589526 0.119058736 -0.049562704 -0.03901592 0.13590439 0.119568326
0.041297633 0.16602449 0.07184845 0.068486094 0.10276093 0.12387696 0.14187601 -0.056014903
0.059314553 0.17806746 0.003878875 0.045544256 0.13974984 0.05924793 0.035167407 0.081950344
0.123821855 0.15985824 0.21901397 0.016336212 0.06593859 -0.0167007 0.15174185 0.23199162
0.118477054 0.15322761 0.041424733 0.1593285 0.097994424 -0.045135323 0.03030286 0.054388005
0.22376387 0.1006212 -0.050714344 0.3000216 0.043168966 -0.09538482 0.19877137 -0.037285116
0.08877138 0.063382365 0.13755359 0.23263493 -0.09970551 0.26195443 0.09013263 0.23241083
-0.061279237 0.17692101 0.17166081 -0.057392515 0.054261196 0.12808317 -0.062910914 0.23210323
-0.05562717 -0.0041449745 0.07138066 0.22518317 0.07045978 0.1517227 0.073513955 0.094892025
-0.07395943 -0.116960354 0.034996077 0.1309033 0.102710664 0.15589808 -0.078597955 -0.13353224
0.08182029 0.039012242 0.15702306 0.113807 -0.10576713 0.13373156 0.15711883 0.09490152
-0.115926504 0.06922011 -0.102831624 -0.16021548 0.11904017 -0.0070826653 -0.10559764 -0.04381229
-0.16494018 0.057224594 -0.12602393 0.107673064 -0.008568832 -0.103385694 -0.0238803 0.15115394
0.01690923 0.039387707 0.09606664 -0.05339554 -0.011587829 -0.104544975 0.16307497 0.13547501
0.06742663 -0.115901105 -0.08981371 0.11316501 -0.1336298 0.021699384 -0.15138006 -0.16827461
-0.064221576 -0.06567124 -0.08749308 -0.052644774 -0.06537238 -0.09403583 -0.061415628 0.10851676
0.19905894 0.24444167 0.23134114 0.0066087856 -0.055673856 0.13438524 0.079574816 -0.09287464
-0.034902766 -0.0055601974 0.10939502 0.14697267 0.07731118 -0.0016579035 0.0198851 -0.11748292
-0.048660647 -0.09597949 0.058166362 0.21571064 0.1411135 0.21122961 -0.070128955 -0.13267486
0.103349715 0.13603857 0.095974565 -0.011136112 0.14491183 0.21693152 0.18515767 -0.039387174
0.0077236695 0.2884427 0.10217565 0.2671232 0.029920718 0.05612455 0.17610306 0.11519291
-0.021430908 0.15944475 0.14968587 0.2690479 0.276655 0.16998084 0.25395325 0.13595466
0.11496195 -0.003516932 -0.018306468 -0.05233977 0.21472456 0.09278896 0.2293319 0.18008034
-0.097465456 0.18491438 0.07412423 -0.03258764 -0.021988317 -0.10117042 0.05133078 0.109657526
0.13347892 0.119561695 0.08760157 0.0053015947 0.14680745 0.09879803 0.2243098 0.20416543
0.205127 -0.0417748 0.09735944 0.26500675 0.03152787 0.14692606 -0.0833394 0.16803198
-0.053346355 -0.08958941 0.15947276 -0.11550353 0.101883724 0.18450117 0.09396242 -0.0010614678
0.049279053 0.113317125 -0.06667062 -0.06172819 -0.032234404 0.15426822 -0.13321345 0.15252374
0.12626961 -0.065915085 0.01671297 -0.12844694 0.14599577 0.19028728 -0.068628974 -0.11141318
-0.039415106 0.1523679 -0.11717012 -0.034573458 -0.11204006 -0.105252914 -0.00025252916 0.1102886
0.021616647 -0.110116996 0.107929535 0.06998225 0.1347293 -0.07023778 -0.060153887 0.08031049

onnx::MatMul_117 f4 [32, 1]
00000000: 8d4e 2dbe cf69 283e 09a8 e8be 8740 313e
00000010: 3c32 4d3d 83b1 4d3e 8191 d13c 60cd bb3e
00000020: fa5c 213e ae1d 9bbc 0527 8f3e 53a1 2dbe
00000030: a242 b73e 1797 433d f3ae 7a3d 6056 273e
00000040: f092 123e 6c58 7fbd 783e 6dbe 821b c0bc
00000050: cc7a 923e ccae d9bc de70 db3d 7c72 893e
00000060: 9c0d 2d3e bf34 67be 97ef 4c3d 240a 9f3e
00000070: 5cbd 82be 5aae d33b 9648 d33d e36a 03be
-0.16924496 0.16446613 -0.454407 0.17309771 0.050096735 0.20087247 0.025582077 0.36680126
0.15758124 -0.01893505 0.27959457 -0.16956072 0.35793024 0.047751512 0.061202 0.16341543
0.14313865 -0.062340185 -0.23168361 -0.023450617 0.28609312 -0.026572607 0.10714887 0.26845157
0.16899723 -0.22578715 0.05003318 0.31062424 -0.25535095 0.0064599933 0.10316579 -0.12833743
