models/model_vwap_meanreversion_3min_v3_gold.onnx (onnx, 347419 bytes, 29 tensors)

input_projection.bias f4 [64]
000000 1a 0d 8a be 4c a9 dc be 50 24 b3 3d 96 64 92 bc
       -0.2696312 -0.43097913 0.087471604 -0.017870229
000010 28 cd 3d bd 7e bf 68 be 6f d0 8f 3d be 24 f0 bd
       -0.04633823 -0.22729298 0.070221774 -0.11725758
000020 58 fb 34 3e 7e 38 85 be e1 f1 00 bf df bb 22 3e
       0.17674005 -0.26019663 -0.5036908 0.1589198
000030 7c 7e b5 3e 37 5f 77 3e c9 5e 3b 3e 41 c3 82 3c
       0.35448062 0.24157415 0.18297876 0.015962245
000040 18 4b af 3e 73 29 19 3d da ff 26 be e0 21 40 3e
       0.3423698 0.037393045 -0.16308537 0.18762922
000050 0c ea 9d 3d a4 7e d5 3d aa 4f 96 3c 07 c0 a9 3d
       0.077106565 0.104245454 0.018348534 0.082885794
000060 35 a4 f5 3c c1 45 47 3c e6 2a 27 3e 66 22 d2 3d
       0.029985527 0.012162627 0.16324958 0.10260467
000070 49 83 24 be b1 2d 4e be 7e f2 00 bf c9 e4 01 bc
       -0.16065706 -0.20134617 -0.50370014 -0.007928082
000080 03 42 9b 3e 30 95 1d be ae a6 4c be 4f b6 a2 3e
       0.303238 -0.15388942 -0.19985458 0.31779715
000090 dd 6a 94 3e 0b 3c a2 bd 33 5d dd 3e 4a b2 34 3e
       0.2898778 -0.079216085 0.43235168 0.17646137
0000a0 d2 99 56 be 69 bf a4 3e ed d6 e2 3d e4 54 1a 3e
       -0.20957115 0.32177284 0.1107615 0.15071446
0000b0 95 53 a1 be d7 07 58 3d e5 7e a8 be d0 29 86 be
       -0.3150908 0.05274185 -0.32909313 -0.26203775
0000c0 e5 81 bd bc 23 49 af 3e 47 36 7e 3d c2 68 64 3b
       -0.023133228 0.34235486 0.06206348 0.003485248
0000d0 b4 fc 89 3d 2d 31 40 bd 1a a7 79 be cb 3c 56 3e
       0.067376524 -0.046921898 -0.2438015 0.20921628
0000e0 58 cf f7 bc e4 d3 25 3d 85 1b 8e bd 41 85 be bd
       -0.030250236 0.040485278 -0.06938843 -0.0930276
0000f0 a9 9a 90 3d 93 f1 a1 bd fb 92 b7 3e fe 99 d1 bd
       0.07060749 -0.07907405 0.35854325 -0.1023445

pos_encoder.pe f4 [41, 1, 64]
000000 00 00 00 00 00 00 80 3f 00 00 00 00 00 00 80 3f
       0.0 1.0 0.0 1.0
000010 00 00 00 00 00 00 80 3f 00 00 00 00 00 00 80 3f
       0.0 1.0 0.0 1.0
000020 00 00 00 00 00 00 80 3f 00 00 00 00 00 00 80 3f
       0.0 1.0 0.0 1.0
000030 00 00 00 00 00 00 80 3f 00 00 00 00 00 00 80 3f
       0.0 1.0 0.0 1.0
000040 00 00 00 00 00 00 80 3f 00 00 00 00 00 00 80 3f
       0.0 1.0 0.0 1.0
000050 00 00 00 00 00 00 80 3f 00 00 00 00 00 00 80 3f
       0.0 1.0 0.0 1.0
000060 00 00 00 00 00 00 80 3f 00 00 00 00 00 00 80 3f
       0.0 1.0 0.0 1.0
000070 00 00 00 00 00 00 80 3f 00 00 00 00 00 00 80 3f
       0.0 1.0 0.0 1.0
000080 00 00 00 00 00 00 80 3f 00 00 00 00 00 00 80 3f
       0.0 1.0 0.0 1.0
000090 00 00 00 00 00 00 80 3f 00 00 00 00 00 00 80 3f
       0.0 1.0 0.0 1.0
0000a0 00 00 00 00 00 00 80 3f 00 00 00 00 00 00 80 3f
       0.0 1.0 0.0 1.0
0000b0 00 00 00 00 00 00 80 3f 00 00 00 00 00 00 80 3f
       0.0 1.0 0.0 1.0
0000c0 00 00 00 00 00 00 80 3f 00 00 00 00 00 00 80 3f
       0.0 1.0 0.0 1.0
0000d0 00 00 00 00 00 00 80 3f 00 00 00 00 00 00 80 3f
       0.0 1.0 0.0 1.0
0000e0 00 00 00 00 00 00 80 3f 00 00 00 00 00 00 80 3f
       0.0 1.0 0.0 1.0
0000f0 00 00 00 00 00 00 80 3f 00 00 00 00 00 00 80 3f
       0.0 1.0 0.0 1.0
000100 a4 6a 57 3f 41 51 0a 3f ce 7a 2e 3f b0 54 3b 3f
       0.84147096 0.54030234 0.68156135 0.731761
000110 ba 7d 08 3f 0d 94 58 3f f0 90 d1 3e c7 92 69 3f
       0.53316844 0.8460091 0.4093089 0.9123959
000120 3e 39 9f 3e 6b 4e 73 3f 25 8f 70 3e f1 d5 78 3f
       0.3109836 0.9504153 0.23492105 0.9720145
000130 3a 23 35 3e 83 f6 7b 3f f3 25 08 3e 28 ba 7d 3f
       0.17689219 0.9842302 0.13295726 0.99112177
000140 76 75 cc 3d 98 b8 7e 3f 36 6f 99 3d d1 47 7f 3f
       0.099833414 0.9950042 0.07491915 0.9971896
000150 ae 36 66 3d 68 98 7f 3f fb ac 2c 3d bd c5 7f 3f
       0.05620449 0.9984193 0.042157155 0.999111
000160 5b 81 01 3d 3c df 7f 3f a5 3e c2 3c 93 ed 7f 3f
       0.031617504 0.99950004 0.023711512 0.99971884
000170 42 ab 91 3c a3 f5 7f 3f 49 7a 5a 3c 2c fa 7f 3f
       0.017781857 0.99984187 0.013334819 0.99991107
000180 57 d6 23 3c b9 fc 7f 3f 16 b9 f5 3b 28 fe 7f 3f
       0.009999833 0.99995 0.0074988706 0.99997187
000190 5a 44 b8 3b f7 fe 7f 3f 5a 2e 8a 3b 6b ff 7f 3f
       0.0056233825 0.9999842 0.0042169513 0.9999911
0001a0 1c 3e 4f 3b ac ff 7f 3f 03 69 1b 3b d1 ff 7f 3f
       0.0031622713 0.999995 0.0023713715 0.9999972
0001b0 20 15 e9 3a e6 ff 7f 3f 8b c9 ae 3a f1 ff 7f 3f
       0.0017782785 0.99999845 0.0013335211 0.9999991
0001c0 6d 12 83 3a f8 ff 7f 3f 89 94 44 3a fb ff 7f 3f
       0.0009999998 0.9999995 0.000749894 0.9999997
0001d0 13 6a 13 3a fd ff 7f 3f 21 17 dd 39 ff ff 7f 3f
       0.0005623411 0.9999998 0.00042169637 0.99999994
0001e0 61 cb a5 39 ff ff 7f 3f 0d a8 78 39 00 00 80 3f
       0.00031622782 0.99999994 0.00023713727 1.0
0001f0 53 77 3a 39 00 00 80 3f 6d d4 0b 39 00 00 80 3f
       0.00017782794 1.0 0.00013335208 1.0
000200 b7 c7 68 3f 33 11 d5 be d9 5a 7f 3f 53 4d 91 3d
       0.9092974 -0.41614684 0.99748 0.070948265
000210 0a f2 66 3f b2 e8 dc 3e 11 35 3f 3f 03 39 2a 3f
       0.9021307 0.43146282 0.7469035 0.6649324
000220 1b 54 17 3f ec 7b 4e 3f b5 d3 e9 3e 69 be 63 3f
       0.5911271 0.8065784 0.45669332 0.8896242
000230 f6 47 b2 3e a6 fa 6f 3f 82 f0 86 3e f5 f2 76 3f
       0.34820527 0.93741834 0.26355368 0.96464473
000240 f8 6f 4b 3e a5 e5 7a 3f d3 00 19 3e 4f 20 7d 3f
       0.19866931 0.9800666 0.1494172 0.98877424
000250 86 d9 e5 3d f3 61 7e 3f af 85 ac 3d 0e 17 7f 3f
       0.1122313 0.9936821 0.084239356 0.99644554
000260 c8 70 81 3d f9 7c 7f 3f aa 30 42 3d 4e b6 7f 3f
       0.063203394 0.9980007 0.04740969 0.9988755
000270 5c a5 11 3d 8e d6 7f 3f 50 75 da 3c b1 e8 7f 3f
       0.03555809 0.9993676 0.026667267 0.99964434
000280 3e d4 a3 3c e5 f2 7f 3f 51 b7 75 3c a1 f8 7f 3f
       0.019998666 0.9998 0.014997319 0.9998875
000290 9b 43 38 3c db fb 7f 3f 0a 2e 0a 3c ab fd 7f 3f
       0.011246587 0.99993676 0.008433828 0.9999644
0002a0 d8 3d cf 3b b1 fe 7f 3f e7 68 9b 3b 43 ff 7f 3f
       0.006324511 0.99998003 0.00474273 0.99998873
0002b0 08 15 69 3b 96 ff 7f 3f 80 c9 2e 3b c4 ff 7f 3f
       0.0035565514 0.9999937 0.0026670396 0.9999964
0002c0 68 12 03 3b df ff 7f 3f 85 94 c4 3a ed ff 7f 3f
       0.0019999985 0.99999803 0.0014997876 0.99999887
0002d0 12 6a 93 3a f5 ff 7f 3f 1f 17 5d 3a fa ff 7f 3f
       0.0011246821 0.99999934 0.0008433926 0.99999964
0002e0 60 cb 25 3a fd ff 7f 3f 0c a8 f8 39 fe ff 7f 3f
       0.0006324556 0.9999998 0.0004742745 0.9999999
0002f0 53 77 ba 39 ff ff 7f 3f 6d d4 8b 39 00 00 80 3f
       0.00035565588 0.99999994 0.00026670416 1.0
000300 c3 81 10 3e 26 70 7d bf de 3c 47 3f ce bf 20 bf
       0.14112 -0.9899925 0.7782725 -0.6279267
000310 d7 45 7e 3f ab 7f ed bd 63 21 74 3f 63 18 9a 3e
       0.9932532 -0.11596616 0.95363444 0.3009673
000320 c2 09 50 3f 58 2f 15 3f b7 24 27 3f a2 e7 41 3f
       0.8126489 0.58275366 0.652904 0.7574407
000330 6c 2f 02 3f 29 6d 5c 3f a7 68 c7 3e 37 c9 6b 3f
       0.5085361 0.86104065 0.3894703 0.92103904
000340 6c 4e 97 3e ef 90 74 3f e2 6d 64 3e 92 8c 79 3f
       0.2955202 0.9553365 0.22307542 0.9748012
000350 d7 ee 2b 3e 9e 5d 7c 3f 2c 33 01 3e 43 f4 7d 3f
       0.16790329 0.9858035 0.12617177 0.9920084
000360 c0 ff c1 3d 4f d9 7e 3f 06 93 91 3d 3a 5a 7f 3f
       0.094726086 0.99550337 0.071081206 0.9974705
000370 4e 69 5a 3d c3 a2 7f 3f c5 d1 23 3d 90 cb 7f 3f
       0.053323083 0.9985773 0.039994974 0.99919987
000380 1f b9 f5 3c 83 e2 7f 3f 47 47 b8 3c 6b ef 7f 3f
       0.0299955 0.99955004 0.022494925 0.999747
000390 c6 31 8a 3c ad f6 7f 3f 46 44 4f 3c c1 fa 7f 3f
       0.016869437 0.9998577 0.012650555 0.99991995
0003a0 0d 6e 1b 3c 0d fd 7f 3f 13 1d e9 3b 58 fe 7f 3f
       0.009486687 0.999955 0.0071140616 0.9999747
0003b0 a8 cf ae 3b 11 ff 7f 3f 13 17 83 3b 7a ff 7f 3f
       0.005334813 0.99998575 0.0040005534 0.999992
0003c0 92 9b 44 3b b5 ff 7f 3f 60 6f 13 3b d6 ff 7f 3f
       0.0029999954 0.9999955 0.0022496805 0.9999975
0003d0 17 1f dd 3a e8 ff 7f 3f 56 d1 a5 3a f3 ff 7f 3f
       0.0016870227 0.99999857 0.0012650888 0.9999992
0003e0 10 b1 78 3a f9 ff 7f 3f 09 7e 3a 3a fc ff 7f 3f
       0.00094868336 0.9999996 0.00071141176 0.99999976
0003f0 7e d9 0b 3a fe ff 7f 3f a4 be d1 39 ff ff 7f 3f
       0.0005334838 0.9999999 0.00040005625 0.99999994

transformer_encoder.layers.0.self_attn.in_proj_bias f4 [192]
000000 02 3b cb bd b7 00 93 3d c3 07 8c 3d 28 38 3b 3c
       -0.09923364 0.07177871 0.06837418 0.011426963
000010 ac f6 64 3d da e8 bb bb 9a c1 9e bb 4a 76 5c bc
       0.055899307 -0.005734545 -0.0048448564 -0.013455937
000020 98 8f 00 3c bb 02 9f 3d 90 28 d0 3d 98 a9 ff bd
       0.007846735 0.07764193 0.10163987 -0.12483519
000030 e5 84 5f 3c 3a 55 df bd 20 aa 9a bd 60 90 0e be
       0.013642524 -0.109049276 -0.0755198 -0.13922262
000040 ae 5a 32 be f6 69 3e be ce 69 0d bd 63 03 14 3d
       -0.17417404 -0.18595108 -0.03452473 0.036136042
000050 c3 95 fe bd f4 d2 2a be 62 0c a9 bd 88 6e 24 be
       -0.124309085 -0.16682035 -0.08254315 -0.1605779
000060 f4 ea d7 bd 69 7f a2 3d ba fa d3 3d 7d e2 85 bd
       -0.105428606 0.07934458 0.10350557 -0.0653734
000070 7d 24 a4 bc 67 49 19 3e 48 11 a1 bd e7 52 14 be
       -0.02003693 0.14969407 -0.07864624 -0.1448475
000080 e4 f1 fd ba 73 7d bd 3e e0 21 9e 3c 36 9b 47 3c
       -0.0019374457 0.37009773 0.019303262 0.012183001
000090 3d bd a8 3c 6e 8e 39 3d c2 5b ca bc 26 87 1a 3e
       0.020598048 0.045301847 -0.024701957 0.15090618
0000a0 64 ee 34 3d 72 11 87 bd 5a 77 1f be 46 b6 78 3d
       0.04417266 -0.06595124 -0.15572873 0.060720704
0000b0 1a e1 af bd 58 77 81 bd 03 3b c1 3d 14 7f 2c be
       -0.085878566 -0.06321591 0.09435084 -0.16845351
0000c0 97 6f 42 bd 75 71 48 3e 3a d9 bf bd 04 a8 f7 bd
       -0.0474697 0.1957453 -0.093676046 -0.12092593
0000d0 f5 0a 62 3d 3a e6 ed 3d b4 93 01 3e e2 0c bb 3d
       0.05518623 0.11616178 0.12654 0.091333166
0000e0 67 b2 88 3d 6e 9f e6 3d 03 ea 8a bc 05 b5 6b 3c
       0.066746525 0.112608775 -0.016957289 0.01438642
0000f0 f5 1c 26 bc 7d 43 04 3e 67 ba f4 3d c4 5f 9b 3d
       -0.01013874 0.1291637 0.11949616 0.07586625
000100 92 30 00 3e 65 45 b5 bd 18 fd f1 bd 64 e2 2d bc
       0.12518528 -0.088511266 -0.11815852 -0.010613058
000110 b3 af 09 bd d8 7e 78 3e 37 cc 09 3d 85 40 fa 3b
       -0.033614825 0.24267137 0.03364202 0.007637086
000120 8e 8b 06 be e0 e7 9d bd 7b 2e 06 be ab 49 1e 3d
       -0.13139173 -0.07710242 -0.13103668 0.038644474
000130 ea db 4f 3d 8f 10 c0 3a ce a7 93 3d 55 b5 e8 bc
       0.050746836 0.0014653372 0.072097406 -0.028406778
000140 cf 59 78 3d 5c d8 b4 3d bc 57 80 be 43 6d 29 bd
       0.060632523 0.0883033 -0.25066936 -0.041363966
000150 92 24 f3 3c 2e 24 0c 3e 03 74 92 3d b3 e5 56 3d
       0.029680524 0.13685676 0.07151034 0.052465152
000160 0a 8a cf 3d fe 69 3e be 5c f1 85 be 4e 67 12 3e
       0.10133751 -0.1859512 -0.26160705 0.1429722
000170 8a 49 20 bd 44 d0 ae bb 63 f9 61 bd 87 45 d8 3d
       -0.039132632 -0.005334886 -0.055169474 0.10560136
000180 4f 3d 49 b9 db 1a d2 bd a8 30 01 bb 3e 65 d4 bb
       -0.00019191693 -0.102590285 -0.001971284 -0.0064817956
000190 03 cf 9a 39 63 73 bb bd 0b c2 b0 3b cb 99 ec bd
       0.00029527405 -0.09152868 0.0053942255 -0.11552771
0001a0 77 34 5f bd d5 fa 8d 3d ef 70 a4 bd 00 f3 5a bd
       -0.054493394 0.06932608 -0.08029353 -0.0534544
0001b0 94 73 03 be 31 a8 c3 3d 69 bf 90 bd bd d9 b0 3d
       -0.12837058 0.09553564 -0.070677586 0.0863528
0001c0 8e 27 a1 bd ea 61 43 be 51 7b 6a 3d 2b cd f6 bd
       -0.078688726 -0.1908032 0.05724651 -0.120508514
0001d0 f5 75 59 bd 21 93 81 bd 07 95 68 be f5 a8 e2 bd
       -0.05309101 -0.06326891 -0.227131 -0.11067382
0001e0 c2 19 44 bd 06 4a 3b bd a7 b0 a3 3d be 65 d7 bc
       -0.047876127 -0.04572489 0.07992678 -0.026293632
0001f0 86 a1 1d bd f4 ca 31 3d a0 7c 8e bd 8b 70 6c 3d
       -0.03848412 0.04340644 -0.06957364 0.057724517
000200 b1 12 db bc 65 c3 8c 3b 47 86 80 3d e0 bc 24 be
       -0.026742311 0.004295754 0.06275611 -0.16087675
000210 7d a3 ae 3c 12 c1 f0 3d ae 9d b4 3d 9c 3c 8d 3c
       0.021318192 0.11755575 0.088191375 0.017240815
000220 c1 f2 d0 3d 99 0d eb bc 58 c8 1c 3e 66 f3 c3 3d
       0.10202552 -0.028693007 0.153108 0.09567909
000230 f3 8d 75 bd 7c b3 d1 bd 06 63 88 bd 12 e6 dd bd
       -0.059949826 -0.10239312 -0.06659512 -0.10834898
000240 52 82 86 be ee 5b 26 3e f2 f0 cb 3d fe 18 fa bd
       -0.26271302 0.16246006 0.09958066 -0.12211798
000250 2b 1e e0 be 6b 3e 06 3d f8 44 2e be e7 50 48 3d
       -0.43773016 0.03277437 -0.17018497 0.04890528
000260 4d bd 7a be 63 00 63 be d8 91 3a be 7f 04 73 3d
       -0.24486275 -0.22168116 -0.18219697 0.05933046
000270 99 ab 5d bd 53 a5 79 bd c6 e9 56 3e d9 a4 d3 3d
       -0.054118726 -0.06094868 0.20987615 0.103341766
000280 3b 8d 94 3d 34 05 67 bb 1d 88 3f bc 6a f4 bf 3d
       0.072535 -0.0035250904 -0.011690167 0.0937279
000290 25 a8 3c 3c b6 12 e0 bd 34 e2 7b bd 1d 71 94 3d
       0.011514698 -0.10941069 -0.06149502 0.07248137
0002a0 0c 21 83 3d e4 ae 94 3c be 19 04 be f3 21 06 3e
       0.064027876 0.0181498 -0.12900445 0.13098888
0002b0 31 eb 09 be 7e b7 c1 3d 87 10 f8 bd dd 3a 41 bd
       -0.13468625 0.094588265 -0.12112527 -0.047175277
0002c0 e2 43 04 3d 8e a9 fe bb d8 0d 90 3d 6a 88 8d 3d
       0.0322913 -0.0077716773 0.070338905 0.069107845
0002d0 72 e3 85 3d b1 74 bc bc 78 df 12 3d ad e3 1e 3d
       0.065375224 -0.023004862 0.035857648 0.038791347
0002e0 f4 23 12 bd 65 88 84 3c 2a 7d 7c be d0 a1 68 3d
       -0.03567882 0.01617832 -0.24657121 0.05679494
0002f0 c5 75 6f bc 2a 2e 35 3e 13 8d 10 bd 39 cb c7 3b
       -0.014615481 0.17693391 -0.03529079 0.006097224

transformer_encoder.layers.0.self_attn.out_proj.weight f4 [64, 64]
000000 85 20 48 3b 30 b9 2c 3d e2 9c 47 3c 01 be b4 bd
       0.0030536961 0.042168796 0.0121834 -0.08825303
000010 31 3a c0 3d 4f ec ab ba 0d c1 80 bd 44 40 9f bc
       0.09386099 -0.001311669 -0.062868215 -0.019439824
000020 b9 f9 4b bd f9 fa e4 3b 9f 52 07 3e eb 6f 97 3b
       -0.0497987 0.006987926 0.13215111 0.004621496
000030 a6 4f b8 3d 19 94 7a 3c 05 ec 65 bd 8f fc 80 bc
       0.08999567 0.015294098 -0.05613329 -0.01574543
000040 8d 4e 00 3c 97 29 99 bb 38 2a fc bc eb ff 0b 3c
       0.007831228 -0.0046741473 -0.03078185 0.008544902
000050 cd 11 c6 bd a7 ad 32 3d 89 43 89 3c 79 f8 a2 bc
       -0.09671364 0.04362264 0.016755836 -0.019893872
000060 62 a7 ae bc ef a4 cb bc 27 d3 12 bd 64 c9 79 3d
       -0.021320049 -0.02485892 -0.0358459 0.060983077
000070 d0 76 ae bb 5a 39 94 3d 8c c7 b5 bd 6d 57 63 3c
       -0.005324222 0.072375014 -0.08875951 0.013875824
000080 c2 19 62 3d f2 2b 1d bc 0c 93 59 bc 67 cb 85 3b
       0.055200346 -0.009592997 -0.013279688 0.0040830853
000090 62 b7 9c 3d 83 a9 e3 bc 28 f4 f7 3c 1b 9e 98 3c
       0.07652165 -0.02779079 0.03026779 0.018630078
0000a0 26 1e 40 bc 7e 63 93 bc d8 d0 2a bc b6 d5 2c 3d
       -0.011725938 -0.017991778 -0.010425769 0.042195998
0000b0 e6 e8 5d bc 0b ad f8 3b ef 66 94 bc 7b c7 a6 3c
       -0.013544297 0.0075889877 -0.018115489 0.020358792
0000c0 b2 97 a9 3b f2 21 04 3d d2 10 b5 bc 92 2b 53 3d
       0.005175554 0.032258935 -0.022102747 0.051555224
0000d0 3c 70 00 bc 7f 81 00 3d 21 51 c7 bc 43 9e 06 bd
       -0.007839259 0.031373497 -0.024330677 -0.032865774
0000e0 4f 2a 32 3b 10 e3 21 bd a6 13 c8 bd f3 44 9b bc
       0.0027185862 -0.039523184 -0.09769373 -0.018953776
0000f0 7b e7 63 3d 54 1c a1 bd d9 35 27 bc 60 9e 93 3d
       0.05564068 -0.07866731 -0.010205709 0.07207942
000100 d8 4a 39 3d 9e 90 e1 3b c1 03 6e 3c 68 dc 48 bc
       0.045237392 0.006883695 0.014527262 -0.01225958
000110 4e b8 69 3d 33 e8 58 3c 31 6e 2f bd f1 57 1b bc
       0.057060532 0.013238954 -0.042829696 -0.009481416
000120 68 a3 25 bd 31 c8 84 3d 21 36 ab bb c8 22 fd 3c
       -0.04043904 0.06483496 -0.0052249585 0.030900374
000130 9a 23 10 3d 72 00 a1 3d f3 0e 24 3b 1e 46 b3 3c
       0.035190202 0.07861413 0.0025033324 0.02188402
000140 75 c8 d6 3c e4 24 a8 bc 85 54 9f bc 47 cb a9 bc
       0.026218632 -0.020525403 -0.019449482 -0.020726813
000150 29 dc 16 3c 0a 50 07 3c f4 b3 07 3d 8b 68 12 3c
       0.009207764 0.008258829 0.0331306 0.008936058
000160 db 6d 96 3c 2f dd 77 bd 2b c7 d6 bc 87 1f f4 3c
       0.01836293 -0.06051367 -0.026218018 0.02980019
000170 5a ab 0b 3c 50 c3 14 bc 36 4e 09 bd 56 c9 9f bc
       0.00852474 -0.009079769 -0.033521853 -0.019505184
000180 b9 fb 9a 3c 32 ec 17 3d b7 03 a9 3a af ac be 3c
       0.018918859 0.037090488 0.0012894784 0.023275701
000190 62 25 0e bd 86 c6 eb 3c a0 4f 8b bb 0c 40 22 bd
       -0.03470362 0.028781187 -0.0042514354 -0.03961186
0001a0 2b 3e f7 3c 5b 52 41 3d 50 b2 60 3c 7d 60 a0 bc
       0.030181011 0.04719768 0.013714388 -0.01957726
0001b0 2a e1 06 bc 5b fd c1 3c 6b cb e7 bb 54 f3 ea bc
       -0.008232394 0.02368038 -0.00707381 -0.028680481
0001c0 7a 50 2d bd 14 95 28 3c 71 bc ac 3b b1 5b 4f 3a
       -0.042313077 0.010289449 0.0052714874 0.00079100864
0001d0 df b7 78 3c 82 53 34 bd fc f2 a0 bb 06 3d db bc
       0.015180557 -0.04402495 -0.0049117785 -0.026762497
0001e0 98 f3 45 3c fa 06 91 3c 3f 33 b1 bd 22 7f d3 3c
       0.012082003 0.017703522 -0.086523525 0.025817458
0001f0 83 49 13 bd 7c a5 85 3b c1 48 28 bd 2e f9 19 3d
       -0.035958778 0.004078565 -0.04108501 0.037591152
000200 9b 11 f5 3b be ae 15 bb a5 40 00 3c 41 65 64 bc
       0.0074789054 -0.002283975 0.007827912 -0.013940156
000210 d3 59 ec bb a2 5d 02 bc df 9f 14 bd 3d c9 b6 bb
       -0.0072128563 -0.007956894 -0.036285277 -0.0055781887
000220 fa 4b 1d bb 0f 2a 58 bc b7 10 48 3c 9c d3 b0 3b
       -0.0024001584 -0.013193621 0.012211016 0.0053963196
000230 46 7b 13 3c 62 43 a8 3c 99 94 af bb 3c 00 46 3c
       0.009001559 0.020539943 -0.0053582904 0.012085017
000240 62 d1 87 3c 4f ca 84 bc 54 a2 8f bb 77 de 21 3d
       0.016579334 -0.01620975 -0.0043833647 0.0395188
000250 70 b7 94 3c 4f 32 1b 3c f9 c5 c7 3b e9 d2 98 3b
       0.018153876 0.009472444 0.006096598 0.0046638143
000260 a8 07 51 3c 2e ca 9b bb b5 5a 5d bc 42 7f 8c 3c
       0.012758173 -0.0047543263 -0.013510396 0.017150525
000270 79 cd c1 bc d9 2c 9e bb e6 1a e2 bb 02 d4 ee 3c
       -0.023657547 -0.0048271236 -0.006900179 0.029153828
000280 f4 63 1d 3b ba 5e 15 3c c5 b6 46 bc a0 0f 4d 3b
       0.0024015876 0.009116823 -0.012128537 0.003128983
000290 a8 a1 b1 3b d5 7d 05 bd f9 b1 bf 3c 20 de 19 3b
       0.0054208823 -0.032590706 0.023400294 0.0023478344
0002a0 c9 81 9c 3c ed 46 83 3c 32 ce d2 bc 28 ce 6e bb
       0.019104855 0.016025031 -0.025733087 -0.0036438797
0002b0 f3 50 fb bb ba ea 0d bc 34 30 a9 3c 67 f5 62 bc
       -0.007669562 -0.00866192 0.020652868 -0.013852454
0002c0 7d ad 36 bc e2 18 29 3b e5 d8 ae bb 41 61 1b bb
       -0.011149761 0.0025802185 -0.0053359144 -0.002370909
0002d0 fd f9 c9 bb 00 88 1f 3c c7 df a2 3b ba 67 19 3d
       -0.006163834 0.009737015 0.004970524 0.037452437
0002e0 14 a7 d1 bb 2f 42 67 3b da 5e 51 3c f3 82 86 bb
       -0.006398091 0.0035287251 0.012778962 -0.004104966
0002f0 08 0a 06 bc 01 04 29 bb bb 4e a4 3c 88 27 00 bb
       -0.008181103 -0.002578974 0.020057073 -0.0019554812
000300 32 c7 a9 3c e3 89 76 3c 1a b4 bd 3c 46 d0 ea 3c
       0.020724867 0.015047523 0.023157168 0.028663766
000310 67 c9 6d bc fd 71 79 3d cd 45 f5 3c 21 c9 16 3c
       -0.01451335 0.060899723 0.02994051 0.009203226
000320 18 9c e6 bb 0a a7 a2 3d ae 36 1e bd ff bb 66 bd
       -0.007037651 0.079420164 -0.038626365 -0.05633163
000330 18 ff 57 bd b6 93 9b 3d 28 a7 bb 3c eb 7c 0d bd
       -0.05273351 0.07596533 0.022906855 -0.03454296
000340 d2 60 02 bd 56 80 3f bc 4e 9d 11 bd 7f 88 93 3d
       -0.031830616 -0.0116883125 -0.035550408 0.07203769
000350 46 c8 ae 3d 21 58 90 bc 17 29 af 3d a4 b9 05 3d
       0.08534293 -0.017620148 0.08552759 0.032647744
000360 3f 9a 8f 3d 1f ad c0 bc 7b 39 ca 3c 08 fe f2 bc
       0.07011842 -0.02352005 0.024685612 -0.029662147
000370 80 fc 3d bd 67 ea 0e bc 6d fe 13 bd 2f 85 85 3d
       -0.04638338 -0.008722878 -0.03613131 0.065195434
000380 d9 8a 1c bc 62 17 a9 3c ca 57 af bd ce 65 d9 bb
       -0.009554588 0.020641033 -0.08561666 -0.0066344505
000390 4d f5 e7 bc cd f0 81 bc 4d 0b 14 3d 64 ea 4b 3c
       -0.02831521 -0.015861893 0.03614359 0.01244602
0003a0 cd 7d 88 3c 73 95 6d bd c0 73 42 3c 1c 16 14 3d
       0.016661549 -0.058003854 0.011868417 0.036153898
0003b0 15 d8 d2 3b 82 65 31 3c 73 d5 90 3c 4e aa 69 3d
       0.0064344504 0.010827424 0.017679906 0.05704718
0003c0 95 b1 77 bd e8 08 d6 3b 11 df 33 3c 7f fc df bc
       -0.06047209 0.0065318234 0.010978476 -0.02734208
0003d0 49 30 90 3a 1c 51 3e bc a1 1d f9 3c a2 7b 80 bc
       0.0011000718 -0.011616018 0.030409636 -0.015683953
0003e0 4d c8 a6 3c 27 65 23 bd 3e 84 09 bd ac be 66 bc
       0.020359183 -0.03989139 -0.03357338 -0.014083546
0003f0 ea e9 93 3d d2 56 91 ba 8a 70 14 3d 42 cb 2b 3d
       0.0722235 -0.0011088497 0.036240138 0.04194189

transformer_encoder.layers.0.self_attn.out_proj.bias f4 [64]
000000 33 1a 79 3d bf c6 37 bf 27 a3 04 3e 59 4b 7d be
       0.060816 -0.7178764 0.12952863 -0.24735774
000010 e9 24 da bd 2a 0a a3 be 6d 95 54 3e 53 13 91 be
       -0.10651571 -0.31843692 0.20760126 -0.28335056
000020 a3 f9 80 3d 07 15 6f be 55 89 15 bf 71 e9 c5 3d
       0.062976144 -0.23347865 -0.5841268 0.09663666
000030 89 16 e0 3e 1c e5 20 bd fd 72 66 bd d9 8f 1d be
       0.43767193 -0.039280996 -0.056262005 -0.15386905
000040 b3 ab 35 3e 10 1c 18 be 78 ba 56 be 6a b9 6e bd
       0.1774128 -0.14854455 -0.2096957 -0.058282293
000050 a6 19 c8 3e 95 96 c6 be 8a 72 f0 3d 1b 5d cf bc
       0.39082068 -0.3878676 0.117405966 -0.02531295
000060 c8 c4 de 3d a3 a8 91 3e 42 b3 03 3f b2 49 77 bd
       0.10877377 0.28448972 0.514454 -0.060373016
000070 48 91 7d be e5 d9 a4 3d 0c 4f ee be 01 7e 43 be
       -0.24762452 0.080493726 -0.46544683 -0.19091035
000080 99 73 9d 3e 01 48 94 be 4b 71 ae be a5 29 ec 3e
       0.30752257 -0.28961185 -0.3407081 0.46125522
000090 13 ce 84 3e 51 55 d8 3c ef 97 10 3f f2 27 08 bd
       0.25938472 0.02640787 0.5648183 -0.03324122
0000a0 cf fd eb be e2 04 00 3f 5b 9c 81 3e 35 d5 8b 3d
       -0.46092078 0.5000745 0.25314602 0.068277754
0000b0 90 4e f7 be ca ed a0 3e 06 2a b7 be a0 1a 06 3e
       -0.48302126 0.3143142 -0.3577425 0.13096094
0000c0 98 de 7d 3b bd ab 00 3f 9f a6 ca 3d 88 ec 3e 3e
       0.0038737413 0.5026205 0.09895062 0.18644917
0000d0 51 f2 14 3d 66 6f 4f 3e 99 d3 e6 be 05 da 2f 3f
       0.036363903 0.20257339 -0.4508331 0.68692046
0000e0 29 5f 1a be 81 ad 02 3f ab 31 eb bd b6 4d b9 bd
       -0.15075363 0.51045996 -0.11484083 -0.09048025
0000f0 42 03 5e 3d df 6f 89 3e aa 4b af 3e 2a ec 10 bb
       0.054202326 0.26843163 0.34237415 -0.002211342

transformer_encoder.layers.0.linear1.bias f4 [128]
000000 9e 00 7d be 0b 1b ce bc 16 24 86 be b0 62 0f be
       -0.24707267 -0.02515938 -0.26199406 -0.1400249
000010 08 0d 25 be 9d 9b 28 be 05 1b ae be ea ef 09 be
       -0.16118252 -0.16465612 -0.3400499 -0.13470426
000020 28 94 81 be 81 81 87 be b1 ec 6b be f8 47 bd be
       -0.25308347 -0.2646599 -0.2303951 -0.3696897
000030 50 d4 b8 be d4 eb cc bd c0 17 ba be a6 18 b6 bd
       -0.36099482 -0.10005918 -0.36346245 -0.0889142
000040 68 08 92 be e0 46 2f be f5 ff 75 be d1 e6 c0 bd
       -0.28522038 -0.1711688 -0.24023421 -0.09419025
000050 2c 70 2a be 08 f1 18 be 50 b8 b4 be c5 ca aa be
       -0.16644353 -0.14935696 -0.3529687 -0.33357826
000060 3d 65 14 be 0f d1 af be 95 41 c5 bd d3 1f bc be
       -0.14491744 -0.34339187 -0.096316494 -0.3674303
000070 d4 39 26 be 46 4d 6f be 04 a5 77 be 35 5e a4 be
       -0.16232997 -0.23369321 -0.24184042 -0.32103124
000080 b1 af 46 be df 20 b5 bd 6d 2d 8e be 0d 16 89 be
       -0.19402958 -0.0884416 -0.27769032 -0.26774636
000090 de 9a 80 be c9 e6 71 be d0 bd 25 be 93 4f cc be
       -0.25118154 -0.23623194 -0.16185689 -0.3990446
0000a0 c5 a1 0c be 9d 49 2b be 76 d2 c9 be 01 8f be bd
       -0.13733585 -0.167273 -0.3941838 -0.093046196
0000b0 2d ca 99 be 0f ab e4 bd 83 8f a9 be d1 c1 a8 bd
       -0.3003706 -0.11165439 -0.33117303 -0.082400925
0000c0 a7 75 f1 bd 83 70 00 be af cf b4 be 31 45 9d be
       -0.117900185 -0.1254292 -0.353147 -0.3071685
0000d0 dd d1 61 bd 3e 9e 17 be a0 38 fe bd 44 63 91 be
       -0.05513178 -0.14806458 -0.12413144 -0.28396046
0000e0 59 a0 2d be bc a9 94 be 91 1e 87 be 98 c0 48 be
       -0.16955699 -0.29035747 -0.26390508 -0.19604719
0000f0 bf d8 06 be f8 e8 72 be cf 83 1f be 92 33 93 be
       -0.1316862 -0.23721683 -0.15577625 -0.28750283
000100 2a d6 60 be 19 5f e6 bd 96 f0 61 be 82 fc ab be
       -0.21956697 -0.11248607 -0.22064433 -0.33591086
000110 e1 af 84 be 51 b0 a0 be 11 39 3f be 59 a1 82 be
       -0.25915435 -0.3138452 -0.18674113 -0.25513723
000120 f4 db 83 be f9 ab e2 be 8b db 8f be ac da fb bd
       -0.25753748 -0.4427183 -0.28097185 -0.12297568
000130 8a ec 8e bd 38 2c 75 be c1 85 6c be e5 65 2f be
       -0.0697871 -0.2394265 -0.23097898 -0.17128713
000140 08 01 9c bd 05 00 b1 bd 25 11 95 be 34 2b 8d be
       -0.07617384 -0.08642582 -0.29114643 -0.27572024
000150 7d 55 fe 3c 9d 81 71 be b9 58 8b bd ac 50 88 be
       0.031046623 -0.235846 -0.06804032 -0.26624048
000160 5e d6 43 bd f0 c0 97 be 62 fb 73 be 8e 9b 8b be
       -0.04781186 -0.29639387 -0.23826364 -0.27267116
000170 d0 c4 4f be b7 d0 b3 be a6 05 4c be 22 74 e7 bd
       -0.20289922 -0.35120174 -0.1992403 -0.113014475
000180 5f a7 c0 be ed e2 10 be 74 10 b0 be f1 8e 54 be
       -0.37627694 -0.14149065 -0.34387553 -0.20757653
000190 fb 03 5d be 44 d4 7d be 9f 2c 83 be ab fb 77 be
       -0.2158355 -0.24788004 -0.2561998 -0.24217097
0001a0 fd 52 71 be ba db 85 3d 63 34 4a be 5d 85 9b be
       -0.23566814 0.0653605 -0.19746546 -0.30375186
0001b0 2b 0c 88 be 63 33 44 bd 2b a2 15 be 0b 3b c4 be
       -0.26571783 -0.04790057 -0.14612643 -0.38326296
0001c0 fb 1d 75 be da 37 99 be a4 b4 98 be 97 a0 a0 be
       -0.23937218 -0.29925424 -0.29825318 -0.3137252
0001d0 17 24 13 be d6 5a 7a be 18 0a c6 be f4 46 2c be
       -0.14369236 -0.24448714 -0.38679576 -0.16823941
0001e0 7e cd 92 be 67 d8 84 bd 49 f6 11 be 6e 63 7f be
       -0.28672403 -0.06486588 -0.14254107 -0.24940273
0001f0 19 fe 83 be a9 6d 84 be 4a 47 6a be d4 66 80 be
       -0.257798 -0.25864914 -0.22878757 -0.25078452

transformer_encoder.layers.0.linear2.bias f4 [64]
000000 36 22 9f 3d 31 fc a5 3c bc dd c3 bd 8c 04 7f bc
       0.07770197 0.020261856 -0.09563777 -0.015565049
000010 e9 38 a2 3d 37 7a af 3d 97 e6 4a bc 0c 11 aa 3d
       0.07921011 0.085682325 -0.012384078 0.08304033
000020 dc 7e 88 3d b7 20 91 3b ad 3c 7c 3c 34 b6 4c 3c
       0.066648215 0.0044289487 0.015395326 0.0124946125
000030 94 e3 e6 bb a3 b2 11 3e c5 a6 01 3e 78 55 97 3a
       -0.0070461724 0.14228301 0.12661274 0.0011545857
000040 62 84 87 bc 8c 8b 93 bd ad 25 0e bd de 98 4a 3d
       -0.016542617 -0.07204351 -0.0347039 0.04946219
000050 4e 9f 96 bc 31 51 ab 3d a1 dc b5 3d d8 5a 4c bd
       -0.01838651 0.083650954 0.08879972 -0.049891323
000060 7a e3 c6 3c 93 64 02 bd 22 98 25 bc 00 72 83 3d
       0.024278391 -0.031834196 -0.010107072 0.06418228
000070 c2 17 c4 3d 6a 0b bb bd 1e 14 16 3b cf f7 d2 3c
       0.09574844 -0.091330364 0.0022900174 0.02575293
000080 da f2 06 be 8b bc d6 3b 15 ce a6 bc 26 91 3d bd
       -0.13178578 0.006553238 -0.02036194 -0.046281002
000090 8a 28 b5 bc 6b 80 a1 bc 55 d7 74 3d f9 85 a3 3d
       -0.022114057 -0.019714555 0.05977567 0.07984538
0000a0 b0 8c c9 3d 00 29 53 bc c4 78 d3 bb bb 2a 32 bd
       0.09841287 -0.012888193 -0.0064536054 -0.043497782
0000b0 66 d1 0f 3d aa 41 f6 bd a1 cd 82 bd 33 08 2f be
       0.035111807 -0.12024243 -0.06386877 -0.17092972
0000c0 45 3a a1 bd 0c 11 2f 3c 6b fa 77 bd bc 1c 51 bd
       -0.07872442 0.010685217 -0.06054155 -0.051052794
0000d0 1e 05 1d bd 99 a1 56 bd 25 bd 2c 3e c6 1a a4 bd
       -0.03833496 -0.052400205 0.16869028 -0.08012919
0000e0 36 77 9c 3d 96 12 6a bd cf 4f 12 3d 85 a3 1f bd
       0.07639925 -0.05714663 0.035720643 -0.038974304
0000f0 c0 ac 07 3d 0a dd 5b be 37 34 ac bd 9e 90 db bc
       0.03312373 -0.21471038 -0.08408397 -0.026802357

transformer_encoder.layers.0.norm1.weight f4 [64]
000000 78 ba 3d 3f 73 07 7e 3f cb 08 9a 3f 65 17 70 3f
       0.74112654 0.99230117 1.2033933 0.937857
000010 8e 73 37 3f 22 ae 72 3f 2b cd 6d 3f dc 9e 8a 3f
       0.716607 0.94796956 0.92891186 1.082973
000020 97 ab 6e 3f 68 4f 6e 3f 9c c5 93 3f 4a 30 ae 3f
       0.93230575 0.93089914 1.154468 1.3608487
000030 33 68 82 3f 34 aa a2 3f 91 a3 5c 3f 93 93 44 3f
       1.0188049 1.2708192 0.8618708 0.7678768
000040 8b 16 58 3f 96 67 7f 3f ad 3b 88 3f dd 0e 75 3f
       0.844094 0.99767435 1.0643212 0.95725805
000050 79 6e 44 3f 6a be 30 3f 2a 14 4e 3f b3 f8 6a 3f
       0.7673107 0.6904055 0.8049952 0.91785735
000060 60 88 55 3f 62 58 53 3f 99 d6 38 3f 1d 51 2f 3f
       0.83411217 0.82556736 0.7220245 0.68483144
000070 63 31 79 3f fa f6 62 3f ff a7 93 3f 78 6c 4a 3f
       0.97340983 0.88658106 1.1535643 0.7907176
000080 c0 3c 7b 3f 94 0f 56 3f ab 6a 41 3f 1f 51 6f 3f
       0.9813957 0.8361752 0.7555339 0.93483156
000090 20 4f 5a 3f 59 e6 37 3f ea 1d 8a 3f 0d 04 50 3f
       0.85276985 0.7183586 1.0790379 0.8125618
0000a0 8a 8b 80 3f 97 6c 97 3f eb 45 18 3f 87 0c 75 3f
       1.0042584 1.1830014 0.59481686 0.9572224
0000b0 81 96 3b 3f d0 aa 6a 3f 45 90 75 3f 66 8e 69 3f
       0.73276526 0.9166689 0.9592326 0.9123291
0000c0 fd 0c 1f 3f 34 65 4b 3f 4b 8e a1 3f 08 ab 6b 3f
       0.62129194 0.794513 1.2621549 0.9205785
0000d0 99 67 ad 3f 1d 89 71 3f 87 1f 52 3f 66 05 6c 3f
       1.354724 0.94349843 0.82079357 0.9219574
0000e0 9f c8 a6 3f 4c 76 39 3f b4 ed d4 3f bc 68 8d 3f
       1.3029975 0.7244613 1.6635041 1.1047587
0000f0 33 a6 a1 3f 0f e1 2a 3f bf f6 61 3f 49 b4 5e 3f
       1.2628845 0.6674966 0.8826713 0.86993843

transformer_encoder.layers.0.norm1.bias f4 [64]
000000 bf cd ee bc a3 14 96 be 8d 08 7f bc 3a a4 16 bc
       -0.029150842 -0.2931262 -0.0155660035 -0.009194428
000010 c7 02 1b be d7 c1 1f be 29 ed 3e ba c1 55 0c be
       -0.15137778 -0.15601288 -0.00072832644 -0.13704588
000020 4b e6 aa be 0a 35 1e be 9f a7 5a be 37 ce 36 3c
       -0.33378825 -0.1544992 -0.21353005 0.011157564
000030 df 51 3b 3e ab 5f 30 be 1b b6 47 be a1 65 c9 bd
       0.1829295 -0.17223994 -0.19503061 -0.09833837
000040 dc 5f 3f 3e e9 93 95 3c e3 71 5e bc d6 0d 6b be
       0.18688911 0.018259006 -0.013576957 -0.22954497
000050 de 6d d0 3e 57 2e 8a be c1 7c aa 3c bd 8c d6 3c
       0.40708822 -0.2698848 0.02081144 0.026190156
000060 22 ad 06 3a e8 a6 40 3e 28 75 db 3e e3 de 2c be
       0.0005137493 0.1881367 0.4286282 -0.168819
000070 e1 6f 15 bd 8a f6 c8 3e 70 e9 17 be 3f b5 54 bc
       -0.03648365 0.39250594 -0.14835143 -0.012982666
000080 c6 5b 2c 3e 9b aa 81 be fa bc 81 3c 9e da 99 3e
       0.16831884 -0.25325474 0.015837181 0.30049604
000090 8e df 65 be 32 ad b3 3d 7c 3f 07 3e 25 fe c6 bd
       -0.2244856 0.08773269 0.13207811 -0.09716443
0000a0 ad 1a dc be a9 80 5e 3e 33 ed a5 3d 24 f2 15 bd
       -0.42989102 0.21728767 0.08101883 -0.036607876
0000b0 46 ba b6 be ee 88 ac 3e 90 ba 20 3e 42 40 09 3f
       -0.3568899 0.3369822 0.15696168 0.53613675
0000c0 ca a2 b8 3c 89 3d 79 3d c3 af 67 3e d7 73 ff bb
       0.022538561 0.0608497 0.22625642 -0.0077957916
0000d0 6c 7b c2 bd cb 10 9e 3d 5a 25 75 be 2e 1d 01 3f
       -0.09496197 0.07718047 -0.2394003 0.5043515
0000e0 f9 3d 32 be 21 38 c1 3e 9f 86 50 3d cd aa 3e be
       -0.17406453 0.37738135 0.050909635 -0.18619843
0000f0 fd 9a a6 3e 27 b5 66 3e 52 4e 63 3e 9b 45 27 3e
       0.32540122 0.22530042 0.22197846 0.16335146

transformer_encoder.layers.0.norm2.weight f4 [64]
000000 f8 d9 60 3f 3b 01 54 3f d0 b2 81 3f 7b b9 43 3f
       0.87832594 0.8281438 1.0132694 0.76454896
000010 59 9e 3f 3f 06 4a 54 3f a4 4d 55 3f e7 48 79 3f
       0.74850994 0.8292545 0.83321595 0.97376865
000020 04 a6 58 3f f7 65 53 3f 82 7b 75 3f 65 e0 83 3f
       0.8462832 0.8257746 0.9589158 1.0302855
000030 3b 9e 73 3f 20 38 5d 3f c7 4e 63 3f ce 8c 51 3f
       0.95163316 0.86413765 0.8879208 0.81855476
000040 a4 a8 58 3f 7f 81 6d 3f 39 96 60 3f 2c 25 62 3f
       0.84632325 0.9277572 0.8772922 0.8833797
000050 11 84 57 3f 82 3e 4a 3f 79 50 5a 3f 93 3d 6b 3f
       0.8418589 0.7900163 0.8527904 0.9189083
000060 46 75 54 3f 4e d0 2d 3f 0c 67 35 3f 4e 30 4a 3f
       0.82991445 0.6789597 0.7086036 0.7897996
000070 6a a8 4e 3f 81 d5 38 3f 0d e4 86 3f 12 e2 60 3f
       0.8072573 0.7220078 1.0538346 0.87844956
000080 38 ad 7e 3f 71 ad 50 3f 4b 53 37 3f 1a 48 59 3f
       0.9948306 0.8151465 0.7161147 0.84875643
000090 21 98 5b 3f 92 90 60 3f 62 36 6e 3f 51 22 67 3f
       0.85779005 0.87720597 0.9305173 0.9028674
0000a0 07 c2 78 3f c1 b7 42 3f 42 f7 53 3f 23 ce 52 3f
       0.9717106 0.76061636 0.8279916 0.8234579
0000b0 55 09 43 3f 91 50 45 3f 4b ae 71 3f 11 65 3b 3f
       0.76186115 0.7707606 0.94406575 0.7320109
0000c0 a7 69 4b 3f a9 96 4b 3f e4 2f 73 3f 01 25 58 3f
       0.7945809 0.79526764 0.9499495 0.84431463
0000d0 f1 17 8a 3f 82 f6 6a 3f ce ab 38 3f 88 f9 4a 3f
       1.0788556 0.9178239 0.72137153 0.79287004
0000e0 6b 60 81 3f a9 59 4e 3f 9d 78 9c 3f 13 e1 46 3f
       1.010755 0.8060556 1.2224308 0.77687186
0000f0 61 0a 78 3f 1d 7e 62 3f 7e cd 3d 3f 3b fe 65 3f
       0.96890837 0.88473684 0.7414168 0.8984105

transformer_encoder.layers.0.norm2.bias f4 [64]
000000 0e 55 6e bd 5a 2f e0 3c 00 91 62 3c 00 d2 3b bb
       -0.058186583 0.027366329 0.013828516 -0.0028659105
000010 ba c1 fb 3c c8 72 02 bd 06 56 a1 bd 41 6c 85 bc
       0.030732024 -0.031847745 -0.07877736 -0.016286971
000020 f6 4e 07 3d fb c8 09 3e ba 4a 4c 3c b8 12 8e bd
       0.033034287 0.13455574 0.012468988 -0.06937164
000030 42 72 8a 3b 95 93 ef bd 96 b7 35 bd 06 3c 05 3e
       0.0042250464 -0.11698071 -0.044364534 0.13011178
000040 90 a7 27 3d 3b c1 8e 3d 36 f2 68 bd f1 e0 54 3d
       0.040931284 0.069704495 -0.056871615 0.051972333
000050 62 2c 85 3c 1f c2 08 be 02 6a 1a be 86 84 a8 3d
       0.016256515 -0.13355301 -0.15079501 0.08228402
000060 ed a3 2e 3d 12 2b 3b bd ca 3d a3 bd 1b 58 7b bd
       0.0426368 -0.045695372 -0.0797077 -0.06136332
000070 1e 2b 9d 3d 2f 8e 20 3d b1 0a 37 3c 82 d7 1a 3d
       0.076742396 0.039198097 0.011171983 0.03780318
000080 3e a8 aa bc c7 eb 11 3d e2 6c 94 3e 76 47 08 bd
       -0.020832177 0.035625245 0.2898932 -0.033271275
000090 47 0f d8 bd 9c fd 4f 3d a9 ad 01 bd 2f 86 4b 3e
       -0.10549789 0.05077897 -0.031659756 0.19875406
0000a0 96 71 f0 bc b3 0b bb bd 69 27 7d bd ee 23 ff 3c
       -0.029351037 -0.09133091 -0.061805163 0.031145062
0000b0 88 08 f6 3c 28 c1 0c bd 66 a4 eb 3d da 7a 0e 3e
       0.030033365 -0.034363896 0.11505966 0.13914052
0000c0 7f 6b 43 3d 02 d2 71 bd 59 1e 6b 3d 8f 2c a7 bd
       0.04770994 -0.05903817 0.05740199 -0.08162796
0000d0 af a7 bf bd a0 c2 99 bd 82 f5 ca 3d 0b bd 45 bd
       -0.09358155 -0.07507825 0.09910108 -0.04827599
0000e0 e2 df 92 3c 13 67 4d bd b0 90 b7 3b 92 34 11 3e
       0.017929021 -0.050147127 0.005601965 0.1418021
0000f0 19 93 67 bc 2c 2a 7c 3d 78 37 a2 bd 2f 04 90 3d
       -0.014134192 0.061563656 -0.07920736 0.07032048

transformer_encoder.layers.1.self_attn.in_proj_bias f4 [192]
000000 68 b5 20 be 5c 8c d8 3d 62 eb 24 3d 18 bc 45 be
       -0.15694201 0.105736464 0.04026354 -0.19310033
000010 98 e6 c3 bc 13 9c c5 bd de d2 c7 3d 58 13 28 be
       -0.023913667 -0.096489094 0.097570166 -0.16413629
000020 29 fd 26 be 82 f5 0f 3d eb f0 cc bd 20 ba 0d bd
       -0.1630751 0.035146244 -0.10006889 -0.03460133
000030 26 c8 ad 3b 05 7a 2b 3e b0 6a 9a 3c ea 5f 2d 3e
       0.0053034006 0.16745766 0.0188497 0.1693112
000040 b8 b7 46 bd fd ae 84 3e 1d 7c a2 3c 73 7f 00 be
       -0.04851505 0.25914755 0.019834572 -0.12548618
000050 d6 8e 9d bc 8a cd 0c be ff c7 a2 3d a5 57 03 be
       -0.019233149 -0.13750282 0.079483025 -0.12826402
000060 7e 3d 65 bd 6f 60 5e bd da 02 27 ba 00 2a 46 3d
       -0.055966847 -0.054291185 -0.00063709693 0.048379898
000070 c7 bf 2d be 3e 16 93 3d 3f 29 61 3e d8 db c2 3c
       -0.16967689 0.07181977 0.2198839 0.02378647
000080 92 e3 c4 bd b0 03 6b 3d 93 7b dc bc c8 13 41 bd
       -0.09613718 0.057376564 -0.026914394 -0.047138005
000090 2b 5e 86 bb b6 67 e5 bd 6c 14 f7 3d 54 6d d0 3d
       -0.004100581 -0.11201422 0.12064442 0.10177103
0000a0 f5 fb 04 be c3 6a e6 bc 2f 71 9a bc dc 6a 6a 3d
       -0.12986739 -0.02812708 -0.018852798 0.057230815
0000b0 95 f3 2f 3d 56 25 14 bb ef 52 e5 3d 9d 82 d9 bd
       0.042956907 -0.0022605262 0.11197459 -0.10620616
0000c0 09 ae 8f 3d 34 a4 08 be dc 6f 97 3d 09 75 03 3c
       0.070156164 -0.13343889 0.07394382 0.008023509
0000d0 9a 47 44 3e 9f 13 09 3e 0a 24 79 3e 23 b2 12 be
       0.19167939 0.13386391 0.24330154 -0.14325766
0000e0 53 96 cc bc 85 37 d4 bc 63 d6 3f 3d 88 99 97 3d
       -0.024974024 -0.02590538 0.046835314 0.07402331
0000f0 cc c8 75 bc fd 7a a0 bd 17 dc 0b be 45 df 64 3b
       -0.015001487 -0.07835958 -0.13658176 0.0034923118
000100 ce 90 16 3d af 55 53 bd 4a ae da bc 99 15 82 3d
       0.03675919 -0.051595386 -0.026694436 0.06351776
000110 d4 fc da bc 99 a2 82 3d 6f 02 0c bd c6 61 e7 3c
       -0.026731886 0.06378669 -0.03418201 0.028244864
000120 a6 d6 46 3d 99 9a 5f bd ac be 2d 3d 1c dd e8 3c
       0.04854455 -0.054590795 0.042418167 0.028425746
000130 0c b3 7e bb ec 33 ac bd d1 48 15 bd c2 6d 2b bd
       -0.0038864044 -0.08408341 -0.036446396 -0.04185272
000140 7b 29 49 3d f5 96 d4 bd bd cf b7 bb 46 51 e3 bc
       0.049111824 -0.10380355 -0.005609481 -0.027748715
000150 7e 1e 2a bc 74 72 91 3d 7e f5 04 bd 48 84 8a 3d
       -0.0103832465 0.07101908 -0.032460682 0.06763512
000160 81 4d 5b 3d f3 5d d0 3c f4 68 8e bd eb d8 57 bc
       0.05354071 0.025435423 -0.06953612 -0.013174276
000170 8d ae af 3d 62 d3 41 bd 12 a6 bf bd 32 a9 68 3d
       0.08578215 -0.04732073 -0.09357847 0.056801982
000180 4d 6d 5c 3c 40 d7 f4 3b dd c9 30 3d 85 a1 75 bd
       0.013453794 0.007471949 0.04316126 -0.05996849
000190 ae cf af bc c8 c4 19 bc 31 c3 c5 bc e3 94 07 bc
       -0.021461334 -0.009385295 -0.024140926 -0.008275243
0001a0 0c 7a 80 bd 4a 07 5c 3d 25 b0 2c bd 4a 67 92 bd
       -0.062732786 0.05371789 -0.042160172 -0.07148607
0001b0 e6 ba 54 3c 27 88 06 3d d0 16 bd bd a0 bc ea 3c
       0.012984013 0.03284469 -0.09232867 0.028654397
0001c0 55 18 0a bd 09 9b c0 3d 3d e4 b0 bb 4d e6 3f 3c
       -0.03371461 0.094045706 -0.005398302 0.011712623
0001d0 35 83 88 bd ab 85 bb 3c 9e 2a 20 be 8f d7 a9 3c
       -0.06665651 0.022890886 -0.15641257 0.02073267
0001e0 86 d0 31 3d bd c4 14 3b a3 f3 5e 3c 0f 35 6c 3b
       0.043411754 0.0022700273 0.013607892 0.0036042368
0001f0 0a 64 d6 bc a2 34 01 3d ec e6 29 3c 56 f6 88 bc
       -0.02617075 0.031544335 0.0103699975 -0.016719025
000200 dd 94 f4 bc 46 41 bd 3d 96 65 88 3c f5 da 14 3d
       -0.02985614 0.092409655 0.016650002 0.036341626
000210 8a 83 85 bb 01 dd b4 3d bb a2 0d bc b6 8b a9 bc
       -0.0040745186 0.08831216 -0.008644755 -0.020696502
000220 52 0d 5a 3c 6f 8b 00 bd 5b 61 01 3e 81 c4 b1 3c
       0.01330884 -0.031382974 0.12634794 0.021700146
000230 61 f6 25 3d 1c 54 91 3c ef 60 94 3d f8 11 e7 bd
       0.04051817 0.017740302 0.07245051 -0.11282724
000240 8a e2 90 bc 4a 82 d3 3c c5 f3 b1 bc 8b b8 0c 3d
       -0.017686147 0.025818963 -0.021722684 0.03435568
000250 49 3b d7 bc a6 1a e2 3c 04 83 4f 3c 69 15 1f bc
       -0.026273387 0.027600598 0.012665514 -0.009709694
000260 e9 ca d3 3c bc 02 5b 3d 88 9f cf bc 78 3c e0 bc
       0.025853591 0.053469405 -0.025344625 -0.027372584
000270 5a 14 b0 bc 56 6a 32 bd 04 04 77 bb c1 9a 6b 3d
       -0.02149408 -0.04355844 -0.0037691602 0.05752063
000280 2b 42 9c 3c 5f 45 4d bd 47 e0 2b 3d 91 02 01 3d
       0.01907452 -0.050114986 0.041961934 0.03149659
000290 a5 e6 75 3c 75 d5 4b bd 11 40 ac 3c 67 30 37 bd
       0.015008603 -0.049764115 0.021026643 -0.044723894
0002a0 21 65 35 3a e0 10 ae 3c 46 3a 36 bd ac c7 81 3c
       0.00069196714 0.021248281 -0.044489168 0.015842281
0002b0 95 77 76 bd 16 ee c0 bd 83 c3 2b bd 44 fb 84 3d
       -0.060172636 -0.09420411 -0.0419345 0.064932376
0002c0 17 f0 6c bd ba 8e 8c bc ff d4 51 bc ed cf 9a 3c
       -0.057846155 -0.017157901 -0.01280713 0.018897975
0002d0 8f da c2 bc e8 86 dc bc 22 d2 80 3c fd a5 4d 3d
       -0.023785857 -0.026919797 0.0157252 0.050207127
0002e0 e2 45 e9 bc 7f 59 5a 3c 29 55 01 bd de b3 1d 3d
       -0.028475706 0.013327002 -0.031575356 0.038501613
0002f0 68 f4 09 3d 14 28 32 bc e8 37 a0 bc ac 37 45 3c
       0.03368035 -0.010873813 -0.019557908 0.012037199

transformer_encoder.layers.1.self_attn.out_proj.weight f4 [64, 64]
000000 7e f9 8c bd 8d 1d c9 3d dd 47 3d 3d 3b 2d ca bd
       -0.06883524 0.098200895 0.046211112 -0.09871908
000010 2f 7a 93 3c 7f 8d 45 3e 4e 79 41 bd 04 ce 18 be
       0.018002598 0.19292258 -0.047234826 -0.14922339
000020 38 f5 08 3e 0e c2 3b 3b 2c 79 75 3e 7a 06 5e 3d
       0.13374794 0.00286496 0.23972005 0.054205395
000030 97 38 13 bd 9a d6 d7 3d 7b 74 29 bc 3e 41 a1 be
       -0.03594264 0.10538979 -0.0103427125 -0.31495088
000040 f1 01 27 be c5 01 a7 3d e1 03 2f bd 02 aa 1b 3d
       -0.16309334 0.081546344 -0.04272831 0.03800393
000050 86 df 3b bd 47 70 07 3e 23 f9 8c bd 7d 34 d7 bc
       -0.045867465 0.13226424 -0.068834566 -0.026270146
000060 2e f0 b7 b9 7e 5e 82 3c ff 88 5f be e2 3d 5d 3d
       -0.00035083428 0.015914198 -0.21829604 0.054014094
000070 73 32 19 be ba a2 8f bd 1d 6c 3b be 45 1f 23 3e
       -0.14960651 -0.070134595 -0.1830296 0.15929897
000080 e6 d6 0a b9 bf ad 2d bd f2 60 3d bc bf 43 b6 bc
       -0.00013240761 -0.042402025 -0.011558758 -0.0222491
000090 36 60 bd 3a 9f 2a 62 be 31 59 3a bd 1b 9a 57 3d
       0.0014448229 -0.22086571 -0.045495216 0.0526372
0000a0 91 8f 08 be 6f b4 97 3d 29 f8 61 3e a3 97 83 3e
       -0.13336016 0.07407462 0.22067322 0.25701627
0000b0 7f 2b 1c 3d ae 59 07 be 10 4d d8 bd 92 62 9f 3d
       0.03812742 -0.13217804 -0.105615735 0.07782473
0000c0 60 ff 0e bc 91 2d 1b bd 2c 79 68 bd cb 58 d9 3b
       -0.008727878 -0.037885252 -0.056756184 0.0066328994
0000d0 fc 5e 92 be 02 1c d3 3d 1b b3 1f 3e 0e 15 01 be
       -0.28588092 0.103080764 0.15595667 -0.12605688
0000e0 f5 29 3c be 28 44 43 be 61 37 a9 3d 6f f3 e2 3d
       -0.1837538 -0.19068968 0.08262516 0.110815875
0000f0 0c f9 33 3d 5c 4f af 3d 39 34 1e be 2c 2f da 3b
       0.04393868 0.085600585 -0.15449609 0.0066584554
000100 a4 31 79 3d cf 87 43 3b d4 bf 3c 3d 36 3d 11 3c
       0.060838357 0.0029835587 0.04608138 0.0088646915
000110 3c ca eb 3d fd a6 f2 bd 7b c0 0f 3d 8d 51 57 bd
       0.115131825 -0.11848257 0.035095673 -0.052568007
000120 2b c8 e6 3c a0 23 98 3d 71 b1 3d 3d c4 08 9b bd
       0.02817162 0.0742867 0.0463118 -0.07570031
000130 f8 01 0f 3e 05 28 d8 bc f1 cf 0e 3e af a2 0e be
       0.13965595 -0.02638627 0.13946511 -0.13929246
000140 e4 6e 84 3c 08 af c8 bc 83 0a 33 bd 40 ea d1 3d
       0.016166158 -0.024497524 -0.043711197 0.10249758
000150 82 c0 2b bd 01 2f df 3d 21 c7 cb 3d 18 5e a4 bd
       -0.041931637 0.10897637 0.0995009 -0.080257595
000160 c4 99 c1 bd dc 5f 7c 3d 54 a3 f6 3d 1f 0f d3 3c
       -0.094531566 0.061614856 0.12042871 0.025764046
000170 e4 36 91 3c 79 70 24 3d 20 e5 8a 3c 10 fa 0e 3d
       0.01772637 0.040146325 0.016954958 0.034906447
000180 af 43 61 3d c7 41 08 3d 24 4d c6 bb 70 77 4d be
       0.05499619 0.033265855 -0.0060516763 -0.20065093
000190 9c 29 df bd c2 22 87 3d c8 68 e9 bb 6f 88 53 bd
       -0.10896608 0.065984264 -0.0071230866 -0.051643785
0001a0 a6 03 15 bc 2d 15 7a 3d 1a 0b 1a 3d 2b 1d e7 3c
       -0.009095108 0.06105535 0.037608244 0.02821215
0001b0 7e f6 a2 bd af f5 12 be 73 c4 bb bd f4 0d 05 3d
       -0.07957171 -0.14351533 -0.09168329 0.03248401
0001c0 de 51 11 bc c3 2a 4c bd 6b 13 11 bc 93 0b 15 3e
       -0.008869616 -0.04984547 -0.008854727 0.14555196
0001d0 72 76 a9 bb 4a c6 89 bd 2e 69 b2 ba b4 c4 13 bd
       -0.0051715905 -0.06727274 -0.0013611668 -0.036076263
0001e0 b6 0c 25 3d b8 de 4b 3d e4 a9 be bd 5b b4 81 bd
       0.040295325 0.049772948 -0.09309748 -0.06333228
0001f0 cb 6d 48 3b f2 b6 f3 3b 91 52 b1 bc 24 a5 df 3c
       0.003058302 0.0074375803 -0.021645816 0.027300425
000200 27 60 2f 3d 51 a6 37 bd 31 03 bb bc c0 50 25 3c
       0.042816307 -0.044836346 -0.02282867 0.010090053
000210 8d 4b 7c bd 29 a0 31 be 56 58 73 bd 75 56 52 3c
       -0.06159549 -0.17346253 -0.059410416 0.012837996
000220 56 3f fd 3d b5 24 06 3c f8 85 4e bc 5d 86 0d 3c
       0.12365596 0.008187463 -0.012605183 0.008637992
000230 a8 99 ac 3d bc 1d 62 3d 70 f2 9b bd 4e 7f 95 3d
       0.08427745 0.05520414 -0.07614601 0.07299672
000240 de 11 17 3d 55 84 a7 3c 94 2c fe bb be 42 12 3c
       0.036882274 0.020448843 -0.007756779 0.008927045
000250 18 9f 83 3d 68 0e 2a bd b7 09 7e bc 81 3d 93 3d
       0.06426829 -0.041517645 -0.015505246 0.07189465
000260 34 72 35 3a 8e da cf bd 48 b8 c9 3c 87 ff 76 bd
       0.00069216196 -0.10149108 0.024624005 -0.060302284
000270 aa 09 ad 38 f7 bd 16 bc 10 ae 86 bd d2 04 b8 bb
       8.251083e-05 -0.009200565 -0.065761685 -0.005615809
000280 c8 35 14 bb 20 08 80 3b 93 45 86 3d da b4 61 bd
       -0.0022615064 0.0039072186 0.06556239 -0.055104114
000290 93 3a b6 3d cb 55 ce 3b ab e5 41 bd 50 60 b3 3c
       0.08897891 0.0062968484 -0.04733817 0.021896511
0002a0 54 e3 c4 bd d6 16 59 3d 2e cf 44 bd b3 b3 09 3d
       -0.09613672 0.053000294 -0.048049144 0.03361864
0002b0 22 56 1c 3d 66 92 ee 3d a2 6d 58 bd 9f a5 19 3c
       0.03816808 0.11649017 -0.05283893 0.009377866
0002c0 c5 f3 3b bd 69 52 2a bd 9c d2 ad bd 0b a8 50 3c
       -0.045886774 -0.0415825 -0.08487436 0.012735377
0002d0 02 e8 48 bb 07 ba 0a 3e f3 71 23 bd ee 4b 7e bd
       -0.0030655866 0.13547526 -0.039903592 -0.06208413
0002e0 48 cf 94 bc b0 6c 92 bd 69 cd ff 3c 6f bb 3f 3c
       -0.018165246 -0.07149637 0.031225877 0.0117024025
0002f0 af 1b 99 3c 97 a4 47 3c ef db 92 3c 4b ef a2 bb
       0.018689958 0.012185237 0.017927138 -0.0049723736
000300 39 bc d0 bd fa fd 85 bd 0a cb 97 3c c7 a9 e5 3c
       -0.101921506 -0.06542583 0.018529434 0.028035058
000310 1f 0e 2a 3e 2e e5 09 3e e2 b2 44 3e 7f 28 9c bd
       0.1660695 0.13466331 0.19208863 -0.076249115
000320 0d 9e 30 3e a2 e9 03 3d 7f e7 32 bd 77 5e 1d 3e
       0.17247792 0.03220523 -0.043677803 0.15368067
000330 44 ee 47 3c 57 58 99 3b ef b8 b7 3d f5 2f 86 3c
       0.012202803 0.0046797204 0.0897082 0.01638029
000340 70 24 e9 bd d0 9c bd bd 1d 79 cf 3c 9c 29 8d 3d
       -0.11383903 -0.09258425 0.025326306 0.06892702
000350 5d 14 b9 3d ae 18 6c 3d 91 a5 3c 3d 7f 48 e3 bd
       0.09037087 0.057640724 0.046056334 -0.11097812
000360 07 dd 2c 3b d9 2c 35 be 88 8f 7f 3d 80 46 84 bd
       0.002637686 -0.1769289 0.06239274 -0.06458759
000370 87 72 72 3b ab 87 f8 bc 4a 52 46 bd b6 d0 01 3c
       0.0036994533 -0.030338129 -0.04841832 0.007923296
000380 30 e5 75 3b 83 6b 84 bb ee 41 19 be e5 e5 b8 bd
       0.003752064 -0.0040411367 -0.14966556 -0.09028224
000390 76 ed 7d 3d a4 c2 0d 3c 6d fc d4 bc 70 65 dd 3d
       0.06199404 0.008652363 -0.025999272 0.10810363
0003a0 b0 70 95 bc fd 31 bf bd bb 90 2c be 6d 56 b0 3d
       -0.01824221 -0.093357064 -0.16852085 0.086102344
0003b0 04 59 31 3d d9 72 c4 bd 1b da de bd 75 84 d2 3d
       0.043297783 -0.09592218 -0.10881444 0.102791704
0003c0 5e 5b 25 bd 93 4a 8a bd 85 70 4e 3d 72 39 e0 3c
       -0.040370338 -0.06752505 0.050400276 0.027371142
0003d0 0b cf 47 3d 6e f8 06 3d 6a bb 36 3d 7f 65 ca bd
       0.048781436 0.032951765 0.044612326 -0.0988264
0003e0 22 40 d2 3d c0 4d 8c bc 4a a3 b6 3d ce 2f 52 bc
       0.102661386 -0.017126918 0.08917864 -0.01282878
0003f0 3a 05 46 bd 4a 85 6b bd 29 98 82 bd af f0 d9 bd
       -0.04834483 -0.05750016 -0.063766785 -0.1064161

transformer_encoder.layers.1.self_attn.out_proj.bias f4 [64]
000000 f3 12 fd bd 7c 4b 18 bd 45 1a e7 3c e1 92 ad 3d
       -0.1235713 -0.037181363 0.028210768 0.084752806
000010 fe 85 cb 3c aa d5 fe bd 6f 1d 81 bc 6d 21 e2 bd
       0.024844166 -0.12443097 -0.015761105 -0.11041532
000020 c0 78 4a bd 5b 03 2f 3b 5a 66 d7 bd 18 c3 91 bc
       -0.049431562 0.002670488 -0.10517569 -0.017793223
000030 56 15 9a bc ad 98 0c be 12 58 d4 bd a9 15 15 3e
       -0.018809002 -0.13730116 -0.103683606 0.14559044
000040 52 df 3a 3e 8c af 17 3d 57 bf 11 3c 7d a1 6a bc
       0.18249252 0.03703265 0.008895717 -0.014320728
000050 a8 4a 25 3d d5 fa da bd 75 51 50 be 38 2a c4 3d
       0.0403544 -0.10692374 -0.20343573 0.09578365
000060 0b b7 44 3d 07 71 1b 3c ef 36 2b bd da 84 ad bd
       0.048026126 0.009487397 -0.041800436 -0.08472605
000070 06 a1 03 3c c3 8e eb 3d bb da 6e 3b a3 96 bf bd
       0.008033996 0.11501839 0.0036446291 -0.093549035
000080 50 ac d7 3d 43 3c c3 bd 68 fc 79 3e 0a 68 f0 3d
       0.10530913 -0.095329784 0.24412692 0.11738594
000090 c5 6c e1 3c 09 ce 53 3d fb c9 3c bc 15 df d7 3d
       0.027517686 0.051710162 -0.011522765 0.105405964
0000a0 41 c6 3b bd a0 9f 37 3d 64 bb 62 bd af 65 07 3d
       -0.045843367 0.044829965 -0.05535449 0.033055957
0000b0 d3 96 ce bd 97 c8 bf 3d 79 47 cb 3d e9 59 ed 3d
       -0.10087361 0.09364431 0.09925742 0.115894146
0000c0 7c d0 0a 3e fb a7 7b bc e8 e0 e6 3c b0 42 ba 3c
       0.13556093 -0.015359874 0.028183416 0.022736877
0000d0 9b d1 0b 3c 0d a4 13 bb cc 2f 42 bd 67 49 f7 3d
       0.008533861 -0.0022528202 -0.047408864 0.12074547
0000e0 83 ac 06 bc 80 ca 20 3d 78 ef 59 bc a6 aa 97 3c
       -0.008219841 0.03925562 -0.013301723 0.018513989
0000f0 7f 0e 3b 3c 0c 05 1a 3e 1e 06 94 3c 81 c2 1e 3e
       0.01141703 0.15040988 0.018069323 0.15503885
