models/model_pivot_reversal_v2_final.onnx (onnx, 229939 bytes, 8 tensors)

fc.weight f4 [3, 64]
00000000: 8a72 46be c38b 073e 6d2d 493d e549 aabc
00000010: d326 db3d 24ec 4bbe 1fdf 4dbe e731 413e
00000020: fe6e 4f3e 7af4 e53b 40ce 393e 6a20 a43d
00000030: 8f70 14be 8ead 2cbe f110 17be 507a 55be
00000040: 3808 07be b9e8 563e 46c8 10bc 8773 17bc
00000050: 4a09 e03d 2b57 c63d 066f 6cbe fac7 d23d
00000060: 795f 5d3e 499d 5fbc dbbd 3bbe 2a25 c4bd
00000070: 343b 04bd 1755 0b3e 7a66 933d 7c93 03be
00000080: efd8 1a3d d876 283e 9441 98be e86c 973d
00000090: 7d37 ecbd 8f7f 29be 8b67 b53d 41c2 87bd
000000a0: 356a 473e 182c d7bd b33b d6bd 750c 0dbd
000000b0: 865f 703e de61 353e c4a3 9639 0de5 b5bd
000000c0: 0893 323e 7f73 933d 318f ecbd 9052 043e
000000d0: 0810 9a3d 4450 bb3b b2e6 a53d 39f6 2b3e
000000e0: ace2 503e f73b fabd 3a1d 1e3c fb5a 0a3e
000000f0: 8130 453e 1e21 ed3d 3a0f 3bbd 50f1 a23c
00000100: 470b 53bd 70c1 2d3e b04a d4be 61b4 83bd
00000110: 43f9 3dbe d66e 893e 6f0c a13e bf1d 6ebd
00000120: 9a6e c0be 25f4 2c3e 6407 9b3d 427e 48be
00000130: dc7a 3fbe 2032 0ebe b8a4 1abe e3be 48be
00000140: ffd4 833e 9f48 233e e44f 4e3e 2412 503e
00000150: a083 94be 509f cbbd 84d8 563e 52cf 3b3e
00000160: d845 1fbe 9e8c 23be a46c 3fbe 18b6 31be
00000170: 4936 a1bd ca31 933d a99a 57be 6df1 d33e
00000180: 6a6f 04bf e1d8 e03d 9bb5 c13d 2350 2b3c
00000190: 98b0 a63b a787 623e 5fb4 e9be efc9 e9bd
000001a0: eeb2 8cbe da1d aebd c255 e53d 6636 47be
000001b0: 71ea 04bb 59be abbe 1a2f f63c a857 1b3e
000001c0: 4cda 8fbe baf3 d23d ac80 8abe 8cb7 b5be
000001d0: fe99 703e 7099 18be c3bf a4be 3d18 7ebe
000001e0: 6694 d8bd 9247 983e 1ba9 b0bd cf57 9cbd
000001f0: e74f ca3d 6787 cabe 1aaf 933e 6d1d 63be
00000200: 020d 803e 7fad e7bd 2725 e23d ce18 cd3d
00000210: adfc 2d3d 6f36 58bd 7901 08bd 21b4 00be
00000220: cb0a 093e fda1 65be a042 2abe 62cf 383e
00000230: 3f6b a13e 85a5 773e 9c04 a03e 6f39 b53e
00000240: ddd5 78be 739a bdbe 072a 0abe 1005 08be
00000250: 6076 7c3d 545f 1ebe e606 c9bd c8f1 4abd
00000260: 9ab8 39be 6e34 6a3d 3f4e a53d 6dc0 973e
00000270: 29d4 5e3d 2980 43be 217d 9f3d 5ff0 3ebe
00000280: 419a a83d 4a07 66be 4405 553d ada7 1fba
00000290: 297f 943e 7548 78bd 01a6 eb3d 4a60 fb3d
000002a0: 1640 f23d c515 b53e cace 4f3d f7d8 523e
000002b0: 8ff2 85be f739 193e e82f 643e b32a 47be
000002c0: e169 1b3e e8cf 78bd 1fcc 1e3e 3096 b33d
000002d0: fdfe 0abe cba1 14bc ed13 0d3e fb4e 183e
000002e0: 96eb 20be 1c10 f7bd 78ad 713e 560d 08be
000002f0: 27b5 9dbe c6bd 013e fa21 59bd aed2 1b3e
-0.1937963 0.13236909 0.049115587 -0.020787189 0.107007645 -0.19914299 -0.20104645 0.18866692
0.20257184 0.0070176693 0.18145084 0.08013995 -0.14496063 -0.16863081 -0.14752556 -0.2084744
-0.13186729 0.20987214 -0.008836811 -0.009243852 0.10939272 0.09684595 -0.23089227 0.10292049
0.21618451 -0.01364834 -0.18334143 -0.09577401 -0.032283023 0.13606678 0.0719728 -0.1284923
0.03780454 0.16451585 -0.29737532 0.07393819 -0.11534021 -0.16552566 0.0885764 -0.06628848
0.19474109 -0.10506457 -0.104606055 -0.034435708 0.2347394 0.17713115 0.00028732244 -0.088815786
0.174389 0.071997635 -0.11550749 0.1292212 0.07522589 0.0057163555 0.08100642 0.16793145
0.20398968 -0.12218469 0.009650523 0.13511269 0.19256784 0.11578582 -0.045668818 0.019890457
-0.051524427 0.16968322 -0.41463232 -0.06430889 -0.18552117 0.26842374 0.314548 -0.058133837
-0.37584382 0.16890009 0.07569769 -0.19579414 -0.18699211 -0.13886309 -0.15101898 -0.19604068
0.2574844 0.15945671 0.20147663 0.2031942 -0.29006672 -0.09942496 0.20981032 0.18340805
-0.15553987 -0.1597161 -0.18693787 -0.1735462 -0.07871682 0.07187231 -0.21055092 0.4139513
-0.51732504 0.10978866 0.094584666 0.010456118 0.0050869696 0.2212206 -0.45645425 -0.11415469
-0.27480263 -0.085017875 0.11197998 -0.19454345 -0.002028134 -0.3354366 0.030051757 0.15170157
-0.28096235 0.103003934 -0.27051294 -0.35491598 0.23496243 -0.14902282 -0.32177553 -0.24813934
-0.1057518 0.29742104 -0.08626004 -0.07633936 0.098785214 -0.3955643 0.2884453 -0.22179194
0.25009924 -0.11312389 0.110422425 0.10014497 0.0424773 -0.052786287 -0.03320453 -0.12568714
0.13383023 -0.22425075 -0.16626978 0.1804786 0.31527135 0.24184234 0.31253517 0.3539538
-0.24300332 -0.37031898 -0.13492595 -0.13283181 0.06163633 -0.15466052 -0.09815769 -0.049546987
-0.18136826 0.057178907 0.08071565 0.29638997 0.05440155 -0.19091858 0.07787538 -0.18646382
0.082325466 -0.22463718 0.052006975 -0.0006090354 0.29003266 -0.060615975 0.11506272 0.12274225
0.1182863 0.3536817 0.05073432 0.20590578 -0.2616162 0.14963518 0.222839 -0.19449882
0.15177108 -0.06074515 0.15507554 0.0876888 -0.13573833 -0.009071778 0.13777132 0.14873879
-0.15714869 -0.120636195 0.2360133 -0.13286337 -0.3080227 0.12670049 -0.05301092 0.15217087

fc.bias f4 [3]
00000000: 0b18 003d 62db 8abd a36e 11be
0.03127293 -0.06780125 -0.14202361

onnx::LSTM_182 f4 [1, 256, 24]
00000000: 0257 d93c 30f3 7abd bca0 3ebe 9b3b 88bd
00000010: 9004 05bc 9535 bf3d e71f dd3e 66d7 103d
00000020: 7a17 76bc 3da7 cb3d 2208 873b f57f 59be
00000030: 45f6 b13d 4d62 833d 938a 953d d0d4 3d3e
00000040: 9d62 cfbd 8f88 2d3e 54a5 c83c 2b79 a03e
00000050: 7224 48bd 1777 873e a1a9 2cbc ab57 0a3e
00000060: e076 83be 6d79 8bbd 924a 12be 2de5 593d
00000070: d232 943d 7452 01be f0dd 8b3d eaa9 ffbd
00000080: 4461 c33d 6eb2 f33d 66eb 743d 23c2 9c3c
00000090: 987a 13be e8d7 afbd c764 30bd dab8 3c3e
000000a0: d985 9bbe fb0c 18be 0acf a2bc c28f 293c
000000b0: 9ab6 35be a8e7 3abd c0a2 65be 2786 20be
000000c0: be0d 423e b841 f93e 12ae 28bd 4a3c 49be
000000d0: 503c d2bc fb4f 1bbe 0264 1ebe aeef 84be
000000e0: 6a81 183e e5ad 0d3e 9b20 8d3e 89b3 20bd
000000f0: 7172 f7bd 7a33 bebc 7244 3b3d e40a 05bb
00000100: 4c23 a5be ecca 0ebe c468 29bd 370b 3f3e
00000110: 4f40 213d a328 353e 6087 c03d a200 2b3d
00000120: 4821 183e 7632 773e b976 9fbd dc27 7d3e
00000130: 041e 643d 167b cb3e 0985 bbbd 97cd b53d
00000140: 3019 23bd 3948 cdbb 5f89 8dbc 3354 35be
00000150: bb18 1d3d 45b5 043d 3e01 083e ab9a af3d
00000160: 753d 9b3c 7e99 803e 6480 07be c338 f2bd
00000170: a4cc 283e 365e 413e 39ee 95bc dfaa 57bd
00000180: 99ec 863e 1e44 763e 7c9f 223d 473d d73d
00000190: 7e58 d3bd 13c9 b5bd 1615 46be d1d9 d6bd
000001a0: 06a8 08be 9d31 c93d 0b4c 8d3c e04f a53d
000001b0: 2200 b6bc d412 873d aa13 5f3e cfa1 60bd
000001c0: b498 98bd 367c a4bc ec95 0d3e 66a5 0d3e
000001d0: 3b49 4e3d 2c3e 5c3e 6030 d7bc 6064 7b3e
000001e0: 3e7d 003e eafc da3d 0013 9bbd 8f8b 2dbc
000001f0: 3641 a5bd 6bb6 e13d 1e6f 253e 35d6 c83b
00000200: af62 a238 db25 ea3d c3a7 923e 8457 f3bd
00000210: 832a 41be 92fb 843d 78dc 3b3e ed71 c63c
00000220: f818 2fbd 4407 10bd 25dd 153e 87a6 df3d
00000230: e1f9 d0bc 06f9 99bd 34b0 bfbd 6ae4 edbd
00000240: 6d0a 393d 1718 1ebe 1f07 c13d fce5 223e
00000250: 78d7 f7bc 7b07 45be e9a3 1d3e cc9b 993e
00000260: 4b54 6b3e e359 66bd bbdb fa3d 40be 253d
00000270: 42c1 4bbc be39 7ebd bba0 6f3e 8632 2e3e
00000280: fa03 aabe 56e0 213d 7f2c b4bd 054b 153d
00000290: 08a8 91be a776 0d3e d9ab 64be a6d8 d3bd
000002a0: 4713 68be 3a52 6bbc ddd1 1f3e 1816 c33d
000002b0: 880b e73d d110 ac3e 0ac7 fd3d 007b a73d
000002c0: 40f5 d0bd c6c4 72bd a04e b8bd 6a86 6cbe
000002d0: 4741 003e 7f1a 023e b381 673d 2c32 533e
000002e0: 7443 3abd 7b8d ae3d 35ff 473d d7cf 8d3e
000002f0: 9908 0d3d ed52 fd3c baeb c1bc e633 a4bc
00000300: 024c c73d 8856 d0bb 96de 48bd 8a64 d53d
00000310: 24c6 1f3d 7ff5 103e 5c81 d4bd 446e 44bd
00000320: b4c4 8c3e e503 233e 4e14 fd3d 497a 3a3e
00000330: 9897 cabd e579 57bd 5e7d 8b3e 02fb 863e
00000340: cb1e 97be 0db4 23bd afeb a5bd a38d 83be
00000350: 4fde 2e3d 81b5 22bc 4680 edbd 765e 5a3d
00000360: 2945 20be 4b98 1dbe d3c8 4c3d cc22 433d
00000370: c4c5 69bd 8c06 e73d 7c5c 963d 6bf1 83bd
00000380: df59 f03c b98d 9a3e 8001 933e 8b22 a23d
00000390: e505 71bd 7682 7e3c 48c2 a73e a4ec c73d
000003a0: 1ca0 0ebe 9f35 3a3d 86d2 4ebd 9c05 3d3d
000003b0: 3b86 ddbc 900f 0a3e 5af6 f4bd a9fd 31bb
000003c0: 5dd9 6bbc b896 d73d 2f80 0bbe 62fc 1f3e
000003d0: 0e72 dfbd c0fa 173e 387a 1c3e da54 1b3e
000003e0: 304d f9bd ed4e 1cbe 53f0 c83c c5ce 9ebc
000003f0: 0cc8 0d3e d357 b9bc 264a b13d c064 41bd
0.026530746 -0.061267078 -0.18616003 -0.06651994 -0.008118764 0.09336392 0.43188402 0.03536167
-0.015020246 0.099440075 0.0041208426 -0.21240218 0.0868955 0.06415234 0.073018216 0.18538213
-0.10126231 0.16946624 0.024492897 0.31342444 -0.048862882 0.26458046 -0.01053849 0.13510005
-0.25676632 -0.068102695 -0.14286259 0.053197075 0.07236256 -0.1262911 0.068294406 -0.124835804
0.09540036 0.11899267 0.059794806 0.01913554 -0.14402235 -0.08586103 -0.04306486 0.1842989
-0.30375555 -0.14848702 -0.019874115 0.010349216 -0.17745438 -0.04563108 -0.22425365 -0.15676175
0.18950555 0.48682952 -0.04118163 -0.19651905 -0.025663525 -0.15167229 -0.15467837 -0.2596411
0.14893118 0.13835867 0.27563938 -0.039233718 -0.12082375 -0.023217905 0.04571957 -0.002030068
-0.32253492 -0.13944596 -0.041359678 0.18656622 0.03936797 0.17691283 0.09400821 0.04174865
0.14856446 0.24140343 -0.077863164 0.24722236 0.055692688 0.39742345 -0.09156234 0.08877104
-0.039818943 -0.006264713 -0.017277418 -0.177079 0.038353663 0.032399435 0.13281724 0.085744224
0.018950203 0.25117105 -0.13232571 -0.11827233 0.16484314 0.18883595 -0.01830207 -0.05265319
0.26352385 0.24049422 0.039702877 0.105097346 -0.10319613 -0.088762425 -0.19343981 -0.10490764
-0.13345346 0.09823916 0.017248174 0.080718756 -0.02221686 0.06595388 0.21784845 -0.054841813
-0.07451001 -0.02007876 0.13826722 0.13832626 0.050362807 0.21508092 -0.026268184 0.24550009
0.12547776 0.10692771 -0.07571983 -0.010592355 -0.080690786 0.110211216 0.16155669 0.006129051
7.743143e-05 0.114330016 0.28643617 -0.11881927 -0.18863873 0.06493296 0.18345821 0.024224246
-0.04274842 -0.03516318 0.14635141 0.109204344 -0.025509777 -0.075182006 -0.0935978 -0.11615832
0.04517596 -0.15438877 0.09425186 0.15908045 -0.03025411 -0.19241135 0.15394558 0.30001676
0.22981374 -0.056238066 0.122489415 0.04046464 -0.012436213 -0.062066786 0.23401158 0.1701146
-0.3320616 0.039520584 -0.087975495 0.036448497 -0.2844851 0.13814794 -0.2233118 -0.10344057
-0.22663604 -0.014362866 0.156074 0.095256984 0.11281496 0.3360658 0.12391479 0.08177757
-0.10203028 -0.05926969 -0.089993715 -0.2309815 0.12524901 0.1270542 0.056520175 0.20624608
-0.045474485 0.08523079 0.04882737 0.27697632 0.034432027 0.030923331 -0.023671973 -0.020044278
0.09731294 -0.0063579716 -0.0490404 0.10419567 0.03900732 0.1415615 -0.10376236 -0.04795672
0.27493823 0.15919454 0.123573884 0.1821071 -0.098921955 -0.052606482 0.27244085 0.2636338
-0.2951568 -0.03996663 -0.08101594 -0.25693998 0.04269248 -0.009930969 -0.11596732 0.05331274
-0.15651383 -0.15390126 0.04999621 0.047640607 -0.05707337 0.112805456 0.07341859 -0.06442531
0.029339729 0.3018625 0.28712082 0.07916745 -0.058843512 0.015534034 0.32765412 0.097619325
-0.13928264 0.045461293 -0.05049374 0.046147928 -0.027041545 0.13482499 -0.1196105 -0.002715925
-0.014395085 0.10526794 -0.13623117 0.1562362 -0.10910426 0.14841747 0.15280998 0.15169087
-0.121729255 -0.15264483 0.024528658 -0.019385705 0.13845843 -0.022624886 0.08656721 -0.047215223

onnx::LSTM_183 f4 [1, 256, 64]
00000000: 386a 72bd ecb9 2bbe 7957 42be 8bae cbbd
00000010: 36e2 ea3d 6912 eabc 0578 2a3d f66b 0abe
00000020: f009 733d 3891 7fbd a55e b7bd cbeb 873e
00000030: 0223 a93d d7c0 38be b070 4abd b7dc 29be
00000040: e5b3 21be c91b 7b3d b594 123e f4ae 0b3e
00000050: 6a86 8e3e 9c28 533d 495d 663e 1622 38be
00000060: 6a1d 09be fa9d 38bd 8f1b e9bd 2b4c d5bc
00000070: 45b8 c4bc c250 f33d c9f3 4dbc 409d 4dbe
00000080: ae0b 283e 68d7 6abe 375d a5be d2f7 afbe
00000090: d474 ce3d 5973 32be 14a5 c13d ddf8 a4bd
000000a0: 7744 513e a443 babc 87ea a03d 01b5 2d3e
000000b0: e717 7b3e c178 283e 24d4 8bbe 6321 603d
000000c0: 54a8 2d3e 6e1f 7a3e ceb9 343d 0146 3f3d
000000d0: 83e7 94bc eab8 ec3d 3af3 82bd b784 70bd
000000e0: ba37 bdbd a05e c9bd eb02 a83d 2970 adbd
000000f0: 057d 53bd 9635 3abe f8fc 063d e5a2 40be
00000100: a913 c33d 8482 94bd cfca 8abd b3c9 70be
00000110: d117 d63d ed38 ae3d 8cf4 a9bc f222 28be
00000120: 2046 3a3e f64e f5bc 65c3 dfbd 22b8 133e
00000130: 85e9 00be a02d 96bc e573 d6bd e3f0 013d
00000140: ad5a a7bd f33c b1bc 5fe4 4a3d a954 aebd
00000150: 5dcc f93b 5513 06be 3e63 973e 6cdd 0b3a
00000160: f673 0b3e dd10 14be 0bed 7ebd f9cd 4f3d
00000170: f0b1 803d 03bc 603c c662 1d3e 3cdb 083d
00000180: bf89 693d 7dd8 2f3d ee59 d83d 4ef7 5abb
00000190: 45da a43d 7694 b3bc b303 bd3d c04e 713d
000001a0: 5182 ab3c 4432 4f3d 5c0f 0abe 098e d1bd
000001b0: 411a 7fbd 15d4 963c 97a8 0bbe 2003 2a3e
000001c0: e9e9 143d f1eb 0b3e ef3b 853d 7b8e 38be
000001d0: 06f8 38bd bde7 d53d 962c 1dbd ccfc b3bc
000001e0: b2f6 ff3d c5b5 31be 2359 4bbd c5b3 013e
000001f0: 500d a83d 5dd5 c6bd 61a1 a3bc 000b 39be
00000200: 283a c8bc 3b6f 83be 2860 2fbe 4f07 43be
00000210: e9be ba3c 7bff 563c 8eb6 7f3e 2a30 c73b
00000220: af1d ef3d 2756 09bd 81d4 443d b90f 313e
00000230: 20a8 67bd ecbe 10be 079d c73d 0c0f 08be
00000240: e477 b93d 1010 673e 5d68 a53e d5c1 503d
00000250: 8978 803e 47ca 113d 2e52 323e 7fc0 45be
00000260: b356 9eba 8804 9bbe fa92 813d 1116 82bd
00000270: 7d0f cbbd fd56 673e 700a 853e 4087 2ebe
00000280: 3113 6b3e f502 e6bd 2827 cdbd 5b84 49be
00000290: 2510 593d 5f11 873d 9a68 a43c f77c e83c
000002a0: ff2e 58bd 8635 963c f5ed 7bbe d8da e03d
000002b0: 1d48 3ebd 3c3c a83d aadd 08be f9e9 613e
000002c0: ddcf 36bb e4fe fd3d 30bd 28bd 6fbb 34bd
000002d0: dc62 5cbe 6e6a d2bd eb8a 803d 90e0 a3bc
000002e0: 0e5e 15be dc02 8cbe 0d8b 1a3e 8c64 0ebe
000002f0: 8e35 89be c60a d73d 732f 6e3d ce97 8f3b
00000300: 07af b23d 5293 46be 2b98 70bd e807 d43c
00000310: 408a 18bd aac0 0abd b5f7 30be bc95 a5bd
00000320: 7210 6cbd c544 88bd 4157 28be b50c 17bc
00000330: af53 933c 765c 73be fb11 aabe dad2 d73c
00000340: 886c 92bd a4c0 9c3c 3db0 293e e1f9 883d
00000350: e969 f53d 0280 503e b089 ec3d 9058 473d
00000360: 7e40 68be c2ab de3d 5ecc e3bc cb01 4cbd
00000370: 085b bdbe cb29 273d 5f8d 90be cf1b 9fbe
00000380: 0fcc e5bd f72b e7bd 056f b5bd b0cc 36be
00000390: 4f5d 8e3e fcde fabc 9ec9 2cbd bc93 4ebe
000003a0: 8395 ea3d 43e1 983b 8ed0 d23d 2e19 e1bc
000003b0: 8d48 8e3e cb6e 5e3e 0efc cabc bf6b 5dbe
000003c0: 9090 dc3d f6d1 2e3d ce93 6dbd 92a8 e2bd
000003d0: 0322 b3bd 8e09 573e e14b 78be aba1 83bd
000003e0: d132 ebbd d578 29be 4677 1bbe 7e1c 1ebd
000003f0: 144b 56be b87a 6abe ab90 2abd 7692 90bd
-0.05918333 -0.16770142 -0.1897868 -0.09945401 0.114689276 -0.028573232 0.041618366 -0.13517746
0.05933565 -0.06239435 -0.08953599 0.26547083 0.0825863 -0.18042313 -0.049423873 -0.16588102
-0.1579128 0.061305795 0.1431454 0.13640958 0.27836925 0.0515524 0.22496523 -0.17981753
-0.13390127 -0.045072533 -0.113822095 -0.026037296 -0.024013648 0.11880638 -0.01257033 -0.20079517
0.16410705 -0.22933733 -0.3229768 -0.3436876 0.10080877 -0.17426814 0.09455314 -0.080552794
0.20436274 -0.022737332 0.078572325 0.16963579 0.24520837 0.16452314 -0.27310288 0.05471934
0.16958743 0.24426052 0.04412251 0.04669762 -0.0181768 0.11558707 -0.06394048 -0.058720317
-0.092391446 -0.098325014 0.082036816 -0.084686585 -0.0516329 -0.18184504 0.032956094 -0.1881214
0.09525234 -0.072514564 -0.06776964 -0.23514442 0.10453761 0.085069515 -0.020746492 -0.1641958
0.18190813 -0.029944878 -0.109259404 0.1442571 -0.1258908 -0.018332303 -0.10471324 0.031723868
-0.08171592 -0.021635508 0.049534198 -0.085122414 0.007623239 -0.13093312 0.29567903 0.00053354236
0.13618454 -0.14459558 -0.06223778 0.05073354 0.06283939 0.0137167005 0.1536971 0.033412203
0.05701613 0.04293107 0.10564028 -0.0033411565 0.08049444 -0.021921378 0.09229221 0.058912992
0.020936163 0.050585046 -0.13482422 -0.10232169 -0.062280897 0.018411675 -0.1363853 0.16602755
0.036355887 0.13664223 0.06505572 -0.18023102 -0.04515841 0.10444591 -0.0383726 -0.021971129
0.12498225 -0.17354496 -0.049645554 0.12666233 0.08205664 -0.097086646 -0.019974412 -0.18070602
-0.024441794 -0.256708 -0.17126524 -0.19045757 0.022796111 0.013122435 0.24971983 0.0060787397
0.116755836 -0.033529427 0.048054222 0.17291154 -0.05655682 -0.14135331 0.097467475 -0.1328699
0.090560704 0.22564721 0.32306185 0.050966103 0.2509196 0.035593297 0.17414162 -0.19311713
-0.0012080282 -0.30276895 0.06326862 -0.06351865 -0.099150635 0.22591777 0.25984526 -0.17043781
0.2295654 -0.11231033 -0.10017234 -0.19679396 0.052993912 0.0659511 0.02006941 0.0283799
-0.052779194 0.018336069 -0.24602492 0.10979241 -0.04645549 0.08214614 -0.13365808 0.2206191
-0.0027894892 0.12402132 -0.04119605 -0.044124063 -0.21522087 -0.10274206 0.062764965 -0.02000454
-0.1458666 -0.27345932 0.15092106 -0.13905543 -0.2679867 0.10500102 0.05815072 0.00438211
0.0872479 -0.19392136 -0.05873887 0.025882676 -0.03724122 -0.033875145 -0.17281993 -0.080852
-0.05763287 -0.06653742 -0.16439535 -0.009219338 0.01798424 -0.2376574 -0.33216843 0.026345659
-0.07149607 0.019134827 0.16571136 0.066882856 0.119830914 0.20361331 0.11549699 0.048668444
-0.22680852 0.10872604 -0.02780741 -0.049806397 -0.36983514 0.04081134 -0.28232858 -0.31075904
-0.11220562 -0.112876825 -0.08859066 -0.1785152 0.27805564 -0.030623905 -0.042184465 -0.20173544
0.11454298 0.004665525 0.10293685 -0.027477827 0.27789727 0.21721952 -0.024778392 -0.21623133
0.107697606 0.042680703 -0.058002286 -0.110673085 -0.087467216 0.20999739 -0.24247696 -0.0642732
-0.11484302 -0.1655 -0.15182218 -0.03860139 -0.20927078 -0.22898376 -0.041641872 -0.07059185

onnx::LSTM_184 f4 [1, 512]
00000000: f850 e73d 91c1 073d d647 233e d802 563e
00000010: edd1 973d 5be1 043e 08ae 873e c2d7 553e
00000020: 541e c53e 8c4a e43e 6fae 583e 073b 3c3e
00000030: 9b73 473e 4b85 a93d ae12 4a3e 1ff8 843e
00000040: b61a 823e c156 193e 3b5b c93e 22e1 64bd
00000050: db57 383e 9266 2b3e 8771 783e 73fb 393e
00000060: 74b6 dc3e ca23 423c 6b05 5b3e c5c5 983d
00000070: 596a a23d f74e 193e 1522 993e 2d94 683e
00000080: d4b1 f13e aad1 8abd 1a41 623e 6c32 1b3e
00000090: aa16 1dbd a17e e83d df17 ad3e d8d5 98bc
000000a0: 2daf 953d a333 37bd df82 a33e 2367 4c3c
000000b0: c27a 30bd 86a7 0d3e 1106 a7bb cd8f d83d
000000c0: a368 a3bd 5fcb 463e e2b9 293e db4a 763e
000000d0: f03f 1c3e 058b 303e e1b5 123e e7e7 c7bc
000000e0: aeb8 0a3e 6789 e93d 0d68 663e dcfd 873c
000000f0: b120 243e 45e7 053e c5b8 1f3e 1305 553e
00000100: 2fcc 1f3e fad4 0c3e 68fa 1d3d 7ee1 163c
00000110: 3e43 0abd c21e 29bb 5e87 613e 17fe 463d
00000120: 2055 bc3e c612 813e 2e99 62bd aa9e 9ebd
00000130: 79e4 753e d498 a93d 0142 703e e4b6 c23e
00000140: ae72 993e 6229 29bd 1ae2 4a3e c228 783d
00000150: 063b 4c3e 9d46 573e 2efd 3b3e 0466 41bd
00000160: d547 e23e 0975 65bd 1b09 803e c343 ea3d
00000170: 8c80 9a3d 4049 89bc 5b16 f53e 569a 213e
00000180: 1c47 a53e 94ae b6bd 84e1 913e cbc5 023d
00000190: 13c9 323e 0654 453e 150d 923e 4b09 cc3d
000001a0: d620 d1bd 2b54 133e 544c bd3e 9712 3e3c
000001b0: 77ef f73c a92b 663e 4d82 a6bc 4ce2 cebc
000001c0: e1f0 e83d f77f b33d 2cc4 e8bc b852 4e3e
000001d0: fb2e c4bd 21cc 193e 9597 d93d 4539 dbbc
000001e0: b5fd af3d 224a 813d 189f 8a3e e36b 353e
000001f0: ac6c 1e3e 82c5 9cbd 3d31 0e3d 912b 773d
00000200: ca70 203d b7fe c83d 717a 3dbe 17c5 00bd
00000210: d6ab ec3c 25a5 96bd 6101 1ebe c948 cabd
00000220: b613 9fbb 437f d0bd ea6a 5abd 4336 3a3e
00000230: 5ede d5bd 90ed 4f3e 845c 82bd 3863 c6bd
00000240: 1246 5fbe cc99 0b3e 0274 e6bd e099 463d
00000250: 4dda 93bd ae4b 59be 6221 27be d7ba 2e3e
00000260: badb 8cbe 2429 dcbd 76c7 fabd 5e22 da3d
00000270: 7cca 8a3d cfae fc3d 10ea 98be 9421 043e
00000280: dcc2 53be ee85 483d 2770 cd3c 9fd0 ccbb
00000290: f5b5 473d 59f3 8bbd c8af 01be 93dc fd3c
000002a0: 8869 083e 9b80 393d e8f4 76be db31 043e
000002b0: 5765 343d c0cd c03b f2bb 133c d6f0 60bc
000002c0: 2b71 943d 334a 2e3e 2c73 3cbe 8b86 473d
000002d0: 29d1 bebd 6a86 2bbe cb4c 893d fd01 f3bc
000002e0: 3570 dfbd f69b a43d 91f0 0fbe 4413 94bd
000002f0: 6be7 2abe 384f 0bbe d65a 173d b341 8abd
00000300: 3a74 703d 3b8a 06bd 4dbb bbbd 5275 85bc
00000310: c0cf 083e 9070 153d ee28 06be 9c07 3bbe
00000320: bb1f 2c3b 9968 2d3d 7e8b 96bc fabe 383e
00000330: 4c16 95bd 0210 51be 32c3 10bd 9b6b d2bd
00000340: 6785 91bd 8b97 853d 93ce 853d 39e2 fc3c
00000350: be5a 99bd 5862 e53b b4e8 ccbc 1dc1 e03c
00000360: 05c3 b13d 5a63 c6bd 5969 ed3d 141e b5bd
00000370: 6be1 603c f80c df3c 74cb 053b 8092 643d
00000380: 73b7 563d a0da 9ebd 29ac 7fbd a839 a23d
00000390: c256 d1bc 47e8 e8bd ad05 673d 6e73 e93d
000003a0: b946 0c3e 211c 1ebd 9c0a 473d 4c49 5a3d
000003b0: 4b6e 33bc a032 063e d399 9dbd 82df 9abc
000003c0: 1dd8 fdbc aea8 313e 248e c53d de3f 29be
000003d0: d1cc 973c 9f17 5d3c a098 15be 7a8a 17bb
000003e0: a192 82bb faab 09be 1aa9 bb3d ff5f c6bd
000003f0: 1e06 763d 8933 72bd 4ae4 d13d dcaf b0bc
0.112947404 0.033143584 0.15945372 0.20899522 0.07413087 0.12976591 0.26499963 0.20883086
0.384997 0.44588125 0.21160291 0.18381892 0.19477694 0.08277377 0.19733688 0.2597055
0.25411004 0.149745 0.39327416 -0.055878766 0.18002264 0.16738346 0.24262057 0.18162327
0.4310795 0.011849353 0.21388786 0.074595965 0.079304405 0.14971529 0.29908815 0.22712775
0.47205985 -0.067782715 0.22095147 0.15155953 -0.038351692 0.113522775 0.33807275 -0.018656656
0.07308803 -0.04472698 0.31935784 0.012475762 -0.04308582 0.13833436 -0.0050971587 0.10574303
-0.07978942 0.19413517 0.16574815 0.24051993 0.15258765 0.17240532 0.14327194 -0.024402572
0.13547012 0.114031605 0.2250063 0.016600542 0.16028096 0.13076504 0.15597828 0.20802717
0.15605234 0.13753119 0.038568884 0.009209035 -0.033755533 -0.0025805687 0.22024295 0.048582163
0.36783695 0.25209635 -0.055321865 -0.077451065 0.24012937 0.08281103 0.23462678 0.3803016
0.29970306 -0.04129923 0.19812813 0.060585745 0.1994439 0.2102303 0.18358299 -0.04721643
0.44195428 -0.056019817 0.25006947 0.11438706 0.075440496 -0.016758561 0.47868618 0.1578153
0.32280815 -0.08920017 0.28492367 0.03192691 0.17459516 0.19270334 0.28525606 0.0996271
-0.10211341 0.14387576 0.36972296 0.011601112 0.030265553 0.22477593 -0.020325804 -0.025254391
0.11374069 0.08764642 -0.028413855 0.20148742 -0.09579273 0.15019275 0.10624615 -0.026760707
0.08593313 0.06312968 0.27074504 0.17716937 0.15471143 -0.07654859 0.034714926 0.060344283
0.039170064 0.09814208 -0.18503739 -0.03143796 0.028890532 -0.073557176 -0.15430214 -0.09877164
-0.0048546446 -0.10180523 -0.053324617 0.18184762 -0.10442804 0.20305467 -0.06365302 -0.09686893
-0.21804073 0.13632888 -0.112525955 0.04848659 -0.07219372 -0.21220276 -0.16321328 0.17063461
-0.27511388 -0.107500345 -0.122450754 0.10651086 0.06776902 0.123380296 -0.29866076 0.12903434
-0.20679802 0.04895585 0.025077892 -0.0062504555 0.048757512 -0.06833524 -0.12664711 0.030988967
0.13321507 0.045288663 -0.24116862 0.12909643 0.044041958 0.0058839023 0.009016978 -0.013729295
0.072481476 0.17020492 -0.1840331 0.048712295 -0.09317238 -0.16750494 0.067041 -0.029664034
-0.10910074 0.0803756 -0.14056613 -0.07230237 -0.16689841 -0.13604438 0.036951862 -0.067508124
0.058704592 -0.03284667 -0.09166584 -0.016291294 0.133605 0.0364843 -0.13101551 -0.18264621
0.002626403 0.04233608 -0.018377062 0.18041602 -0.072796434 -0.20416263 -0.035342403 -0.1027443
-0.071055226 0.06523045 0.065335415 0.03086959 -0.07488011 0.007000249 -0.025013305 0.027435834
0.08679775 -0.096869186 0.11592359 -0.088436276 0.013725619 0.027227864 0.0020415457 0.055803776
0.052421045 -0.07756543 -0.062420044 0.07921153 -0.025554065 -0.113724284 0.056401897 0.113989696
0.13698854 -0.038601045 0.048594102 0.053292558 -0.010951589 0.1310525 -0.07695355 -0.018905405
-0.03098684 0.17349502 0.09646252 -0.1652827 0.018530281 0.013494401 -0.14609003 -0.002312331
-0.0039847647 -0.1344451 0.09163113 -0.096862786 0.060064428 -0.05913118 0.10248621 -0.021568231

onnx::LSTM_202 f4 [1, 256, 64]
00000000: aaf6 de3e e076 87bc 333a 223e 949e 89bd
00000010: 5664 4e3e 11c1 be3d ec94 03be 9320 94be
00000020: 05eb ca3c 1886 e9bd 2cb6 74be fdb0 ef3d
00000030: 1fb9 24be eaec 533c 024a 0b3d fc7e 9b3e
00000040: 7c14 29be edb5 b4bc e3ce 993d 562f 0ebb
00000050: 13c1 48be 45fc efbd feba ebbc 6e7d 39be
00000060: 5736 b2bd 3d89 bebd 4572 283e 15db 4dbd
00000070: c3fa c83c 3935 78bc 7db0 42be 661c 5b3d
00000080: b817 203d f4d3 863d adf2 973e e40c 603d
00000090: d169 d93d 4f39 77be 34fe f63d a394 9c3d
000000a0: c1f8 3c3d 319a 193d 2198 f83d b32e 0cbd
000000b0: eade 99bd f628 693e 040e f3bd 898c 9c3d
000000c0: 0fb1 663e e3a2 213e dd73 81bb e4a2 30be
000000d0: a0eb 273d 5f41 2ebe 8938 8e3d 09c7 6c3d
000000e0: ba4e 42be 7961 4dbe 2310 a23c 2433 63be
000000f0: 8495 3dbd 7e5c 6e3c ae1e 0e3e bd84 7c3d
00000100: c58f 103e 9361 1ebd 7eec 9dbd e9e6 72bd
00000110: 172e 423e bd1f bdbd 7c84 ae3d fb66 6bbd
00000120: 040d 42bd f522 8bbd 82d1 dbbd 16bc 423d
00000130: 5620 79be c3c7 f5bd c37c 2d3d 4752 523b
00000140: 4acf 4cbc d711 563e ad99 4bbe de17 6c3d
00000150: 9c8f e0bc 7ca2 e2bd fa14 90bd afd4 43be
00000160: 8e06 663d 9c30 253d 3781 ba3c f469 51bd
00000170: 0397 b7bd f5af 6d3d 01f6 c6bc d70e 833d
00000180: bf2c ac3d 9ad6 f3bd dc6b 363c 1b84 3cbe
00000190: d4ba c73c 5c7a 22be 57d2 7d3e b84c 293b
000001a0: 4038 e33d 8728 cb3d 3b94 0dbe 14f6 47bd
000001b0: 9a76 0b3d 83b0 623e db16 453c 9f70 03be
000001c0: 7e7f bf3e de5a 163e 2c42 993e 191b 73be
000001d0: 6a77 903d de14 073e e222 32be 616c 123d
000001e0: 5aee 423e 2c7d 5cbd 0302 303d 7443 803c
000001f0: 5270 bfbd f4d2 893b 4423 c23d 9f80 86be
00000200: c143 a23d e7ba 233d 1ca4 b73d ef10 2d3c
00000210: bcb4 d73d 55a0 a8bd fc39 85be cae1 59be
00000220: 6679 72be 58ae 70be 65ea 96be 807b d13c
00000230: afe9 4d3e 8231 2fbe 54a7 69bd 0126 643e
00000240: 1f14 7fbe 5b27 2b3e 4c8c 0e3e d217 123e
00000250: c881 71be 3c76 413e 8cac 35bc b2dc a8bd
00000260: 7e58 b5be e3bc 043e 36eb acbd 831c 08be
00000270: 9418 96be 1208 3d3e 026b e7be a797 89be
00000280: d3d2 afbe 4481 04be 2bc3 12be 8ebf 69bd
00000290: 57ef d53d c8ed 7d3d 2f9f 79be 2cb2 6cbd
000002a0: d131 bb3d 4a0b 1dbe 9b2c ae3e ab11 303d
000002b0: 6e52 0a3d 34f9 0f3d cc40 2dbe d7b5 39be
000002c0: 96cf c53d c405 4a3d a9bc 07bb 1e86 7cbe
000002d0: 5062 b2bd 33ef 0b3e 5da4 84bd 5d02 45bd
000002e0: 7aac ad39 de96 41bd bbc2 edbd ec4c 5cbd
000002f0: 4d5f 2bbe 8538 03be 12a3 bd3d 8e92 3c3e
00000300: 6b4f babc 0a37 a53d eb63 97bd d3a2 96bd
00000310: a0b6 053e 5b49 233d 8f84 603d 0fa1 8e3d
00000320: 611a 333d 3547 203d fc6d f23d 682e c03d
00000330: 1565 843c c3ca fdbd e091 e1bd 42d9 f8bd
00000340: 8306 ed3d a689 8fbd 968f 293e cf76 9f3c
00000350: 03fc 18bd 7c5e 5c3e 5fa2 87bd d956 3a3d
00000360: cc26 a43d 541a 653c 4902 97bd b45b c33d
00000370: 7e92 a1bd f8ea 44bd 2da8 183d 8a63 a6bd
00000380: f561 953d 7139 a2bc 4ad4 06bd 1763 d23d
00000390: 755b cfbc 7ac4 e03d cff8 20bd 9eee dd3d
000003a0: 3c84 0d3d 02a1 cbbc 7217 fe3d 81c0 5c3d
000003b0: 037a a33c 5389 aa3d 711d 01be 849c 103e
000003c0: 5866 55bd dad4 803d 7d5e d93d a989 b43c
000003d0: c996 1fbe b01e 7c3e 896a 523c 7c7a 113d
000003e0: 0e6c 30bb 459e a8bd e2a7 f4bd c0b5 3c3e
000003f0: 68f8 06be fc27 3abd 99f8 88bd 435b bebc
0.43547565 -0.016536176 0.15842514 -0.067196995 0.20155463 0.09314168 -0.12849778 -0.28931102
0.02477027 -0.114025295 -0.23897618 0.1170368 -0.16086243 0.012934903 0.034006126 0.3037032
-0.1651172 -0.022059405 0.07510164 -0.0021695695 -0.19604902 -0.117180385 -0.028775688 -0.18114254
-0.08701771 -0.0930352 0.1644984 -0.05025776 0.024533635 -0.015149408 -0.19012637 0.05349388
0.03908512 0.065833956 0.29677334 0.054699793 0.10615886 -0.24142955 0.12060204 0.07645538
0.046135668 0.037500564 0.12138391 -0.034224223 -0.075132206 0.22769532 -0.11867908 0.076439925
0.2252848 0.15784793 -0.0039505796 -0.17249638 0.040996194 -0.17017125 0.06944377 0.057807002
-0.18975344 -0.20056714 0.019783085 -0.22187477 -0.046285167 0.014548419 0.13878891 0.061650027
0.14117344 -0.038667273 -0.07711123 -0.059302244 0.18962894 -0.09234569 0.08521363 -0.057471257
-0.047375694 -0.06793777 -0.1073332 0.047542654 -0.24328741 -0.12000992 0.04235531 0.0032092498
-0.012500593 0.20905243 -0.19882841 0.05763995 -0.027412228 -0.11066148 -0.07035251 -0.19124101
0.056158595 0.04032956 0.022766693 -0.051126435 -0.0896435 0.058029134 -0.024287226 0.06399315
0.08406972 -0.119061664 0.011134114 -0.18409769 0.024381079 -0.15866989 0.2478727 0.0025833081
0.11094713 0.09919839 -0.13826077 -0.048818663 0.034048654 0.22137646 0.012029375 -0.1283593
0.37401956 0.146831 0.29933298 -0.23740806 0.070540264 0.13191554 -0.17396119 0.03574789
0.19036236 -0.05383031 0.04297067 0.015657164 -0.09347595 0.004206056 0.09479383 -0.26270005
0.07923079 0.039973166 0.08966848 0.010563119 0.10532519 -0.08233706 -0.260208 -0.21277538
-0.23679122 -0.23504007 -0.29475704 0.025571585 0.20108674 -0.1710873 -0.057044342 0.22280122
-0.2491002 0.16714232 0.13920707 0.14266899 -0.23584664 0.18892759 -0.011088502 -0.08245219
-0.35419077 0.1296268 -0.084433004 -0.13292126 -0.29315627 0.1846011 -0.45198828 -0.26873514
-0.34340534 -0.12939936 -0.14332263 -0.057067446 0.10446041 0.061994344 -0.2437713 -0.057787105
0.09140361 -0.15336338 0.34018406 0.0429856 0.033770017 0.035149768 -0.1691925 -0.18135773
0.096587345 0.049321905 -0.0020711815 -0.24660537 -0.08710158 0.13665466 -0.06476662 -0.048097957
0.00033125636 -0.04726302 -0.116094075 -0.053784296 -0.16735573 -0.12814529 0.09259619 0.18415281
-0.022742948 0.080671385 -0.07392105 -0.07355275 0.13057947 0.03986488 0.054813918 0.06964313
0.04372633 0.03913041 0.11837384 0.09383851 0.01616148 -0.12392189 -0.110141516 -0.12150814
0.11573508 -0.07008676 0.1655868 0.019465832 -0.037349712 0.21520418 -0.06622767 0.04549298
0.080152124 0.013983328 -0.07373483 0.09538975 -0.07889269 -0.048075646 0.03726976 -0.08124454
0.072940744 -0.01980278 -0.0329173 0.10272806 -0.025312165 0.10974975 -0.039299782 0.10836528
0.034549937 -0.024857048 0.124068156 0.053894524 0.01995564 0.08326974 -0.12608887 0.14122206
-0.052099556 0.06290598 0.10613725 0.022038298 -0.15584864 0.24621081 0.012842783 0.0355172
-0.0026919874 -0.082333125 -0.119460836 0.18428707 -0.13180697 -0.04544829 -0.06688041 -0.023236876

onnx::LSTM_203 f4 [1, 256, 64]
00000000: f77f 143e 1f79 36be f336 1d3e 1096 b9bd
00000010: c24b 6cbd 5d7b 38be fc6b 363b 593e 68bc
00000020: 38b6 13bd 006e 7a3e 31ff 0a3e bec2 fa3d
00000030: ece5 b1bd 28a5 2ebe 6ba9 0ebe 8af7 48be
00000040: 8569 78bd eb0d b23d ded3 b6bd 4664 a13d
00000050: d9d5 d8bd c95a 483e 19cc d3bc 8f46 f9bd
00000060: 48f6 d33c d723 343e cef6 223d cbee 57bd
00000070: 0c68 bb3c 80a7 9d3d c9ec 17be 56d8 27bc
00000080: b258 b53d dc03 13bc c1db 9f3d 7005 a33d
00000090: 584c 1abe 0444 75bc c853 573d 8a01 123e
000000a0: f8c5 05be 1156 47be 3d15 a33d ed91 313e
000000b0: 9188 d33c 1a5e 043e b322 12bd e75b 1dbe
000000c0: 0169 5b3e c6ec 9cbd 3fe1 adbd 1d96 df3d
000000d0: f5f9 2abe 1711 16bd a6b8 fbbc 76e5 0ebe
000000e0: 0feb 33bd 315b b63d e28a 373e 2fcb a8bd
000000f0: 2b0d 6f3c 67d2 d93d eeb2 50bd 4929 803d
00000100: a54f 4f3e 9f01 1cbe 8f14 aa3e e79d 14be
00000110: 1893 8137 2510 eebd c5c8 83bd 8509 4d3d
00000120: 402f 733d 25d9 d73d 1c9b 123e 6771 8a3e
00000130: 38b4 dc3d ab7f 1dbe 798b 8d3d ca1a f83c
00000140: 4dff 85ba 2149 163e bb84 74be e5c9 863d
00000150: ac7e 033d b2b8 c13d 46a8 3bbd 998f 19be
00000160: 10ca b0bb d897 a63e 28f3 0d3e 0dbe e1bd
00000170: bf10 1cbe 1afd 553a e4dd 6c3d fba0 b9be
00000180: 14ff d13d c57e c8bc 1f29 633d 2921 5d3e
00000190: 41b2 babd 1a54 ecbd fc3a b43e 9d7a 413e
000001a0: 5a24 0e3e be5b 9a3c 47a6 1f3e 9683 423e
000001b0: c867 363e b069 913d 6882 9ebd 543d 26be
000001c0: aac3 cf3d 8e2b 38bd e8cf 933d edea 843e
000001d0: a9ed 7abc a067 8e3e 30c8 663e 12ca 7abd
000001e0: 5dd1 a83c df38 65bd 4abc cc3d fa5b d63c
000001f0: eac1 2a3e 7b41 313e f91b 66be 47d5 823e
00000200: 9762 d4bc beec ef3d 3590 ddbc 7985 843d
00000210: 8cad aebc 143a ee3d 5361 a9bd 3b22 69bd
00000220: d5ec f4bc f96c 983c 37a3 323e 8e33 90bc
00000230: 5acf d5bd e9b6 6ebe d852 15be f6ea 1dbe
00000240: fc0b 5c3e 3788 e83d 3c10 9c3c 8c73 073e
00000250: 36a6 1f3d 8bc5 30bd 2b19 3b3e b51a 41be
00000260: a3d9 03be 38ff ef3d 4769 0e3b b4c1 36bd
00000270: 1e30 1dbe ab70 263e cf6c 16be d138 09be
00000280: 4749 033d c5ec 543e 90a0 2d3e b7e8 853d
00000290: 97b8 86bd 3694 3c3e 2fd2 d8bc 2a26 83bd
000002a0: 5961 d83d 192e 26be 282e 913e ac7b d7bd
000002b0: 6d35 d13d 08bb cabd cc3e 6abe d1a8 86bd
000002c0: 6c7c 703d 52a9 4b3e 4e46 333b 377c abbd
000002d0: e692 a1bc 2631 693e 26b6 1a3e 708c dabd
000002e0: 4c8a a6ba 389e 05be d228 3fbe bf9f b53c
000002f0: 606a 373d 8cf2 26be 6ec9 f63d 6442 43bd
00000300: 85e5 bd3b b8f9 f53c b6c1 c1bd 76bc d83d
00000310: 6ed5 333e e646 8b3d 6f92 0cbe 87f9 973d
00000320: 34d6 353e 1990 e93d bb2f cebd eb3b ffbd
00000330: 466b 70bd 80b9 2fbe ecb0 66be 63a2 15be
00000340: 6676 333c 2097 dd3d 0107 af3d cd8b 11bd
00000350: 0748 2bbd 4542 2a3e 8215 5abd 7ae1 92bd
00000360: 7da2 f23d 93cd 13bd 0036 193c 883f 0dbe
00000370: fbd4 663d 1628 a4bd 7253 973d ed38 54bd
00000380: 6667 9f3d 47ef 393e ce51 90be 4ce3 20be
00000390: 8292 58bc e5ff dbbd 006b 283e 6af2 3cbe
000003a0: 0375 a53d a289 753d 6561 efbd 9bad 1fbd
000003b0: e462 cf3c e449 bd3d 376b 97bc 169e 2abc
000003c0: f8e5 693d eb2b 46bd 17cf 83bd 2965 56bd
000003d0: 00d1 8a3d 4287 3bbd 0b35 e53d 0c86 24bd
000003e0: 2a55 be3d d6f1 c93c 34ff 303c 30ea 4c3e
000003f0: 9bf8 adbd 5dbf 893d 02a2 843d 1150 9e3d
0.1450194 -0.17819642 0.15352993 -0.09061825 -0.057689436 -0.1801581 0.002783536 -0.014175021
-0.03606245 0.24456024 0.1357391 0.122441754 -0.08686432 -0.1705519 -0.13931815 -0.19625679
-0.060647506 0.08694061 -0.08927129 0.07880454 -0.10587663 0.19565882 -0.025854157 -0.12171661
0.025874272 0.17591797 0.039786153 -0.052717965 0.022876762 0.07697964 -0.1483642 -0.01024445
0.08854808 -0.008973088 0.078055866 0.079600215 -0.15068185 -0.0149698295 0.052570134 0.142584
-0.130638 -0.19466425 0.07963035 0.17340823 0.025821956 0.12926522 -0.035677623 -0.15367089
0.21426775 -0.076623484 -0.08490228 0.10917304 -0.16696914 -0.036637392 -0.030727696 -0.1395472
-0.04392534 0.08904112 0.17924073 -0.08241879 0.014590542 0.10635834 -0.05095189 0.062578745
0.20245226 -0.15234993 0.3321881 -0.1451336 1.5446494e-05 -0.11624173 -0.06434778 0.050057907
0.059371233 0.10539464 0.14316982 0.27039644 0.107765615 -0.15380733 0.06911368 0.030286212
-0.001022318 0.14676334 -0.23878758 0.06581477 0.032103226 0.09459056 -0.045814775 -0.14996184
-0.0053951815 0.32537723 0.13862288 -0.110225774 -0.15240763 0.000816302 0.0578288 -0.3625563
0.102537304 -0.02447451 0.055459138 0.21594681 -0.091160305 -0.115394786 0.35201252 0.1889443
0.13881055 0.018842574 0.15590774 0.18995509 0.17813027 0.071002364 -0.07739717 -0.16234332
0.10144742 -0.044963412 0.07217389 0.25960484 -0.015315452 0.27813435 0.22537303 -0.061227866
0.020607645 -0.05596244 0.09996851 0.026166905 0.16675535 0.17310135 -0.22471608 0.25553343
-0.025925918 0.11715077 -0.027046302 0.064707704 -0.021322988 0.11632171 -0.08270516 -0.05691741
-0.029898087 0.01860665 0.17445074 -0.017602708 -0.1043994 -0.23311962 -0.14582384 -0.15421662
0.21488947 0.11354106 0.01905071 0.13227671 0.03897687 -0.04315714 0.1827132 -0.18857844
-0.1287599 0.11718601 0.002173023 -0.044618323 -0.15350387 0.16253917 -0.14689945 -0.1340058
0.032052305 0.20793445 0.16955781 0.065385275 -0.065781765 0.18415913 -0.02646741 -0.064037636
0.105654426 -0.16228522 0.28355527 -0.105216354 0.10215268 -0.09898955 -0.22875518 -0.06575168
0.058712408 0.1988881 0.0027355137 -0.083733015 -0.019723367 0.22772655 0.15108547 -0.106713176
-0.0012706011 -0.13048637 -0.18667915 0.0221709 0.04477918 -0.16303462 0.120501384 -0.047670737
0.005795183 0.030026302 -0.094607756 0.10582821 0.17561886 0.06800632 -0.13727735 0.074206404
0.17757493 0.114044376 -0.100676976 -0.124626 -0.058696054 -0.17160606 -0.22528428 -0.14612727
0.010953521 0.108198404 0.08546258 -0.035533715 -0.041816738 0.16626842 -0.053243168 -0.071719125
0.118473984 -0.036084723 0.0093512535 -0.13793766 0.056355458 -0.08015458 0.07388963 -0.0518121
0.077833936 0.18157683 -0.28187412 -0.15711707 -0.013218524 -0.107421674 0.16447067 -0.18451849
0.08078959 0.05994571 -0.116884984 -0.038983922 0.02531571 0.09242609 -0.018483741 -0.010413667
0.05710408 -0.048381727 -0.06435984 -0.052342568 0.06778145 -0.04578329 0.11191758 -0.0401669
0.092935875 0.02465145 0.010803033 0.2001121 -0.08494683 0.06725953 0.06476213 0.07730115

onnx::LSTM_204 f4 [1, 512]
00000000: a14a 373e f605 173e 56ec fd3d 970b c13d
00000010: 5d51 f43d cbbc 623c f4c8 713d 1401 583d
00000020: 1687 9d3d 4c4b 383e ac4e af3d 3a81 033e
00000030: f9ba f83c 1c03 4c3e f5d5 ad3d bc79 dc3d
00000040: 6e66 bc3d 3513 7f3d 328a 523e 0270 403e
00000050: bbc5 043e 164a c23d b551 bc3c a404 0e3e
00000060: c112 8fbd e71c 15bc 1ef1 9c3c 8b4a 053e
00000070: f9b2 3abd 0d2b 2d3c 681b b7bd 00dc 963e
00000080: bdd0 d03d 26e0 6a3e 3fea 973b bde0 cbbd
00000090: 897e 0f3e a40f 2cbc 6163 533e af0e e6bc
000000a0: 1279 be3b 60dd 813e a9c5 b43d 37eb 083e
000000b0: a31e 123e b27e 2a3e 4d31 2b3e b204 483e
000000c0: df7a b83d 4767 bf3d f733 d03e 5475 f73d
000000d0: 926d ac3e be42 4bbc cc5e 713e b441 ca3d
000000e0: 08d7 f8bd f1d9 e83d a3f3 353d 66c4 233e
000000f0: 68d7 633c 0b26 4e3e 2162 cc3d 59c6 1dbd
00000100: a9fc 143e 964e 423d d23b 383e a06f 2a3d
00000110: 99ad 563d a359 b5bd de56 133e 4708 6dbd
00000120: 1287 a63c 4c00 2d3d 1638 923c 9e61 8b3d
00000130: 80ca 643e 4fb5 733a c2e4 193e ad89 b33c
00000140: 3c31 643e 7214 463e 4e65 5e3e 20d5 fd3d
00000150: 6598 01bd 930e eebd 8d4b 3fbd 437c 1b3d
00000160: e8cd fabd bc71 84bd 1bba 4a3c 7145 ce3b
00000170: 57d8 38bd 041e bdbd 9f04 1c3e 6a07 c83d
00000180: 4814 a23d 6061 f63d caca c03d eb37 bc3d
00000190: ec11 c63d eb1e b6bc 7588 493e 6bf6 06be
000001a0: 074c 95bc fff1 d83c ffd1 ed3c 6871 bdbb
000001b0: 4e76 1fbd df13 8e3c 0d89 b73d 05e3 88bb
000001c0: 7839 503d 589f bfbc c241 963e d63d d9b9
000001d0: a14f 2e3e 7c18 103d 5963 153e 5295 453e
000001e0: 2a9b 81bd 1339 fa3d 5fed 4c3e 56a0 103e
000001f0: 3edc d73d a27f 3e3e f85e f53d 0a9f cfbd
00000200: 5eb0 07be 28f5 87be 9993 07be cbea e5bb
00000210: 327f 913d e473 bdbc 0570 87bb 277a d9bd
00000220: af42 35be 0fed 03bc 89aa 223d cf56 383b
00000230: b53d 51be 91bb 1fbd 8eb4 6ebe b6f2 bcbd
00000240: 8b77 293d ea21 a83d 2c58 0dbe 91e0 4cbe
00000250: 958b 3fbe 115f 743c 2ddd 3cbd 1189 f7bd
00000260: e440 21bc b682 2ebd 3b87 1b3e c1dd 01bb
00000270: 8d15 033e f2c3 87bd 65f2 adbc 4d27 b3bd
00000280: 7389 693c 67b1 14be 504d 62bd ff39 c83c
00000290: bb4b 483d 991f 04be e144 903d 9a05 b4bd
000002a0: b65b a9bc d0f9 d3ba ad19 46be 445d b4bd
000002b0: 29b8 cfbd 956a 5abd 32b3 833d 6342 21be
000002c0: d7a7 0d3d 7982 c93b 5808 22be ec68 f73b
000002d0: 28e5 25be b7aa 713d 351d 29be 6984 87bd
000002e0: 9989 d53c 4d5d 423d 1d87 e8bd 8a46 06bd
000002f0: a557 32be 1730 483d 762f 1dbe 1c48 b1bd
00000300: cc3c da3d 54dd 643c d4e3 6f3d cfdd 9cbd
00000310: a53c cdbd 079b 13bd 779a 6b3d c2a2 adbd
00000320: 58cb e1bc 63f5 03bc 3a33 5e3d c98d c03d
00000330: a5d8 c2bd 613a cfbd c9c1 1dbc 9dc2 c1bd
00000340: 4b2b babd 3eb2 aa3c 0d25 aebd 2423 cdbb
00000350: 67fd 67bd 9613 5b3d 84c7 8c3a abb1 13bd
00000360: 1b20 f93b 33a6 7b3d b407 773c 5f31 2e3c
00000370: 8e26 c0bd e5b8 8a3d 8371 d7bd 70cf af3d
00000380: 05b8 1e3b 0570 f2bc 1920 663d bcce ed3d
00000390: 00a0 7fbd f0ea be3d f322 bf3c b425 873d
000003a0: d750 57bd a888 e63a 5ed4 a23d f3c0 df3c
000003b0: a8eb ec3d 3baa ff3d ff49 48bc d9e9 38bd
000003c0: eeb3 cb3d cd85 3bbd bd76 653d dfb1 7e3d
000003d0: 9576 c53c 4bd1 293d fa7a c33d 090d db3d
000003e0: d251 52bd a1a4 8e3c e19a e0bd 3993 96bc
000003f0: d5aa fcbc 3903 14bd 0962 853c 71cd b63d
0.17899562 0.14748368 0.12398593 0.09426039 0.11929581 0.013838957 0.059029534 0.052735403
0.07691781 0.17997473 0.08559927 0.12842265 0.030362593 0.19923061 0.08488075 0.107654065
0.091992244 0.062274177 0.2056053 0.18792728 0.12966053 0.09486787 0.02298818 0.13868958
-0.06985999 -0.009101129 0.019157942 0.13016717 -0.045580838 0.010569346 -0.08940774 0.29464722
0.10196064 0.22937068 0.0046360786 -0.09954975 0.14013113 -0.010501776 0.20643379 -0.028083174
0.0058127725 0.25364208 0.08826763 0.13370977 0.142695 0.16649893 0.16718026 0.19533041
0.09007811 0.093458705 0.40664646 0.120829254 0.33677346 -0.012406049 0.23571318 0.09875813
-0.12150389 0.11369694 0.044421803 0.15992889 0.013906337 0.201317 0.09979654 -0.038519237
0.14549507 0.047438227 0.1799157 0.04161036 0.05241165 -0.088549875 0.14388606 -0.057869222
0.020328078 0.04223661 0.01784901 0.068057284 0.22342873 0.00092967314 0.1502867 0.021916235
0.22284406 0.19343737 0.21718332 0.12394166 -0.031639475 -0.116238736 -0.04670291 0.037960302
-0.12246305 -0.064670056 0.012373473 0.006294899 -0.045128193 -0.09234241 0.15236138 0.09767039
0.079140246 0.120302916 0.09413679 0.09190353 0.09671387 -0.02223154 0.1968096 -0.13179938
-0.01822473 0.02648258 0.029030798 -0.0057813413 -0.038931184 0.01734346 0.08961687 -0.0041774535
0.050836056 -0.02339141 0.29347044 -0.00041435537 0.17022564 0.0351796 0.1458868 0.19295242
-0.06328423 0.12217917 0.20012425 0.14123663 0.10540055 0.18603376 0.119810045 -0.10137756
-0.13250872 -0.26554227 -0.13239898 -0.007016515 0.07104339 -0.02312655 -0.004133227 -0.10619002
-0.17701219 -0.008052125 0.039713416 0.0028127914 -0.20433696 -0.038997237 -0.23311064 -0.09225981
0.04137377 0.082095936 -0.13803166 -0.2000754 -0.1870559 0.014915244 -0.046109367 -0.1208669
-0.009842131 -0.042605124 0.15188305 -0.0019816014 0.1280119 -0.066291705 -0.021233747 -0.087477304
0.014253962 -0.14520799 -0.055249512 0.024441717 0.048900347 -0.12902679 0.070443876 -0.08790131
-0.020673614 -0.0016172472 -0.19345732 -0.088068515 -0.10142548 -0.0533243 0.06430663 -0.15747981
0.034583893 0.0061495868 -0.15823495 0.0075503495 -0.16200697 0.059000697 -0.16515048 -0.06617052
0.026066588 0.04745226 -0.11353896 -0.032782115 -0.17416246 0.048873987 -0.15350136 -0.08656332
0.10656127 0.013968784 0.058566883 -0.07659494 -0.10021333 -0.036036517 0.057520356 -0.08478309
-0.027562782 -0.00805411 0.054248072 0.09402043 -0.09513978 -0.10118557 -0.0096287215 -0.09460948
-0.09090289 0.020836946 -0.085031606 -0.0062602926 -0.056638148 0.053485475 0.0010740613 -0.03605811
0.007602704 0.061437797 0.01507752 0.010631888 -0.09382354 0.06773547 -0.105196975 0.085844874
0.002421857 -0.02959443 0.056182954 0.11611697 -0.062408447 0.093221545 0.023332095 0.06598988
-0.05256733 0.0017588334 0.07950662 0.027313685 0.11568385 0.12483641 -0.012224673 -0.04514489
0.09946428 -0.0457819 0.05602144 0.06218135 0.024104396 0.041459363 0.0954494 0.10695846
-0.05134756 0.017412486 -0.10967041 -0.018380748 -0.030843178 -0.036135886 0.016282098 0.089259036
