models/model1.onnx (onnx, 26966 bytes, 8 tensors)

fc.0.weight f4 [16, 32]
000000 af 41 44 be 88 8c 07 be 88 c0 ec bd 5e 5c 31 bd
       -0.19165681 -0.13237202 -0.1156016 -0.04330098
000010 3a 63 28 be cf ff 02 be 6f 73 f1 bc bd 37 c2 3d
       -0.16444102 -0.12792896 -0.029473988 0.094832875
000020 eb 6d 82 3e 9a 08 96 be be 94 af 3d cd 83 d8 3d
       0.25474486 -0.29303437 0.08573292 0.10572014
000030 01 4e 95 bd 2f 68 59 3d 1b 7a 0d be d5 e4 6f 3c
       -0.07290269 0.053077873 -0.13816111 0.01464196
000040 f1 de 32 be e8 9c f7 bc 5c de cb 3c 51 29 45 3d
       -0.17467858 -0.030226186 0.024886303 0.048135106
000050 f2 a2 b9 bd 8e fa 29 be 41 3b 01 3e 78 2e 36 be
       -0.090642825 -0.16599485 0.1262026 -0.17791164
000060 e3 27 3d 3e 54 6d 37 be 24 57 2d 3e d6 3a 36 be
       0.18472247 -0.17912799 0.16927773 -0.17795882
000070 cb f7 16 3e c5 c8 10 3e 3e f6 a7 bd c6 6e ad bd
       0.14742963 0.14139087 -0.08201264 -0.08468394
000080 69 7d 25 be 0a 25 5e bd 7c e8 de bb 40 c3 5d 3c
       -0.16161121 -0.054234542 -0.0068026166 0.013535321
000090 49 7d 4b be 6d 36 79 3d 51 a9 33 be 8e c2 09 3e
       -0.19872011 0.06084292 -0.17545058 0.13453123
0000a0 fc fd 88 3e 06 98 9a bc ba 84 31 3e 71 30 37 be
       0.26756275 -0.018871319 0.17335787 -0.17889573
0000b0 d6 20 2b be 47 70 d9 3d 4d 6a 11 bd df a4 99 bd
       -0.16711745 0.10617118 -0.035501767 -0.0750215
0000c0 dd 29 d0 bc 79 1c 8c 3e 0a 22 20 3d 86 0a ee bc
       -0.025410587 0.27365473 0.039094962 -0.029057752
0000d0 c5 cc d1 bc 2e 81 ff bc 4c dd e5 bd b6 74 13 be
       -0.025610337 -0.031189527 -0.1122385 -0.1439999
0000e0 17 b5 5f 3e c8 72 18 3c 31 8f 8e 3d e7 f3 63 be
       0.21846424 0.00930471 0.06960905 -0.2226101
0000f0 ab e3 2e 3e 67 40 fb 3c c6 f7 79 be de 9b 4a be
       0.17079036 0.030670358 -0.24410924 -0.19786021
000100 bc aa 84 be cc 72 31 be 68 a5 8d be 91 8e 2a be
       -0.2591151 -0.17328948 -0.27665257 -0.16655947
000110 05 ee b7 bd 76 7b 82 be b9 8f 8b be 85 07 b4 3d
       -0.089809455 -0.25484818 -0.2725809 0.08790497
000120 fc 33 8f 3d a3 60 02 be b8 d9 63 3e 9f 46 a8 bc
       0.06992337 -0.12732176 0.22251022 -0.020541487
000130 5f af e5 bd 5d 81 11 3d 2f b9 93 bd 2a ba 27 3d
       -0.1121509 0.03552376 -0.07213055 0.040949024
000140 62 82 22 be c0 aa 18 3e c2 5b 57 3e cc 81 2d 3e
       -0.1587005 0.14908886 0.21031097 0.16944045
000150 4e b2 c0 bd e3 5f 21 bd 17 c1 d8 bb 9b 5e 1b be
       -0.09409009 -0.039398085 -0.006614815 -0.15172808
000160 de df 9c 3c 5f c4 26 be 75 05 c3 3a f0 89 47 be
       0.019149717 -0.16285847 0.0014878946 -0.19486213
000170 04 11 1e 3d f9 5b 9e bd 8d 9c 7d be b2 2a 4f bd
       0.038590446 -0.07732386 -0.2476675 -0.050577827
000180 17 09 5c be 1d c8 96 be 69 a7 3b be 8e 4d 0b be
       -0.21487843 -0.2944955 -0.1832558 -0.13603804
000190 0f 1f 53 be 95 9b 3b be 90 e4 98 be 55 24 09 3e
       -0.20617317 -0.18321069 -0.2986188 0.13392766
0001a0 f2 e4 0c 3d 8f e9 46 be ac 66 4d 3d 79 66 b1 bd
       0.034398027 -0.19425033 0.050146744 -0.08662123
0001b0 60 18 29 be 59 2e 9e bd b5 47 04 be 51 24 d5 bd
       -0.16513205 -0.07723684 -0.12917979 -0.104073174
0001c0 41 37 7e be 45 02 01 3e 61 c3 7e 3e 60 95 37 bd
       -0.24825765 0.12598522 0.24879219 -0.04482019
0001d0 2e 25 0e 3e 0a 62 b1 bd a7 00 69 bd 8c 4e 0f be
       0.1388137 -0.086612776 -0.056885388 -0.13994807
0001e0 11 32 d2 3d 79 37 8e 3d b9 01 b3 bd b3 50 b1 bd
       0.10263456 0.06944174 -0.08740563 -0.0865797
0001f0 0d 03 45 3e 65 34 07 3e ad 29 95 be 64 86 ed bd
       0.19239445 0.1320358 -0.2913336 -0.115978986
000200 90 d6 38 bd 6a 4f 9d 3e e6 d7 8c 3e 74 b8 81 bd
       -0.045126498 0.3072465 0.27508467 -0.0633401
000210 db f9 3e 3e 8b d4 de bb ab 14 36 3e 81 09 b4 be
       0.1865 -0.0068002394 0.17781322 -0.351635
000220 a6 05 22 bd 02 82 90 3e d0 d2 cd bd de ba ca bd
       -0.039556168 0.28224188 -0.10049975 -0.09898923
000230 53 e8 6c bd d3 d2 3d 3b 5c 3b 91 3c 94 25 f5 3d
       -0.05783875 0.0028964772 0.0177285 0.11970058
000240 0b e6 34 3d 73 94 93 be 86 06 37 bd 19 60 ec bd
       0.0441647 -0.28824195 -0.044683956 -0.11541767
000250 39 ec 8b bd f5 39 ab 3d 4c 51 e2 bd aa 75 8d 3e
       -0.06832165 0.08360664 -0.110506624 0.27628833
000260 83 63 ef bc e7 5b 4b 3e f9 33 fb bd 2d 35 d5 bc
       -0.029222256 0.19859277 -0.12265772 -0.026026333
000270 97 28 fc bd a9 ca ac bd 78 be 05 3e 70 85 4e 3e
       -0.123124294 -0.08437092 0.1306094 0.2016809
000280 66 2b 8b bd 11 f6 80 3e 06 e0 80 3e e4 da 1f 3e
       -0.06795387 0.25187734 0.25170916 0.15610844
000290 fd 9c 4b 3e b2 ca a5 3d ce 83 71 3e 89 5c 4b be
       0.19884105 0.08095302 0.23585436 -0.19859518
0002a0 25 33 52 3c 15 1e c5 3d 67 5e 90 bc 27 ac 1d bd
       0.012829577 0.09624878 -0.01762314 -0.038494255
0002b0 b2 b9 4d 3d b9 db 5c 3d 2b 12 9f 3d e8 c5 79 3e
       0.05022592 0.05392048 0.07767137 0.24391901
0002c0 24 26 ac 3b b2 bd 3e be 24 f4 b8 3c 7b 2b 56 3e
       0.00525357 -0.1862705 0.022577353 0.20915024
0002d0 95 ea b9 3d 00 1c 54 bc db fc 44 3c 3a 16 5d 3e
       0.09077946 -0.012946129 0.012023176 0.2159051
0002e0 16 d7 5e bd 9b 5f 01 bd 78 6b 6a 3d 7a ff 34 3e
       -0.05440434 -0.031585317 0.057231396 0.17675582
0002f0 be 28 26 3c 2f 75 81 3d d8 92 9a 3e 3f 4b c6 3d
       0.01014155 0.06321179 0.30190158 0.09682321
000300 ec 48 c7 3b 7e bc 6e be 25 01 8c be 1e 3b 80 bb
       0.006081691 -0.23314092 -0.27344623 -0.0039132973
000310 a9 9c 4c bd 66 d9 39 3d e0 5b bf bd b4 c4 08 3c
       -0.04995409 0.045373343 -0.09343696 0.008347679
000320 c9 58 91 3e 8c 53 76 be 52 72 49 3d 8e a3 9a 3d
       0.2838805 -0.24055308 0.04918129 0.07550727
000330 8e ca b5 3d ee b0 90 bd 54 80 51 bd 3d 68 0e bd
       0.08876525 -0.07064997 -0.051147774 -0.034767378
000340 6b 91 8b bd ef b9 7e 3e 05 d6 73 3d bf 9d 07 3e
       -0.06814846 0.24875616 0.059530277 0.13243769
000350 20 62 bc 3d f5 2f b2 bd bf 02 07 be 57 6c f5 bd
       0.09198403 -0.08700553 -0.13184641 -0.11983555
000360 bc d2 f3 3d df 73 01 be e9 b2 45 3e 42 06 69 be
       0.11905429 -0.12641858 0.1930653 -0.22756293
000370 0d 12 c2 bc 8b 96 1a 3d 11 de 6b be ec a5 dd bc
       -0.023690248 0.037741225 -0.2303393 -0.027056657
000380 e8 31 e6 3d f4 07 f4 3c 04 49 45 bd 2b cb 9e 3d
       0.112399876 0.029788949 -0.048165336 0.07753595
000390 7d 43 e7 3d cf fa 33 3e cb 22 95 3d 47 c3 0f 3e
       0.11292169 0.17576145 0.07282027 0.14039336
0003a0 4a e0 59 bd ed a9 91 3d d4 b5 80 bd 0e 6a 8e bc
       -0.053192414 0.07112489 -0.06284681 -0.017384555
0003b0 2d 4f 2e 3e b9 07 bf bd 7e e6 e7 bd 9d 3d 61 bd
       0.1702239 -0.09327645 -0.1132326 -0.0549904
0003c0 17 1e cb 3b 43 1c f3 3d 8c 4b 1e bd 86 e3 26 bc
       0.0061986553 0.11870625 -0.038646266 -0.010186082
0003d0 d7 1a be bc cc 03 ac 3c e3 28 b5 bc b6 8c 4e bd
       -0.023206158 0.020997904 -0.022114223 -0.05042716
0003e0 88 a5 65 ba 4a d2 bd 3d 79 f7 41 3c 52 9f dd bd
       -0.0008760323 0.09268625 0.011838787 -0.108214036
0003f0 f9 6d 9d 3d 1d d4 32 bd 70 0e ee bd 17 8e 01 3e
       0.07686991 -0.04365932 -0.116238475 0.12651859

fc.0.bias f4 [16]
000000 3c e8 27 3c 7f cc bf bd d1 57 b4 bd bc 0e ef 3d
       0.01024824 -0.093651764 -0.08805812 0.11672732
000010 40 eb d6 3d e4 e8 c7 3d 80 99 1c 3e d1 39 24 be
       0.10494089 0.09761217 0.1529293 -0.1603768
000020 20 62 02 3c 0e 56 22 bd 0b ec 95 3d 43 dd 9e 3d
       0.007957965 -0.03963285 0.07320412 0.07757046
000030 53 25 8f bd af c8 71 bd 1d 49 30 3e f4 f0 0e 3d
       -0.06989541 -0.059029277 0.1721539 0.03489776

fc.3.weight f4 [2, 16]
000000 26 64 19 3e a6 18 08 3e 84 f7 15 3d c2 7a 89 3e
       0.1497961 0.13290653 0.036613002 0.2685147
000010 2d 35 4e be 7b f1 36 be f3 c7 93 3e b7 16 bb bc
       -0.20137472 -0.17865555 0.28863487 -0.02283798
000020 88 56 75 be 8f 03 f4 3d 56 61 bf 3e 81 9f a8 be
       -0.2395879 0.11914741 0.3737895 -0.32934192
000030 6c 51 9b 3c 63 af 5d 3e 1e 2b ae 3e 4b 7b 9f be
       0.018959723 0.21648936 0.3401727 -0.31148753
000040 c1 e4 a6 be d2 b0 a4 be d4 7a 8c be 0d 18 31 bd
       -0.325964 -0.32166153 -0.2743746 -0.043235827
000050 b7 7a 94 3e f2 b6 38 3e 49 49 33 be 09 84 40 be
       0.28999874 0.18038538 -0.17508425 -0.18800367
000060 5c c9 52 3e 2f 91 87 be 20 b0 9f 3d 62 83 12 3e
       0.20584625 -0.26477954 0.07797265 0.14307931
000070 ec 7f a2 be 1e 91 9b be 32 c4 18 bc 89 87 6a 3e
       -0.31738222 -0.30384153 -0.00932412 0.22903265

fc.3.bias f4 [2]
000000 d4 32 84 be 53 c2 55 3e
       -0.2582003 0.2087491

onnx::LSTM_114 f4 [1, 128, 9]
000000 08 33 dd bd 27 e1 87 3d fc b6 40 3e 4c d5 0d bd
       -0.10800749 0.06634741 0.18819803 -0.034627244
000010 8f b0 80 3e 82 ac 77 3d 33 bf 7a bd 18 25 a2 bd
       0.25134704 0.06046725 -0.061217498 -0.07917231
000020 d3 0b 01 3d 28 44 b1 3d e4 aa df bc 5c e4 47 3e
       0.031505417 0.08655578 -0.027303167 0.19520706
000030 cb 09 d3 3c 4e f6 87 bc c9 1a fb bc 86 30 75 bd
       0.025761506 -0.01659694 -0.03065242 -0.05986073
000040 a9 9a 81 3d 0a 93 dc bd 46 aa 0e bd e0 36 36 3e
       0.06328327 -0.10770233 -0.034830354 0.1779437
000050 cf 39 45 3e 6d b3 30 3e e0 61 42 3e 39 07 2a bd
       0.19260333 0.17255946 0.18982649 -0.041510794
000060 fc 0c 40 bc 64 03 06 be ed b6 ab 3c 48 20 81 bb
       -0.011721846 -0.13087231 0.02096125 -0.003940616
000070 5a fe 2f 3e b6 92 b3 bd 1f de b7 3d 41 c0 9c 3d
       0.17186871 -0.08768217 0.08977913 0.07653857
000080 10 09 66 be 5c 9b 72 bd 07 3a 0b 3e c0 a1 97 3d
       -0.22464395 -0.059230193 0.13596354 0.07403898
000090 16 33 90 bb 21 73 e7 3d ff 5e 44 3e cb 15 49 bd
       -0.004400621 0.11301256 0.19176863 -0.04909305
0000a0 75 ae f8 3d cd e9 1f bd 11 78 6c bd 1e 68 08 3e
       0.1214265 -0.03904133 -0.05773169 0.13320968
0000b0 d5 36 7e 3e 4e a9 47 3d 97 59 05 be e0 0d 29 3d
       0.24825604 0.048745446 -0.13022457 0.041272998
0000c0 7e 5b 45 be 29 42 41 3e 37 d8 e1 bd 57 6c 17 3e
       -0.19273183 0.18872894 -0.11027568 0.14787422
0000d0 9a 39 14 be e1 85 50 be bd 14 0f be 6d c7 78 3c
       -0.14475098 -0.20363571 -0.13972755 0.015184266
0000e0 ff e3 22 3e bb a4 32 bb c4 72 11 be ce 6e 12 bd
       0.15907286 -0.0027258832 -0.14203936 -0.035750203
0000f0 f9 37 d0 3d da 36 b0 bc 3c f1 a1 3d 31 16 80 bb
       0.10166926 -0.02151053 0.0790734 -0.0039088954
000100 4e ae a4 3d b8 e5 22 3e 10 81 60 3e 1e ba e2 3d
       0.080410585 0.15907943 0.21924233 0.11070655
000110 b4 85 2d 3c 1c c0 24 3e 30 64 21 be d9 99 fc 3c
       0.010590959 0.16088909 -0.15760875 0.030835079
000120 7c c3 77 bd 8c 85 96 bd 26 82 1b 3c b8 7d c6 bc
       -0.060489163 -0.07349691 0.009491479 -0.02422987
000130 9e 62 3a bd 64 38 e2 bc 03 02 eb 3d 4f 9b 11 3e
       -0.045504205 -0.02761478 0.11474993 0.14219402
000140 8a ab 55 3d 99 f1 0a 3e f3 88 7e 3e 31 6e 8b 3e
       0.052165546 0.13568725 0.2485693 0.27232507
000150 f5 47 90 bd 05 4d aa 3b 9f eb 5a 3e ed bb 98 3c
       -0.07044975 0.0051971697 0.21378945 0.018644297
000160 87 4f 0b be bc f6 fa bd 26 f8 0e 3e 61 02 93 3d
       -0.13604556 -0.12254092 0.13961849 0.07178188
000170 2c 94 c0 3d 7e cc 9c bc 52 3b 64 3e db 9b 79 3c
       0.094032615 -0.019140478 0.22288254 0.015234913
000180 56 0e 3b 3e 91 7c 56 be e9 af 47 3e a2 98 bd bc
       0.18267187 -0.20945956 0.19500698 -0.02314407
000190 45 a6 42 3e dc e1 a2 3c 47 f0 26 3e 77 c6 b8 bd
       0.1900874 0.019883089 0.16302596 -0.09022229
0001a0 b4 b1 0a 3e 8d 60 ae 3d 6c 81 9b bd fc 49 30 3e
       0.13544351 0.08514509 -0.07593045 0.17215723
0001b0 a8 90 45 3d 9b a8 f6 bc e8 5e 87 bb 2b a1 a7 3d
       0.048233658 -0.030109694 -0.0041311868 0.08185037
0001c0 fe 0c 4c bd de 99 f6 bd 9e 1a 49 bd 84 00 e6 3d
       -0.049817078 -0.120410666 -0.04909765 0.11230567
0001d0 a8 33 2a 3e 19 c5 c8 3d 2d 17 48 3e bf 99 c2 bd
       0.16621268 0.098032184 0.19540091 -0.09501981
0001e0 71 33 2f 3e 2a 9b 5d be 36 52 02 bb 8d cf 87 3e
       0.17109467 -0.21641222 -0.0019885427 0.26525536
0001f0 b1 80 8a 3b 16 ba 0c 3e 1b 74 99 3d 30 a9 b6 bd
       0.004226767 0.13742861 0.074928485 -0.08918989
000200 ad d5 18 3e bf e2 3c 3e 38 2c 34 3e 9a cf b4 3c
       0.14925261 0.18445872 0.17594993 0.022071648
000210 db ae 28 be d4 3d 41 3e a3 1f 81 3d 39 80 23 3e
       -0.16472952 0.18871242 0.06304862 0.15966882
000220 3d 45 a0 bc 2a c3 99 3d 50 3f 4c 3e ce 79 4f be
       -0.019564265 0.07507928 0.19946027 -0.20261309
000230 7e 4e 32 be b5 1f b9 bd 22 aa de 3b 56 33 cf 3d
       -0.17412755 -0.09039251 0.0067951838 0.101172134
000240 65 e3 31 be 39 31 17 3e af 16 19 bd b8 de be bc
       -0.173719 0.1476487 -0.03737515 -0.02329956
000250 53 6b 7a 3e 91 05 e3 3d 83 0b 08 3e 24 a4 10 be
       0.24455003 0.11085046 0.13285641 -0.14125115
000260 bc ad 08 be 4b f3 b3 3c a4 4d 10 3e a2 3e f8 3d
       -0.13347524 0.021966597 0.14092118 0.12121321
000270 7a 1f 5a 3e 92 63 48 bd 15 f6 1c bd c1 7c ad 3d
       0.2130107 -0.048923083 -0.03832062 0.084710605
000280 4f 80 06 3e e8 2f 66 3e 01 96 4a 3d 1d 14 96 3c
       0.13134883 0.22479212 0.04945946 0.018320138
000290 fb 72 8b 3e a9 3f e4 3d 9c 2c d6 bc 45 de 86 bc
       0.2723616 0.11144955 -0.026144318 -0.016463408
0002a0 9c 09 6a 3e 35 29 b9 3c 97 6c 91 3e b7 78 22 3e
       0.22855228 0.022602657 0.2840316 0.15866362
0002b0 7e 4b 41 3e eb 04 8e bd 29 7a 41 bc 15 f5 0d 3e
       0.18876454 -0.06934532 -0.01180891 0.13863023
0002c0 56 db 49 bd 1d 61 98 3d 7f 20 01 3e 8c fc d1 3d
       -0.04928144 0.07440398 0.12610053 0.102532476
0002d0 5c 0f b7 bb 4d 58 b3 bd 4e d9 0e 3b 50 43 bb 3d
       -0.005586548 -0.087570764 0.0021797004 0.09143698
0002e0 9c c7 c8 3d 5c 6f 03 3e 4d 84 85 bb a6 d9 56 3d
       0.098036975 0.12835449 -0.0040746094 0.05245366
0002f0 e7 eb 50 3e ad e8 8a 3d ee a0 17 3e 86 e2 a3 bd
       0.2040249 0.06782661 0.14807484 -0.0800219
000300 53 7f 0e be 87 02 2e 3d e3 0c 00 be ab 74 1c 3e
       -0.13915758 0.04248288 -0.12504916 0.1527888
000310 4e 78 1e be 25 7a 26 bd ff a4 12 3c 2a 66 f2 bc
       -0.1547558 -0.04064383 0.008950471 -0.029589731
000320 b0 de 28 3e 42 9b e6 bd 48 e1 25 3e 9a d1 3a bd
       0.16491199 -0.11260082 0.16199219 -0.045610048
000330 b9 2d d0 bd 48 dc 3a 3b 47 67 e9 bd 11 31 d0 bd
       -0.10164971 0.0028512646 -0.11396652 -0.10165609
000340 ea 37 0a be cc 20 b0 3c 3d 31 6b 3d 66 a7 16 bc
       -0.13497892 0.021500014 0.057420004 -0.009195184
000350 9e 36 03 3e 7a 18 50 3e 7e d0 63 bd 68 e0 e4 3d
       0.12813804 0.20321837 -0.055618756 0.111756146
000360 13 58 58 bd 4c 1b f4 3d ba f4 4d bc 31 d8 1c 3e
       -0.05281837 0.11919269 -0.012570554 0.15316845
000370 90 63 e4 3b b7 f1 27 3d 2f 11 59 3e 97 82 06 be
       0.0069698766 0.041002 0.21197961 -0.13135754
000380 c2 13 9c 3d 66 89 45 3c 71 df e4 bd c1 c8 1c 3e
       0.07620956 0.012056684 -0.111754306 0.15310957
000390 cf 2e f5 3d dd 9e 4a be db bc f4 bd 84 47 bc 3c
       0.11971819 -0.19787164 -0.11950084 0.02298332
0003a0 3b bf 3d 3c 20 28 90 bd 23 7f 80 3d 09 cf 64 bc
       0.011581237 -0.07038903 0.062742494 -0.013965377
0003b0 db bd 6f 3e 70 59 af 3d 0b eb 13 3d d7 eb 8a 3e
       0.23412268 0.08561981 0.036112826 0.27133057
0003c0 47 83 67 be ae 29 b8 3d 5f 2c 2b 3e b9 48 dc bd
       -0.22608672 0.08992325 0.16716145 -0.10756058
0003d0 2e 90 98 3d 95 4b 0b 3d 68 2f 2e 3d 91 69 5d 3e
       0.07449375 0.034007628 0.04252568 0.21622302
0003e0 da b8 2e 3e ae 16 a9 3d 4a ca 70 bc a0 84 0f 3e
       0.17062703 0.08256279 -0.014696667 0.14015436
0003f0 f1 80 fd bd 15 8b 19 be bf 8e 0f be c7 19 34 be
       -0.12378109 -0.14994462 -0.14019297 -0.17587958

onnx::LSTM_115 f4 [1, 128, 32]
000000 25 89 bc bd d0 c5 5c 3d c3 13 1a 3e 0a b2 41 be
       -0.09205846 0.053899586 0.15046601 -0.18915573
000010 b8 88 68 be 92 75 06 3c 31 a5 fc bc 33 0c 84 3c
       -0.22708404 0.008206742 -0.030840488 0.016119098
000020 fe 73 19 be 09 40 55 3d bc 38 86 bd 77 da 3a bd
       -0.14985654 0.05206302 -0.0655379 -0.0456185
000030 38 4f 69 be 4e d3 2b bd 46 11 a6 3e 2a 94 44 bd
       -0.22784126 -0.041949563 0.32435054 -0.047992863
000040 d6 3b 02 be be 04 1a bd 9f af 05 be 46 2e 4f 3e
       -0.12718138 -0.03760218 -0.13055275 0.20232496
000050 72 19 83 bd 9b 6c 42 be 50 4c 71 be d4 62 0e 3d
       -0.06401338 -0.18986742 -0.23564267 0.03476222
000060 b2 ca c2 bd b0 78 2c 3e d9 91 fc 3d c3 8e db 3d
       -0.09511317 0.16842914 0.12332506 0.10720589
000070 cb b4 71 bd 39 8f 1c be 3e e8 44 3d d9 99 0e bd
       -0.05901031 -0.1528901 0.048073046 -0.03481469
000080 58 d6 47 be 69 c5 0f be 17 f3 01 be e5 d4 58 be
       -0.1951536 -0.1404015 -0.12690388 -0.21174963
000090 43 84 1e 3d 83 e9 8b bd 07 e8 4b bd c0 36 a7 3d
       0.038700353 -0.06831648 -0.049781825 0.081647396
0000a0 c5 1e b7 bc 0c 5b 1a 3e 15 79 26 3d 2f dc ee bd
       -0.02235354 0.15073794 0.040642817 -0.116630904
0000b0 9e a9 99 bd e7 e2 92 3d 9f a0 43 3e 8b eb 4a 3e
       -0.07503055 0.071721844 0.19104241 0.19816415
0000c0 db 7e 0b be 6d a5 84 bd 79 41 83 be 88 74 27 3e
       -0.1362261 -0.06476865 -0.2563589 0.16353047
0000d0 27 16 63 be 8d 56 59 be 39 b1 b6 bd e0 80 d2 bd
       -0.22176419 -0.21224423 -0.08920521 -0.10278487
0000e0 fc 21 1f 3e 3d 10 92 3e ac 99 92 3d 94 cf 4d be
       0.15540308 0.28528014 0.07158217 -0.20098716
0000f0 09 85 49 3e 56 f5 c9 bd e5 8d 48 be 63 89 29 bc
       0.19679655 -0.09861247 -0.19585378 -0.010347697
000100 01 60 82 3d dd 79 9e 3c a9 65 10 be b8 95 bf bd
       0.063659675 0.019345218 -0.1410128 -0.093547285
000110 ec 5b b4 3d 69 f2 36 be 0e d3 dd 3d af a5 ac 3d
       0.08806595 -0.1786591 0.10831271 0.08430039
000120 72 85 27 bd c0 b8 52 bd 8d 5b 10 3e cf b6 e2 bb
       -0.040898748 -0.051445723 0.14097424 -0.006918765
000130 07 80 a3 3d 74 8b d2 3d 2a 55 c2 3e e2 c6 8a 3e
       0.07983404 0.10280505 0.379556 0.2710486
000140 49 9b 2b 3e 09 31 a4 bd 6a 05 50 3d 82 58 98 3e
       0.16758455 -0.08017165 0.050786413 0.29755026
000150 c5 ff 41 be 3f 72 9b 3d 07 07 92 bb 96 f4 28 be
       -0.18945225 0.0759015 -0.004456404 -0.16499552
000160 6a 32 f0 3d 85 3a 96 3e f0 28 8c 3e 34 0a ca bd
       0.11728366 0.29341522 0.27374983 -0.09865227
000170 31 04 dd bd 54 b9 ac be b5 55 5d bd 6c 1a 52 3e
       -0.10791815 -0.33735144 -0.054036815 0.20517892
000180 92 cc 65 bc 10 6e 04 bd 19 c0 81 be 6c f8 a9 bd
       -0.014025824 -0.032331526 -0.2534187 -0.08299336
000190 fe 7b 51 be a9 24 69 be 4b 2f 14 be 45 95 10 3e
       -0.20457456 -0.22767891 -0.14471166 0.14119442
0001a0 c9 ba bb bb a0 56 4d bd 76 e2 17 bd 6c ee 80 be
       -0.0057290536 -0.05013144 -0.037081204 -0.251819
0001b0 da 7a e7 bd ad ce 2b 3e c0 64 0e 3e 55 3e 1d 3d
       -0.11302729 0.1677806 0.1390562 0.038389523
0001c0 a0 96 a8 bd 3f 74 12 3e 75 fb 86 3d 63 1d 6e bd
       -0.082318544 0.14302157 0.0659093 -0.058133494
0001d0 c2 71 24 be e1 a5 2e be 11 72 aa bc ba fa b1 bd
       -0.1605902 -0.17055465 -0.020806344 -0.086904004
0001e0 13 38 49 3d 96 21 94 bd 86 56 6b 3e e7 d7 67 be
       0.049125742 -0.072329685 0.22982225 -0.22640954
0001f0 db 76 06 3e fa 54 2e be 11 4e 35 be 27 db 83 3b
       0.13131277 -0.17024603 -0.17705561 0.0040239277
000200 76 57 73 be ce e9 d1 3c 3a ea be bd 95 83 e0 3d
       -0.23763832 0.025624182 -0.09322019 0.10962597
000210 49 fa 78 bc 71 17 f3 3c e6 6b 0e 3e 52 50 b1 3d
       -0.015196391 0.029674264 0.13908347 0.08657898
000220 1c 36 2d bd 16 e2 64 bd 5d a7 45 bc aa 93 8d 3d
       -0.04228793 -0.055879675 -0.012063828 0.0691293
000230 f4 82 96 bc e0 b5 4b 3c f0 d9 2b 3d 67 71 03 3d
       -0.01837299 0.012433499 0.04195589 0.03209057
000240 86 93 d4 3b 58 1d 1e 3e 41 01 09 3e 83 98 01 3d
       0.0064873127 0.15440881 0.13379385 0.031639587
000250 3d 84 38 3e 41 8f 90 be 0a d4 00 bc 97 44 2f be
       0.18019195 -0.28234294 -0.007863054 -0.17116009
000260 b9 37 69 3e b2 0d 00 bd 8f 3d 34 3e f4 7c cb 3b
       0.22775163 -0.03126306 0.17601608 0.006209964
000270 07 7d 3d 3d 6d 09 af bd b5 cf 81 be b2 2b 84 be
       0.046261813 -0.0854672 -0.2535378 -0.25814587
000280 58 00 07 bd 39 b1 78 3a 54 30 cf 3d 06 cd 06 3e
       -0.032959312 0.00094868575 0.1011664 0.13164148
000290 1a 1b 5b 3d 44 e0 19 be a0 b4 97 bc aa 36 f8 3d
       0.053492643 -0.15026957 -0.018518746 0.12119801
0002a0 60 64 89 bd e6 79 a0 bd 6f e8 96 bd e1 3a e0 3c
       -0.06708598 -0.0783575 -0.07368552 0.027371826
0002b0 80 c2 e7 bc d8 d5 68 bd c2 f6 42 3d 6b 75 f1 3c
       -0.028290987 -0.056844562 0.047598608 0.029474935
0002c0 d8 8f c7 bc 30 86 f6 3c 65 a8 bf bd d0 37 5a bb
       -0.024360582 0.030093282 -0.093582906 -0.0033297427
0002d0 20 ef 26 3e 30 6d a6 bc 7e dc 4c be 4e 21 49 bb
       0.16302156 -0.020315737 -0.20005986 -0.0030690017
0002e0 5b 29 9d bc 28 a9 06 3e 7a 7e 0f 3e a2 9e ab 3d
       -0.019184759 0.13150465 0.1401309 0.08379866
0002f0 03 c9 af bd c3 03 52 be 8d 3b bc 3d b0 4a 4f 3d
       -0.08583262 -0.20509247 0.09191046 0.050608337
000300 0a 44 5b be 94 e0 43 be 3d 1b 85 3d f7 a8 55 bd
       -0.21412674 -0.19128639 0.06499336 -0.05216309
000310 2d b0 80 3c 3d 62 c1 bd c7 a1 a0 bd e5 86 01 3e
       0.015709007 -0.094425656 -0.078433566 0.12649114
000320 38 53 0b bc 23 55 eb 3d 37 16 55 3e 44 19 1d bd
       -0.008503728 0.11490848 0.20809256 -0.038354173
000330 be fd 88 be b1 ca 2f 3e 32 86 a3 bd 8c a1 09 3e
       -0.2675609 0.17167164 -0.0798458 0.13440531
000340 c2 68 74 be ee c8 09 3c 6a 74 83 3d 7d d9 ae 3e
       -0.23868087 0.008409722 0.064186886 0.34150305
000350 eb f1 f1 bc 3f 65 e7 3b 10 06 4b be 46 26 21 be
       -0.0295343 0.00706163 -0.19826531 -0.15737256
000360 36 cf 13 bc 41 ec 22 bd 29 5d bd 3d 0f b0 98 be
       -0.009021571 -0.03977609 0.092462845 -0.29821822
000370 d1 a1 29 3e fc 8d 21 be 55 9d f3 3c 3b 01 d8 bd
       0.16565634 -0.15776819 0.029738108 -0.1054711
000380 eb 2b 1f be fb 59 04 3e 06 90 f0 3d 11 bc 84 be
       -0.15544097 0.1292495 0.1174622 -0.25924733
000390 85 49 9b bd fa 4e bf bd 68 35 87 3d 79 84 9d 3d
       -0.07582382 -0.093412355 0.06601983 0.07691283
0003a0 78 ac 50 3c 80 0c 85 bd 94 cd 50 3d e3 55 dd bd
       0.012736432 -0.06496525 0.050977305 -0.10807397
0003b0 7c 6f 97 bd cf d0 4f 3e 50 cb 4b 3e 30 84 38 3e
       -0.07394311 0.20294498 0.19901776 0.18019176
0003c0 e1 51 a2 3d 9c c4 54 bd 1d 7d 1a bb 12 4e 0e bd
       0.079257734 -0.051945314 -0.0023573108 -0.034742422
0003d0 91 68 51 be d6 eb 84 be 55 2e 93 be fb bc 3a bd
       -0.20450045 -0.2596118 -0.28746286 -0.045590382
0003e0 a7 6c 00 3e c4 7e 4f 3e 10 2c 49 3d e8 86 30 bd
       0.12541448 0.20263201 0.049114287 -0.043097407
0003f0 24 e7 11 3c c2 d7 02 bd 68 40 27 be dd e5 67 3e
       0.008905206 -0.031944044 -0.16333163 0.2264628

onnx::LSTM_116 f4 [1, 256]
000000 5e f7 0b 3e 2f 2f 06 3e 5c c8 ab bc a0 36 d0 bb
       0.13668582 0.13103937 -0.020969562 -0.006354168
000010 a1 c4 ba 3d 82 7c cd bd a1 c7 b0 3d 98 38 54 3e
       0.09119535 -0.100335136 0.08631826 0.20724714
000020 dd e5 56 3d 62 7b 79 3e 39 39 f4 3d 5a 42 2c bd
       0.05246531 0.24363473 0.11924977 -0.042055465
000030 0a 8d 2d 3e 55 89 8e bd e9 31 7b 3e 3f 5f 22 3e
       0.16948333 -0.06959788 0.24530758 0.15856646
000040 11 61 16 3e 33 cd 9b 3d c5 78 3a 3e 27 87 1d bd
       0.14685465 0.07607498 0.18210132 -0.03845897
000050 6e 23 74 3e ce 66 95 3d d8 9c ca bd e4 a6 48 3e
       0.2384164 0.07294999 -0.09893197 0.19594914
000060 cb fe 33 3e 6d 8a 8c bd 08 38 b4 3d 89 61 52 3e
       0.17577665 -0.0686234 0.087997496 0.20545019
000070 6b 65 90 3d df 67 06 3e d3 74 21 3e dd a7 52 3e
       0.07050594 0.13125561 0.15767221 0.20571847
000080 81 ef 8f 3b 30 56 fd 3d d5 1b 81 3e fb 7f 84 3d
       0.0043925648 0.123699546 0.25216547 0.06469723
000090 8b 3e ad 3d 81 5c 9a b9 78 c3 48 3e 18 cb 87 bc
       0.08459195 -0.0002944209 0.19605815 -0.016576335
0000a0 f2 d5 fa 3d a6 13 4e 3e 39 bf 5c 3d b9 08 e2 bb
       0.12247838 0.20124683 0.0538933 -0.0068980125
0000b0 5e fa a1 3d 95 f8 23 3e ac bb c4 3d 71 8e da 3d
       0.07909082 0.16012795 0.09606108 0.106717
0000c0 b0 3c 0d 3e 8a ad a1 3e 31 7c 5f 3b b8 f0 47 3e
       0.13792682 0.31577712 0.0034101123 0.1952542
0000d0 f9 3a e1 3d 6e e6 11 3e 31 b2 27 bd ee ea d7 3d
       0.10997576 0.14248058 -0.04094142 0.10542856
0000e0 11 0a 2d 3b f1 f6 42 3d b7 5c 80 3e 1f 10 60 3e
       0.0026403705 0.047598783 0.25070736 0.2188115
0000f0 4f 01 5c bb 5e aa bc 3d ad 8c 8f 3e 20 c0 8d 3e
       -0.0033570116 0.092121825 0.28037015 0.27685642
000100 08 8d 0a 3d b7 d7 37 3e c6 55 8f bd 23 c6 a6 3e
       0.033825904 0.17953382 -0.06998782 0.3257304
000110 c6 d3 8b bd 7d 87 6a 3d ab 2c 2a 3e df a8 c4 bd
       -0.06827502 0.057258118 0.16618602 -0.09602522
000120 15 d3 c6 bd 74 c2 29 3e cf 40 d0 3c 72 e3 22 3e
       -0.097082295 0.16578084 0.025421528 0.15907076
000130 ca 4c 69 bd 97 47 95 3d 82 3b 8a bd 28 bb 1f 3e
       -0.056957997 0.07289045 -0.067496315 0.15598738
000140 69 fa 4b 3d 60 af d2 bd 28 02 3d 3c b8 c4 9f 3d
       0.049799357 -0.102873564 0.011536159 0.07801193
000150 12 df ad 3e 11 cb 24 3e 84 e4 93 bc bf 24 76 3e
       0.33959252 0.16093089 -0.0180533 0.24037455
000160 a1 fa f1 bd 74 87 ee bd 43 5c 7d 3e 79 46 1b 3e
       -0.11815382 -0.116469294 0.24742226 0.15163602
000170 d3 6c e6 3c 86 ae 4a 3e e3 2d 2e bd 33 73 24 bd
       0.028128063 0.19793138 -0.04252423 -0.040148925
000180 58 b8 d3 bd 5b 6e ae bd 45 5d 86 bd 7a 7e 06 3e
       -0.10337895 -0.085171424 -0.065607585 0.13134184
000190 ce 77 69 bd 8c 00 40 bd 72 2e 0b 3d 93 8b eb bd
       -0.05699902 -0.04687552 0.03397984 -0.11501231
0001a0 5f 7c 05 3c e0 f4 26 be e2 97 22 3d 2f c4 08 be
       0.008147328 -0.1630435 0.039695628 -0.13356088
0001b0 44 43 29 be 18 38 90 3d a8 3d 6a 3d b9 57 11 3e
       -0.16529566 0.07041949 0.057187706 0.1419362
0001c0 2c 1e 74 3d 76 f6 a0 3d 69 7f b4 3d f0 6a 7b bd
       0.059599087 0.07859509 0.08813364 -0.06138128
0001d0 87 4a 28 3d cc 95 17 be 98 70 1e bd ef 90 57 3d
       0.0410867 -0.14803237 -0.038681597 0.052628454
0001e0 78 e9 dc bd ae 98 85 3d 28 22 02 3d dd d8 93 bc
       -0.10786718 0.06523262 0.031770855 -0.018047744
0001f0 aa e7 63 3d a2 93 8d 3c 78 32 34 be a8 9f 26 be
       0.055640854 0.01728231 -0.17597377 -0.16271842
000200 23 d1 2c 3d ad 1b 6b 3e 02 8e 2e 3e 0a c9 12 3e
       0.042191636 0.22959776 0.17046359 0.14334503
000210 ac b4 8b bc 94 15 4e 3e 89 47 b1 3d 0f 5a ef 3d
       -0.017053925 0.20125419 0.086562224 0.11687099
000220 48 1f f7 3b 04 ea a0 3b 7f 17 6d 3d b3 91 a4 bb
       0.007541571 0.0049107093 0.057883736 -0.0050222515
000230 bf a5 59 bc 92 3c 42 3e c3 5c 66 3e 77 45 cb 3d
       -0.013284146 0.18968418 0.22496323 0.09925359
000240 95 0d 18 3e 11 ed 0b 3e 70 c0 6c 3d 17 23 04 3e
       0.14848931 0.13664652 0.05780071 0.1290401
000250 a1 1c 2d bd 55 4a 0a be 51 a5 b7 bb d6 2b 18 3e
       -0.04226363 -0.13504918 -0.005604424 0.14860472
000260 dc 66 01 bd 3d 1f 97 bd 73 9d b2 bb e3 88 65 3e
       -0.031592235 -0.07379005 -0.0054508983 0.224155
000270 80 e3 be bc 13 92 2f 3e 8a 06 c4 3b 4f d2 19 bd
       -0.02330184 0.17145567 0.005982225 -0.03755408
000280 16 c1 82 bd 9a 4b 72 3d 17 02 5c 3e de 14 3b 3e
       -0.063844845 0.05915413 0.21485172 0.18269679
000290 77 64 a6 3d 13 9f e3 bd 07 45 10 3e a2 c7 2a 3e
       0.08124631 -0.111143254 0.14088832 0.16677716
0002a0 e9 d1 7c 3d 2d 90 14 3d e1 a3 65 bd b6 09 aa 3d
       0.061723623 0.03627031 -0.05606449 0.083026335
0002b0 c3 cf 25 bd 15 78 13 3e df b2 63 bd b2 bb 63 3e
       -0.04048134 0.14401276 -0.055590507 0.22239569
0002c0 a7 1a 38 bd 7f 43 2a 3e 2d 67 c7 3b 7e 6b 67 bd
       -0.044947293 0.1662731 0.0060852976 -0.056498997
0002d0 6e f1 49 3e b7 00 07 bd d2 68 36 3e 57 54 86 3e
       0.19721004 -0.032959666 0.17813423 0.2623622
0002e0 74 fb d5 3d f9 a9 37 3e e1 d6 2d bd d3 69 e4 3d
       0.104483515 0.17935933 -0.042441253 0.11152997
0002f0 4b a1 4b 3e 72 89 0a 3e ad 2f 8e 3e 8e ca 50 3e
       0.19885747 0.13528994 0.2777075 0.20389768
000300 69 97 52 3e e3 30 b1 3d c3 23 8e 3d 58 7e f6 3c
       0.20565571 0.086519025 0.06940415 0.030089542
000310 c7 32 0e 3e ed 92 f4 bc ed 87 bf 3d 82 56 4e 3c
       0.13886558 -0.029855216 0.09352098 0.012593867
000320 f8 cf a4 bd 4e 60 de 3d 5a 7e 07 3e c6 a8 59 3e
       -0.080474794 0.108582124 0.13231793 0.21255788
000330 9a b9 02 3e 31 c3 e0 3d 6a 8a 9d bd 75 b1 4d 3e
       0.12766114 0.1097473 -0.07692416 0.20087226
000340 f7 f0 1f 3e 02 8c 93 3d 86 23 18 3d cd 2f 34 bd
       0.15619265 0.07204439 0.037143253 -0.0439909
000350 97 a2 11 3e b3 a7 09 be 0c 52 4e 3e ef 02 7d 3d
       0.1422218 -0.13442878 0.20148486 0.061770376
000360 8b 0d 47 bd 8f 73 28 3e cb f2 4d bd b8 dc 4c 3e
       -0.0485969 0.16450332 -0.050280374 0.20006073
000370 0f a4 99 bc b3 dc 1e 3e 22 3f e3 3c bc ca 0a 3e
       -0.018754987 0.15513878 0.027740065 0.135539
000380 af ac 9a bb 71 10 13 3d c5 e0 65 bc 08 d0 ed 3c
       -0.0047202925 0.03590435 -0.01403064 0.029029861
000390 e3 19 af 3d 2c 7f 0d be be 44 28 be 83 5c 38 3b
       0.085498594 -0.13818043 -0.16432473 0.0028131313
0003a0 fd 92 99 bd 5d 72 d4 3d 62 7c 17 3d 42 53 13 be
       -0.07498739 0.103733756 0.036983855 -0.14387229
0003b0 8e fc 06 be 5e 7b 04 3e cc 4d ca 3d b1 21 06 3e
       -0.1318228 0.12937686 0.0987812 0.1309879
0003c0 87 ee f8 bd ad af b8 3d ad 78 3f 3c e0 7b b0 3d
       -0.121548705 0.090178825 0.011686486 0.08617377
0003d0 6e e0 08 3e d9 77 d1 bd 98 d8 31 be 16 24 9d 3d
       0.13366863 -0.10227937 -0.1736778 0.076728985
0003e0 54 e6 29 3e c8 85 ae bc c1 d5 7a 3c e2 ba a2 3a
       0.1659177 -0.021304026 0.015309752 0.0012415315
0003f0 f3 04 07 3e ed b6 89 bd 67 49 0c 3e b2 7a 5b bd
       0.13185482 -0.067243434 0.13699876 -0.05358381

onnx::MatMul_117 f4 [32, 1]
000000 b3 90 6e 3d 06 82 0d 3e 3a 77 e5 3c 03 d3 3e 3d
       0.058243465 0.13819131 0.028010953 0.046587955
000010 16 1f 24 be 1c 92 0d 3c 34 ec 07 3d 71 0c c0 bd
       -0.16027483 0.008640792 0.033184245 -0.09377373
000020 54 63 dc bd 26 4b b9 3d cd 2b fb bd 2b 57 b8 3e
       -0.10761133 0.090475366 -0.12264214 0.36004004
000030 24 12 56 3d b8 62 fc 3d 5e a9 a0 3d e7 8e 9c 3b
       0.052263394 0.123235166 0.07844804 0.0047777775
000040 aa 21 f9 3b c1 1a 13 be 4f d1 90 3e 1f a7 ae 3e
       0.00760289 -0.14365675 0.2828469 0.34111878
000050 26 dd 5b be b1 73 0b bd b8 a4 36 be 01 fb 04 be
       -0.2147108 -0.03404588 -0.17836273 -0.12986375
000060 af 04 b2 3d 51 d6 4b 3e a7 72 d4 3e 13 11 4f bd
       0.086922996 0.19905974 0.41493723 -0.050553393
000070 ed da 85 bd 83 6c 1a bd 7b f3 f1 3d 77 5f e8 3d
       -0.065358974 -0.03770114 0.11814018 0.113463335
