models/model_3min_pivot_reversal_v2_final.onnx (onnx, 229939 bytes, 8 tensors)

fc.weight f4 [3, 64]
000000 c4 81 5f 3e 3b 47 1b be 0a e2 6a be 5a 52 9b 3d
       0.21826845 -0.15163891 -0.2293779 0.07584067
000010 e8 88 15 3e 9c a5 2f 3e 56 4d 4b be ba 48 1b 3e
       0.14603007 0.17153019 -0.1985372 0.15164462
000020 e4 d4 64 3e 3d 62 75 be 65 86 e2 bd 75 fe 03 3e
       0.22346836 -0.23963256 -0.1106079 0.12890036
000030 2a 74 15 be 4a 27 0d 3e 13 fc 5c be 16 d7 05 be
       -0.14595094 0.13784519 -0.21580534 -0.1307033
000040 04 35 91 3d 93 3b ad 3d 0a d4 1c 3e 0b b9 ca 3d
       0.0709019 0.084586285 0.15315261 0.098985754
000050 1d b5 25 3b 0c 1a 40 3e a6 50 50 bc 39 d9 29 3e
       0.0025284954 0.18759936 -0.012714541 0.1658677
000060 d3 e4 15 3b e6 46 eb 3d e9 a1 0f be 72 f2 29 bd
       0.0022871986 0.11488132 -0.14026608 -0.04149098
000070 41 94 90 bd 3f c2 19 be 3a a6 16 3e 56 24 ab bd
       -0.07059527 -0.15015505 0.14711848 -0.0835654
000080 da 28 59 be c5 03 2a be 39 c3 32 3d 3d d0 eb bd
       -0.2120699 -0.16603 0.04364321 -0.11514328
000090 9c 13 d1 3d b0 3e 00 3c 12 e0 ec bd 76 06 6e be
       0.10208818 0.007827446 -0.115661755 -0.23244652
0000a0 97 bd 39 3e cc b3 ff bd f4 e9 00 3e 72 78 49 be
       0.18138729 -0.124854654 0.12589246 -0.19674852
0000b0 45 37 2d be 44 64 a3 bd 75 5e 29 be 0f 43 4f be
       -0.16915615 -0.079781085 -0.16539939 -0.20240425
0000c0 0f dc 32 be 9e 48 45 be df a4 08 3e a0 66 3b 3e
       -0.17466758 -0.19265983 0.13344143 0.18300867
0000d0 8a 8a 8b bd 0c 42 c7 bd 2f 50 97 bc e1 02 e4 bd
       -0.068135336 -0.09729394 -0.018470852 -0.111333616
0000e0 d6 c8 22 be 5a 0a 51 3e f8 c7 fe bd c9 02 90 3d
       -0.15896925 0.20414105 -0.12440485 0.07031781
0000f0 61 28 78 3d f9 ec 43 3e c4 8f 2e 3e 8a 12 72 3e
       0.060585383 0.19133367 0.1704703 0.23639885
000100 30 51 08 bf ce d2 f9 3e c8 f7 89 bd 1c b6 c2 3d
       -0.5324888 0.48793644 -0.06736714 0.09507391
000110 1c eb 9f be 3c d8 14 bf eb ea 86 3e 7b 5b 55 3e
       -0.31234062 -0.5814245 0.26351103 0.20835678
000120 6d 3a c7 bd 77 64 dd bd 1f 46 06 3f 21 6b 1f be
       -0.09727941 -0.10810178 0.52450746 -0.1556821
000130 f6 e8 48 3e ce 07 c0 3d 16 33 e4 3e db 26 0b 3f
       0.19620118 0.093764886 0.44570225 0.54356164
000140 b4 c2 84 be 64 07 e1 3d a3 df b4 be 3f c2 ec be
       -0.25929797 0.10987738 -0.3532687 -0.46241948
000150 3a e3 91 3d e9 86 fd bd 96 b4 14 3e 14 a9 0a 3e
       0.07123418 -0.12379248 0.14522013 0.1354106
000160 03 76 ad bd 04 3b 13 3e 04 8d d2 3e 5f 12 81 3e
       -0.084697746 0.14377981 0.4112321 0.2520933
000170 bc 3e 80 3e 97 87 20 be e8 76 e2 be 91 79 cb 3e
       0.25047863 -0.15676723 -0.44231343 0.39741185
000180 4b 9b 39 3c 06 6f 1d be 27 f0 17 3e a0 50 bb 3c
       0.011328529 -0.15374383 0.14837705 0.022865593
000190 cf 54 d7 3d 8a 97 87 3e 43 65 39 bb ad c1 fe 3d
       0.10514223 0.26482803 -0.0028289116 0.124392845
0001a0 71 40 95 be 73 bc e8 bd 21 d0 f9 3d 73 6d 2e be
       -0.29150727 -0.11364069 0.121979006 -0.17033939
0001b0 ab fd 57 3e e2 09 2a 3c 81 18 04 3e 7f eb 0e 3f
       0.2109286 0.010378333 0.12899972 0.5582809
0001c0 2d e4 cd 3e 26 92 3b be 5e e1 91 3d ab 25 45 3e
       0.40213147 -0.1831747 0.071230635 0.1925265
0001d0 c8 ac 95 3d 9e de 4f 3e 2a 39 72 3d 17 76 92 bd
       0.07308346 0.20299765 0.059136547 -0.0715143
0001e0 57 b3 c3 bd fa 6a 71 3e d0 26 34 3e 3e 07 ca be
       -0.09555691 0.23575965 0.17592931 -0.3945865
0001f0 0b 73 92 3c 8c 85 f3 3a 6c b3 26 3e c6 bc 0e be
       0.017877122 0.0018579229 0.16279382 -0.13939199
000200 6d f5 12 3e 45 a4 10 be 9f 13 aa 3d 8a 62 51 be
       0.14351435 -0.14125164 0.08304524 -0.20447746
000210 cc fc 1e 3e 7d aa 77 3e fb cf 6f be db 69 4e be
       0.15526122 0.2418613 -0.23419182 -0.20157568
000220 47 56 36 be 77 82 eb 3e 6e 4a d3 bd 28 28 8c bd
       -0.1780635 0.45997974 -0.10316931 -0.06843597
000230 28 3a 0e bd 8a 62 8a be d4 21 eb bd 16 2f 09 be
       -0.03472343 -0.27028304 -0.114810616 -0.13396868
000240 45 e4 0e 3e 18 37 a8 be cd 4f 20 3e 98 51 e3 3d
       0.13954265 -0.32854533 0.15655442 0.11099547
000250 42 7f 82 bc 09 75 37 be 4e f5 84 3d 4a 1f 87 be
       -0.015929822 -0.17915739 0.06492101 -0.2639106
000260 29 b9 34 3e 10 05 b0 be e3 b4 36 be 0a d5 d5 bd
       0.17648758 -0.34378862 -0.1784244 -0.104410246
000270 b7 7c 37 be 29 94 ec 3e a4 45 0d 3e b6 c5 0b be
       -0.17918669 0.46206787 0.13796097 -0.1364964
000280 fe 16 90 3e 45 07 68 3e bc 21 4b be 3a 38 f2 3c
       0.28142542 0.22659023 -0.19837087 0.029567827
000290 c9 09 e1 be 44 39 2a be e4 27 56 3e b2 34 dc bc
       -0.43952778 -0.16623408 0.20913655 -0.026880596
0002a0 22 bf 5d 3d ad 9c 71 3e b3 bd 07 be 0d 28 b0 3e
       0.054137357 0.23594923 -0.13255958 0.34405556
0002b0 a1 06 9b bb c5 e2 83 3e 9c 96 db bd 3c bf 80 be
       -0.004731015 0.2575895 -0.10722086 -0.251459
0002c0 09 70 3a be 7a 95 ad 3e ff 15 0b be 03 69 d9 be
       -0.182068 0.33903104 -0.1358261 -0.4246293
0002d0 02 6c aa 3e c8 cd 56 be d3 fa 48 bc 1e ed 09 3f
       0.33285528 -0.20976937 -0.012266832 0.5387744
0002e0 23 fb f0 3e a4 66 cd be 3a d2 04 be 8b 92 c5 3d
       0.47066602 -0.4011737 -0.1297082 0.096470915
0002f0 27 cf fe 3d 28 87 b9 be d0 d7 e1 be 5c fd 65 be
       0.12441855 -0.3623593 -0.44109964 -0.2245993

fc.bias f4 [3]
000000 4c 5e 28 3d fe 94 97 bd 6a 94 a2 bd
       0.041105554 -0.07401465 -0.07938464

onnx::LSTM_182 f4 [1, 256, 24]
000000 ff 64 f6 3d b6 02 1d 3e 98 96 85 3d 57 3f 5a 3d
       0.12030982 0.15333065 0.06522864 0.05328306
000010 7e e3 ab bd 4d d3 31 bd 82 d1 c5 3e c7 98 50 3c
       -0.08393 -0.043414403 0.38636404 0.012731737
000020 27 ae b7 3d fe b4 46 3e 24 8d a5 3e b8 0a 23 bc
       0.08968764 0.1940498 0.32334244 -0.009951286
000030 98 9b 94 be ad d9 d6 3d e0 b3 32 3e ff 5f 6d bd
       -0.2902496 0.10490737 0.1745143 -0.057952877
000040 76 f8 0e be 6b d0 31 3d 42 37 0d 3c bf a4 6e bb
       -0.13961968 0.043411653 0.0086191315 -0.0036414114
000050 88 55 85 3e 2e cb 37 bd f1 95 e6 bc f7 dd 05 be
       0.26041818 -0.0448715 -0.02814767 -0.13072954
000060 23 2c 55 3e b6 7e 04 3e 6d bf 3b bd 9e 37 5a 3e
       0.20817618 0.12938961 -0.045836855 0.21310279
000070 02 4f 8f 3d 8b 49 47 3e 47 38 e5 3c d7 68 23 3d
       0.069974914 0.19461648 0.027980937 0.039894905
000080 06 88 7b be bb 34 7b 3d d0 08 80 be a5 62 0d be
       -0.24563608 0.061329585 -0.25006723 -0.13807161
000090 44 68 88 3e 21 f5 b5 bd 78 65 88 3d 12 16 76 3e
       0.26642048 -0.08884645 0.06659979 0.24031857
0000a0 14 9b 97 3c 95 52 a0 3d 2d 31 05 bd bd aa 34 3e
       0.018506564 0.07828251 -0.0325176 0.17643256
0000b0 08 af 30 3d 70 ff 03 be e7 c9 f2 3d 4a 4b 65 be
       0.043135673 -0.1289041 0.11854916 -0.22392002
0000c0 80 bf 0f 3e 06 4d cd 3d de 27 0d 3e 9e bd 23 be
       0.14037895 0.10024457 0.1378474 -0.15990302
0000d0 30 dc 53 3d d5 c8 c0 3d a2 2d fd 3d f8 87 73 be
       0.05172366 0.09413306 0.123622194 -0.23782337
0000e0 66 eb 00 be a7 0c db 3d 45 86 5c 3d dc a7 0d 3e
       -0.12589797 0.106957726 0.053838987 0.13833565
0000f0 f5 7e 2d bd 82 71 53 bd 7e ed 60 bd 11 f2 ed 39
       -0.042357404 -0.05162192 -0.05491399 0.00045384516
000100 14 d6 cb be 01 27 44 3d c0 5e 0d 3d f3 f2 46 3e
       -0.39811766 0.04788876 0.03451419 0.19428615
000110 ee b2 41 3d 82 22 2c 3d 2d 48 b9 3d 65 c8 20 3e
       0.04728978 0.042025097 0.090469696 0.15701444
000120 66 fb bd bc 52 6e f2 3d e0 6d af bd 4f 4b 48 3d
       -0.023191165 0.11837448 -0.08565879 0.048899945
000130 7c 6d 34 bd 6c 33 f5 3d 25 a8 cc bd 55 6d de 3d
       -0.044049725 0.119726986 -0.099930085 0.10860697
000140 4a ec 1d 3e f2 db 96 bd 18 36 b1 be 6a b8 51 3b
       0.15422168 -0.0736617 -0.34611583 0.0032000788
000150 d0 04 e4 3d 32 ca 65 3e 6e be 05 be 2c 6d 8f bd
       0.111337304 0.22440413 -0.13060924 -0.07003245
000160 48 24 98 bd 9d 8b 21 3e 2b b4 41 3e 7c 67 30 3d
       -0.07428795 0.15775914 0.18916385 0.04306744
000170 80 36 f2 3c 17 fd e9 bd 48 fd a2 bd 79 80 96 bd
       0.029567003 -0.11425226 -0.07958466 -0.07348723
000180 82 90 fe 3d 18 0b 12 3e 4f 75 b2 bd 9d 41 27 3e
       0.124299064 0.14262044 -0.08713781 0.16333623
000190 2e 28 aa 3d fc 97 92 bc 92 d9 87 bd c8 d3 9f be
       0.08308445 -0.017894737 -0.06633295 -0.31216264
0001a0 65 76 a2 bd a7 7c e4 3c 38 f3 42 3d b9 9b 8e 3d
       -0.07932738 0.02789147 0.047595233 0.069632955
0001b0 4b c2 5f bc 3d 1a ee bd 61 f9 a9 3d f7 d2 65 bd
       -0.013657163 -0.11626098 0.082995184 -0.056109395
0001c0 33 6a 05 be 96 1c 84 3d 1e 2a 91 3c c9 44 b8 be
       -0.13028793 0.06450765 0.017720278 -0.3598998
0001d0 86 b9 0a 3e e1 14 86 3c 8d 9a e5 bc d6 35 1e bd
       0.13547334 0.016367378 -0.028027797 -0.03862556
0001e0 8e 97 8c be 47 30 29 3e 6a 53 2b 3e 73 30 d7 bd
       -0.27459377 0.16522323 0.16731039 -0.10507288
0001f0 00 5f 0a 3d a9 50 0f be 90 9d dd 3b 9a b9 2b be
       0.033782005 -0.13995613 0.0067631677 -0.1677002
000200 bf 3e 42 be 8d b5 9e 3e d1 41 86 3e dc 5a 47 be
       -0.18969248 0.30997887 0.2622209 -0.19468254
000210 c1 79 15 3c 55 31 89 bd 45 2b 2a 3e 97 49 d9 3c
       0.009123267 -0.066988625 0.16618069 0.026524348
000220 2d 4a 95 3d 69 ff 81 3e da 5f 03 bd ab 8f 74 3d
       0.072895385 0.25390175 -0.032073833 0.059707325
000230 fb 9b ab bd 7d 01 58 be 81 d8 6c be e6 a4 e5 bd
       -0.0837936 -0.21094318 -0.23129465 -0.112130925
000240 c6 57 07 3d f4 d2 0c bd 04 44 c3 3d 4f de 6f 3c
       0.03304269 -0.034380868 0.09534457 0.014640405
000250 e0 e8 4d bc 35 fa 5a be ba dc 82 3d 41 b5 28 3e
       -0.012567729 -0.21384509 0.063897565 0.16475393
000260 08 61 80 3e a3 49 f6 3e 10 5a 76 3d 77 14 83 3e
       0.2507403 0.48103055 0.060144484 0.2560155
000270 5c 91 dc bd 89 4d f8 3d 38 69 1e bd 89 e1 c7 3e
       -0.107699126 0.12124164 -0.038674563 0.39039257
000280 07 98 87 bd 4f 1e 40 3e e7 1b aa bc f6 35 f6 bc
       -0.06620794 0.18761562 -0.020765258 -0.030055027
000290 67 81 09 bd d2 55 a9 bd 4b d9 f8 bd 0f 2f 50 3d
       -0.033570673 -0.08268322 -0.1215082 0.05082613
0002a0 1c a8 37 be a3 17 8a 3c 31 93 4e 3d 46 36 45 3e
       -0.17935222 0.016856974 0.05043334 0.19258985
0002b0 b2 ff fc 3d d4 6c ac 3d c7 74 ab 3d 31 3f af bc
       0.123534575 0.08419195 0.08371883 -0.021392437
0002c0 d8 44 a7 3d 88 c8 05 be 91 24 60 bd 4e 92 db bd
       0.08167428 -0.13064778 -0.054722372 -0.10721265
0002d0 76 c0 f0 3e 74 3d 32 3e 09 bb f6 bc a9 95 88 3d
       0.47021836 0.17406255 -0.030118482 0.066691704
0002e0 d7 9f 82 be 94 1f d8 3d 21 e1 84 bd c7 a7 66 bc
       -0.25512573 0.10552898 -0.064882524 -0.014078087
0002f0 3e ad ee 3d 85 8a c5 bd be ef fc 3c 5e 71 94 bd
       0.11654137 -0.09645561 0.030876037 -0.072481856
000300 9e 5e 8d 3e 41 cc c6 3e 3c 7b 85 be e0 ff bd 3d
       0.2761125 0.38827708 -0.26070583 0.0927732
000310 0c 97 a2 3d f6 2e e4 3d 9d 9a 00 3d e0 38 75 be
       0.07938966 0.111417696 0.03139745 -0.23947477
000320 11 38 0a 3e c3 e3 ed 3e c3 c8 b5 bd 59 cc 03 3e
       0.1349795 0.4646283 -0.08876183 0.12870921
000330 fb 7c 4f 3b bf 51 08 3e 31 0a fd 3d 82 58 be bd
       0.0031660188 0.13312434 0.123554595 -0.09294225
000340 cd 08 b7 3c 1c 22 ad 3c 5f cd 9a 3e 59 4a b9 bc
       0.022343064 0.021134429 0.3023481 -0.02261846
000350 ff 61 71 3e a3 31 3c 3e 68 cb dc 3d 0b 12 cd bc
       0.23572539 0.1837831 0.10780984 -0.025033018
000360 ca 7f 5a 3e 74 2e 12 bc a5 4b c9 bb 44 42 dd 3d
       0.2133781 -0.008922208 -0.0061430507 0.10803655
000370 00 0d 62 3c 8d a4 9e 3c e6 41 c9 bc 18 a2 d8 3e
       0.013797045 0.019365573 -0.024567556 0.42311168
000380 ca 04 14 3d e3 0c 05 3e 95 0e ef 3e 9d e9 9e 3e
       0.03613738 0.12993197 0.46690813 0.31037608
000390 47 ab b6 be 13 ba bd bd c6 fc 9a bc ca 44 1e 3e
       -0.3567755 -0.092640065 -0.01891936 0.15455928
0003a0 76 07 bb be d9 ee 6d bd d0 17 d8 bd 76 d1 3a be
       -0.3652913 -0.05808911 -0.10551417 -0.18243966
0003b0 27 74 c5 bd 83 0c 00 3d 25 4d 77 3d 48 1e 4d 3c
       -0.09641295 0.031261932 0.060376305 0.012519427
0003c0 15 db 82 3d df 00 4f be f9 ae 23 3e 84 1b 6a 3e
       0.06389443 -0.20215176 0.15984716 0.22862059
0003d0 60 e8 43 3c 02 74 4b bd f2 70 cd 3d c4 87 83 be
       0.011957258 -0.04967118 0.10031308 -0.25689518
0003e0 ac e9 87 bc d6 70 52 bc 8d 3a 22 3e 76 5a 6f be
       -0.016590916 -0.012844285 0.15842648 -0.23374352
0003f0 6a 11 f9 3d 3d c6 8f 3d 22 74 78 3e 9c 54 2b be
       0.121615246 0.07020233 0.24263051 -0.16731495

onnx::LSTM_183 f4 [1, 256, 64]
000000 b2 05 00 3e 78 64 09 3d 8c 0c 25 3e 73 bd 60 3e
       0.12502173 0.03354308 0.16118068 0.21947269
000010 6c f1 3c 3e 38 6a 34 be 68 41 9c be 80 20 0d 3e
       0.1845147 -0.17618644 -0.3051865 0.13781929
000020 1c 13 b6 3e 49 ab 1f 3c 25 17 08 3e d3 20 93 3e
       0.35561454 0.009745427 0.13290079 0.2873598
000030 eb 69 22 bc 96 d5 62 be 5f 24 59 3e 77 01 d8 3d
       -0.009912948 -0.22151789 0.2120528 0.105471544
000040 2f 6b b8 3d 18 78 89 3d 44 0d 4a 3e e4 2e 61 bb
       0.09004819 0.06712359 0.19731623 -0.0034360224
000050 72 a3 7d 3e 99 17 51 3d ab 3c 7b 3c 0a 29 d9 3d
       0.2476938 0.051047895 0.015334289 0.10603531
000060 52 3f 21 3e 91 30 27 be 5f 57 fd 3c d5 4d fa 3c
       0.15746811 -0.1632712 0.03092545 0.030554691
000070 00 43 d6 bc e3 34 8f 3d a0 39 ca bd a0 66 39 3e
       -0.026154995 0.06992509 -0.09874272 0.18105555
000080 0d 16 07 3e b1 1c 89 3d 56 00 21 be c4 1e 0b 3e
       0.13192005 0.066949256 -0.15722784 0.13585955
000090 66 fd 31 3e 34 90 72 be db 8e 30 be 5b 2e d4 bd
       0.1738182 -0.23687822 -0.17241995 -0.10360404
0000a0 6c 2b 1b bc c2 90 e6 bd 57 19 ab 3d fc 9b e3 bd
       -0.009470802 -0.11258079 0.083544426 -0.11113736
0000b0 5d 1e f9 bd 00 66 56 be 31 53 97 3e fa 2d 14 be
       -0.121639945 -0.20937347 0.29555658 -0.14470664
0000c0 44 d0 0e be dd 8c 44 be 17 21 3d 3e 68 ba fa 3c
       -0.13946635 -0.1919436 0.18469654 0.030606464
0000d0 29 70 45 be 3d a6 6d be da da 2e 3e bf 49 6d bc
       -0.19281067 -0.23207946 0.17075673 -0.0144829145
0000e0 2e f3 80 3e ab a8 f3 3d f7 fe 5a bd 9d b2 31 be
       0.2518553 0.11897405 -0.05346581 -0.17353292
0000f0 d9 de 0f 3d 9f 9e 19 be 20 7d 1a be 93 a1 20 be
       0.035124633 -0.15001915 -0.15086794 -0.15686636
000100 18 83 12 bd 11 5b d8 bd 40 94 31 be ea fb 37 3d
       -0.035769552 -0.105642445 -0.17341709 0.04491798
000110 d2 5a 1d 3e 29 c3 88 bd 06 5b de bd 0c 6a c4 3d
       0.15366676 -0.06677849 -0.10857205 0.09590539
000120 61 6f 03 3e 2d 7f 4d 3e c0 1c 01 be 06 be 70 3c
       0.12835456 0.20068045 -0.12608624 0.014693743
000130 b1 09 fa 3d e1 a4 0a be b3 00 26 bd ce 61 5b 3d
       0.1220888 -0.13539459 -0.04052801 0.05356007
000140 62 e9 91 bd 4d a8 1f 3d b2 64 a7 bc ce b8 21 3e
       -0.07124592 0.038978864 -0.020433757 0.15793154
000150 8c 90 1b 3d e2 e7 43 be 48 63 91 3d 6d 6e a1 3d
       0.037979648 -0.19131425 0.070990145 0.0788239
000160 25 c4 8c 3c a5 9b f9 3b 6c d9 71 3d 88 ec a4 be
       0.017183373 0.007617431 0.05904524 -0.3221171
000170 98 fd e7 3d 0f c8 2a 3e 1d 71 91 be a3 61 c9 3b
       0.11327666 0.16677879 -0.2840661 0.0061456724
000180 0e e5 6a 3e aa 03 78 3e ad 0e 36 be e9 9a 37 be
       0.2293894 0.24220148 -0.17779036 -0.17930187
000190 57 ff 16 be 93 1c 64 3e 4e bc 85 bd a6 59 88 be
       -0.14745842 0.22276525 -0.06530057 -0.26630896
0001a0 95 27 81 bc 9f 45 08 3e 5d ae b6 bd 0d ec 94 bd
       -0.015765944 0.13307808 -0.08919976 -0.072715856
0001b0 af a0 02 be ae 7d f9 3d 3d 59 00 3e af b2 83 3d
       -0.12756608 0.121821746 0.12534042 0.064305656
0001c0 db d9 03 be 10 ca 69 be 85 7a d5 3d 39 d9 ea 3d
       -0.12876074 -0.22830987 0.10423759 0.11467213
0001d0 23 34 7f be af a9 7a be b9 f5 06 3e d8 a9 f1 3c
       -0.24922232 -0.24478792 0.13179673 0.029499933
0001e0 b0 bf 60 3e 3f 5b fe bd b1 6f b1 bd 2a 4d 68 bc
       0.21948123 -0.124197476 -0.086638816 -0.014178554
0001f0 38 78 f1 3d 5c 04 c3 bd fe 9b 71 3d 12 dc 0f 3e
       0.11790508 -0.09522316 0.058986656 0.14048794
000200 33 5b b7 be c8 a9 a9 bd ba 1c 27 be 08 c7 47 3e
       -0.35811767 -0.08284336 -0.16319552 0.19509518
000210 6d a8 93 3e 16 a4 98 3d b5 cb a1 ba b6 cd 54 3e
       0.28839436 0.07453172 -0.0012344035 0.20781597
000220 25 18 56 3e 1f a8 58 3e 9e 0a bc 3e bd 94 8b 3e
       0.20907648 0.21157883 0.3672685 0.27261916
000230 05 30 a1 bd 25 db e7 be 33 e8 29 3e dc f9 55 3c
       -0.07870487 -0.45284382 0.16592483 0.013060059
000240 ae a3 97 be 35 51 03 3e 0f a5 a6 3e 14 a7 f9 bd
       -0.29617065 0.12823947 0.32547805 -0.12190071
000250 23 ce 5d 3c 7f a3 be bd 9f ca 47 3e 1f df 98 3e
       0.013537916 -0.09308528 0.19510888 0.29857728
000260 3d 91 af 3d 3c 90 d2 bd 56 ac cf be 13 ca 57 be
       0.08572624 -0.10281417 -0.4056117 -0.21073179
000270 13 dd b8 bd 52 4d 17 3e be 71 b1 be c8 41 b1 3e
       -0.090265416 0.14775589 -0.3465709 0.346205
000280 4e cd b1 3e 10 77 c2 3e 1b 33 ca bd 6f 30 cd bd
       0.34726948 0.37981462 -0.09873029 -0.100190036
000290 f9 d1 ad bd 8e e5 ba 3d 56 8a c3 bd 6f 92 25 be
       -0.08487315 0.09125815 -0.0954787 -0.16169141
0002a0 03 5c 81 3e 87 ef cd bd c7 ef 49 3e 9c a3 fa 3d
       0.25265512 -0.10055452 0.19720374 0.12238237
0002b0 ce fa 95 be 89 c7 d6 3d bc fb 88 3e 89 3b a5 bd
       -0.2929291 0.10487277 0.26754558 -0.08067996
0002c0 67 cc 8a be 87 87 4f be 0d f1 be 3e 7e 61 b5 3c
       -0.27109072 -0.20266543 0.37293282 0.022141214
0002d0 63 85 8b be 1f fb ac be 85 00 1d be 64 3b 50 be
       -0.27250203 -0.3378534 -0.1533223 -0.20335156
0002e0 41 f5 2e 3e 31 c3 a0 3c 25 a5 84 3d fe 49 3a 3e
       0.17085744 0.019624325 0.06476811 0.18192288
0002f0 3c fb 36 3e 41 0a 47 bd ab ae 40 be 75 ae f9 3d
       0.17869276 -0.048593763 -0.1881663 0.12191478
000300 f2 68 a7 bd 53 27 98 bd 66 18 4d be ab 2a 58 3c
       -0.081743136 -0.074293755 -0.20028839 0.013193767
000310 e2 1b 0d 3e 0d 4a 39 ba c5 3c 30 bd 25 eb 30 be
       0.13780168 -0.00070682244 -0.043026704 -0.172772
000320 1e ad 15 3e 74 46 01 3e ef e8 57 3c 98 de f7 3d
       0.1461682 0.12624532 0.013178094 0.12103003
000330 5d d4 1f be dd 33 a4 bd 75 df 81 3d cd 3d b0 3d
       -0.15608354 -0.08017705 0.06341449 0.086055376
000340 1b bc af 3d e6 54 7a 3c da 16 aa bb 78 ff 90 bd
       0.085808 0.01527903 -0.0051907124 -0.07079977
000350 09 66 be 3c 53 a3 34 3c 6a b2 28 3e ee 66 e1 3d
       0.023242014 0.011025268 0.1647431 0.110059604
000360 de 53 ae 3d 29 39 d9 bc 25 f7 80 bd 0a 92 04 be
       0.0851209 -0.026516514 -0.06297139 -0.12946334
000370 5b bb b3 3d 82 4e 44 bd 57 61 8e be a9 6a 09 3d
       0.087759696 -0.047926433 -0.2780864 0.033548985
000380 fa b0 30 3e be b5 01 3e 58 1c db bd af 82 8c be
       0.17255011 0.12666985 -0.106987655 -0.27443454
000390 1d e1 17 be 9f ed 0d 3e 27 3f df bd 83 1a e4 bd
       -0.14831968 0.13860177 -0.10900717 -0.11137869
0003a0 d8 48 d1 3d c1 6d c0 3d ca 9a 14 3d 7f e7 bc bd
       0.10218972 0.09395934 0.03628043 -0.09223842
0003b0 47 a7 65 be c3 fa d0 3d 3c f6 06 3a 4b ae 2a bd
       -0.22427092 0.10204079 0.0005148386 -0.041670125
0003c0 50 79 72 be fa a0 ba bd 30 37 85 3d db 68 d1 3d
       -0.2367909 -0.09112735 0.06504667 0.10225078
0003d0 3c 6c 85 be 43 6b 1a be b8 52 2a bc fe 4f 01 bd
       -0.2605914 -0.1507998 -0.010395698 -0.031570427
0003e0 20 db 27 3e 96 62 f3 3c 16 49 6e bc fa 5a e9 bd
       0.16392183 0.029710095 -0.014543792 -0.113943055
0003f0 d0 99 16 3e c0 40 f9 3d 21 3b 25 bc 7f b7 41 bd
       0.14707112 0.12170553 -0.010084898 -0.047294136

onnx::LSTM_184 f4 [1, 512]
000000 9e 11 d8 3d 0b 8b 12 3e c8 80 b5 3e db 63 1e 3e
       0.10550235 0.14310853 0.35449815 0.1546778
000010 c1 35 e0 bc ba 6d 11 3e 38 bb c1 3e b0 72 8e 3e
       -0.027369382 0.14202014 0.3783815 0.27821875
000020 a1 3d b5 3d 99 91 da 3e 5e 35 1c 3e 12 e3 06 3c
       0.088496454 0.42689207 0.15254733 0.008232849
000030 c8 dc 22 bd e9 de c3 3d 1e dc 3d 3e cb da e8 3c
       -0.039761335 0.09564001 0.18541 0.028424641
000040 2b 74 d4 3c 6e 89 88 3e 37 99 9d 3e 5b 59 07 3e
       0.0259343 0.2666735 0.30780956 0.1321768
000050 5e b7 a4 3e 3a 48 e8 3e 11 6e b7 3d 7a 7b 62 3e
       0.32171148 0.45367604 0.089565404 0.22117415
000060 22 d9 29 3e e4 ff fb 3d 9f e2 c4 3e 41 01 56 3e
       0.16586736 0.12304667 0.38454148 0.20898916
000070 77 40 79 bb 3c 6b 96 3e a7 dd ab 3d bd f1 66 3e
       -0.0038032809 0.29378688 0.08391886 0.22553153
000080 fd 2b 83 3d 87 05 8c 3e 68 29 30 3e e7 43 f0 3e
       0.064048745 0.27347967 0.17203295 0.46926805
000090 8f f2 8f 3d 7e f8 12 3e 58 67 5d 3e ad b0 23 3e
       0.07028686 0.14352605 0.21621454 0.15985365
0000a0 b9 d4 5d 3e 02 e0 2f 3d a8 55 18 3d 6c 5a b6 3e
       0.21663179 0.04293824 0.037191063 0.3561586
0000b0 93 6b 21 3e 5b d2 d6 3e 18 3c be 3c ce 0b 04 be
       0.15763693 0.41957363 0.023222014 -0.12895128
0000c0 57 b5 c3 3e 03 6d 66 3d 90 80 44 3d 7d 2b 1f 3e
       0.3822429 0.056256305 0.04797417 0.15543933
0000d0 e0 78 4a 3d 11 db d1 3d d6 24 34 3e eb 82 26 3e
       0.04943168 0.10246862 0.17592177 0.16260879
0000e0 47 f5 60 3e 27 8d 90 3e d0 59 7a 3e f6 7f c0 3e
       0.21968566 0.2823269 0.24448323 0.37597626
0000f0 9c 70 aa 3e 40 69 c0 3e 36 57 da 3e ab 71 88 3d
       0.3328904 0.375803 0.42644662 0.066623054
000100 2b e4 36 3e 35 1c dc 3d 7d 5b bf 3e 5d ba d8 3d
       0.17860477 0.107475676 0.37374488 0.10582421
000110 cc e6 1c 3c 91 67 48 3e 34 fd b4 3e bd d9 2a 3e
       0.009576511 0.19570757 0.3534943 0.16684623
000120 29 a6 78 3e 65 1a 9d 3e f7 c0 a9 3d 17 73 96 bd
       0.24282135 0.306842 0.08288758 -0.073461704
000130 7e fe f1 bc d9 5e c2 bc 4c 84 21 3d 94 df 90 3c
       -0.029540297 -0.023726868 0.03943281 0.017684735
000140 db a3 04 3e 20 4a 42 3e e8 66 39 3e 81 b5 46 3e
       0.12953131 0.18973589 0.18105662 0.19405176
000150 10 5a 07 3e e9 27 f9 3e 19 e5 15 3d 26 22 dc 3e
       0.1321795 0.48663262 0.036595438 0.42994803
000160 fc 24 8d 3e 40 fa 2d bd b4 d2 95 3e f1 02 e8 3d
       0.2756728 -0.042474985 0.29262316 0.11328686
000170 1b 53 20 3e 98 80 79 3d cb 5e 5c bc 2c ba 5f 3e
       0.15656702 0.060913652 -0.013450335 0.21848363
000180 54 ea 28 3e b3 02 a8 3e 09 af 47 3d 72 de 0a 3f
       0.16495639 0.3281456 0.04875091 0.54245675
000190 cc b7 13 3d ca 4d d2 bc aa b0 6d 3e f5 d8 1f 3e
       0.036063954 -0.025671858 0.23211923 0.15610106
0001a0 66 00 5a 3e 18 84 ea 3a 81 67 f7 3c 64 39 8b 3e
       0.21289214 0.001789215 0.030200722 0.27192223
0001b0 c6 7e 47 3d d6 79 de 3e 8c 9b 79 3d 91 7c e3 3c
       0.048704885 0.43452328 0.060939357 0.027769359
0001c0 11 ab c3 3d 2c f5 0e 3e 01 e1 5c 3c 89 d8 ec 3d
       0.09554113 0.13960713 0.0134813795 0.11564738
0001d0 d9 b3 87 3d ab cb d2 bc cf 9f 10 3e 8b 56 11 3e
       0.066261 -0.025731882 0.14123462 0.1419317
0001e0 b9 3a e5 3d cc b2 a9 3e 48 ac 91 3e 5b 59 e8 3e
       0.11192841 0.33144224 0.28451753 0.45380673
0001f0 7c b1 6f 3e a7 0a cd 3e b2 53 a2 3e 57 da 83 3d
       0.23407549 0.4004719 0.3170448 0.064381294
000200 d7 42 01 be 54 af b6 bd c5 db 81 be 2c 50 8d bc
       -0.12623154 -0.0892016 -0.25362983 -0.017250143
000210 33 d3 02 be ff 8e aa bb 3e 45 a1 be ba 74 37 be
       -0.12775879 -0.0052050347 -0.3149814 -0.17915621
000220 40 f3 35 3e e6 a3 b4 be e5 9c 2c bd 96 7b a6 bd
       0.17768574 -0.35281295 -0.042141814 -0.08129041
000230 32 19 0c 3e 12 da c5 3c 89 78 85 3c c4 74 97 bd
       0.13681486 0.024151836 0.016292827 -0.07395318
000240 9b 1d 7c 3d 84 a4 4d bd 3b 08 12 be bd a0 c2 bd
       0.06155167 -0.050205722 -0.14260952 -0.09503315
000250 ea c4 5c be aa 6e 33 be 7f b2 03 3d c3 16 00 be
       -0.21559492 -0.17522684 0.03215265 -0.12508683
000260 8d a9 62 bd 03 aa 67 3d e7 d3 55 be 44 be 98 bb
       -0.055337477 0.05655862 -0.20881616 -0.0046613533
000270 a1 47 2b 3e f7 95 9d be f6 b5 7a bd a7 34 58 be
       0.16726543 -0.30778477 -0.061208688 -0.21113835
000280 3b 4c 33 3d 82 4b 84 be 64 df bf 3d 69 a2 ba be
       0.04377387 -0.25838858 0.0936878 -0.36452034
000290 d4 c8 e7 38 89 01 9e 3d d9 64 3f be 6b 63 1f bd
       0.000110523455 0.077151366 -0.18690814 -0.03891317
0002a0 34 e6 75 3b 0f b2 c4 bd cc 42 b1 3d 7c 37 26 be
       0.0037521245 -0.096042745 0.086553186 -0.16232103
0002b0 3c 80 20 bd e3 f5 8e be 8e 87 ff 3a 80 ef 92 bb
       -0.039184794 -0.27921972 0.0019495354 -0.004484117
0002c0 95 54 62 3d 66 95 55 bc ee 01 ca 3c 3c e5 5e be
       0.055256445 -0.013036108 0.024659123 -0.21767133
0002d0 2a d5 36 3e 7c 39 1a 3e 9c ad b7 3d 8a ca 63 3d
       0.17854753 0.15060991 0.0896866 0.05561308
0002e0 5a 2f 2f be 10 48 80 be 39 03 80 3c f5 3e 17 be
       -0.17107907 -0.2505498 0.015626537 -0.1477011
0002f0 dc ba 17 3b a0 56 76 b9 68 ba 81 bd 87 51 07 3e
       0.0023152148 -0.00023492659 -0.06334382 0.13214694
000300 74 88 b4 bd 06 07 c9 3d 4e fd e0 bd 1b 96 9f ba
       -0.08815089 0.09815793 -0.10985814 -0.0012175472
000310 9f 12 0b 3e 7c 23 1a be fc e0 8d bd 1a c4 6a 3d
       0.13581322 -0.15052599 -0.06927678 0.057315923
000320 2f 32 c8 3d 5c 34 f4 bd 68 b8 ef bd 35 38 ae 3d
       0.09775197 -0.11924049 -0.117050946 0.085068144
000330 94 05 01 be d6 78 37 be 24 90 3f 3d b2 c3 ac 3d
       -0.12599784 -0.17917189 0.046768323 0.084357634
000340 49 de 70 bb 30 4e 27 3e 83 3d ce 3b 76 3c c8 bd
       -0.0036753586 0.1633842 0.006293954 -0.09777157
000350 68 e7 ad bc 96 81 ba 3d b0 aa b8 bc 5c 0a 97 bc
       -0.021228507 0.09106748 -0.022542328 -0.018437557
000360 10 8c 77 3d 52 44 a7 bd 10 7a 43 3c 8e 77 d7 bd
       0.06043631 -0.08167328 0.011930957 -0.1052085
000370 e8 9e b9 3d 75 89 3b bd 38 13 19 be 8c ec eb 3d
       0.09063512 -0.045785386 -0.14948738 0.11519727
000380 08 9e a0 3d 41 97 c5 3d 44 30 bc bd c4 9c 87 3c
       0.07842642 0.0964799 -0.091888934 0.016554244
000390 0b b9 01 3d f1 bd 91 3d 70 06 d7 bd 00 f7 ba 3b
       0.03167061 0.071163066 -0.10499275 0.005705714
0003a0 37 87 6a 3d 1b 7a cb bd 70 a8 85 bc 43 2c 35 3d
       0.057257857 -0.09935399 -0.016315669 0.044231664
0003b0 9c 6d 0a be 98 28 65 bd 38 77 41 bd 56 fa 9b bc
       -0.13518375 -0.055946916 -0.047232836 -0.019040268
0003c0 a8 05 97 bc e9 50 d3 bd e6 bb ae 3d 48 d5 b9 bd
       -0.018435314 -0.10318167 0.085319325 -0.09073883
0003d0 72 3d 47 be e7 b4 95 bd c4 be be 3d d9 00 3c bd
       -0.19457033 -0.07309895 0.093137294 -0.045899246
0003e0 fe 08 db 3d f4 4c 2c 3d 06 3c 81 bd fa f6 ee bc
       0.106950745 0.042065576 -0.06310277 -0.029170502
0003f0 22 78 c8 3d 6e 45 c2 bd aa 8a 94 bb 13 07 81 3d
       0.097885385 -0.09485899 -0.0045331316 0.063001774

onnx::LSTM_202 f4 [1, 256, 64]
000000 16 bd fb bd c5 d1 08 3d 14 fd 6a 3e d3 98 9d bd
       -0.12291925 0.033403177 0.22948104 -0.076951645
000010 8c 4d 15 be e5 8b 14 be 57 0f 9f be 4f d9 60 be
       -0.14580363 -0.1450649 -0.3106639 -0.21957897
000020 2c dc f9 3d f5 ef 6d be fb 97 7c 3e c0 83 3e 3e
       0.122001976 -0.23236068 0.24667351 0.18604946
000030 e1 c1 36 3d 59 69 74 bd 90 e6 da 3c 8a 09 1e 3e
       0.04461849 -0.05967078 0.026721269 0.15433326
000040 52 41 89 bd 9f ec 46 3e 97 96 c4 3e 82 93 07 be
       -0.06701912 0.19426201 0.3839614 -0.13239864
000050 38 01 16 3e c9 31 9e 3e 03 73 15 3d ea e4 26 be
       0.14648902 0.30897358 0.036486637 -0.16298261
000060 4f 9e 52 3c e7 2a b5 bc b1 3a ac 3e a9 ac b9 bd
       0.0128551265 -0.022115184 0.33638528 -0.090661354
000070 a9 64 36 bd fe 67 fc be d8 9a a1 3a 8d c8 69 be
       -0.04452959 -0.4929809 0.0012329472 -0.2283041
000080 ec 38 81 3e cf 95 81 be 5a 42 f8 3d aa e9 a0 3e
       0.2523874 -0.25309607 0.121220306 0.31428272
000090 49 9d 3c 3d 83 22 1c be e8 7f 8e 3e c7 cb 26 3e
       0.046048436 -0.1524754 0.2783196 0.16288672
0000a0 ee 27 f2 bb ac 1e 88 bd 3c d4 36 3d f0 89 b3 bd
       -0.007390014 -0.06646475 0.044635996 -0.08766544
0000b0 6c df 9a 3d ee 16 b0 be 3d 27 e6 3d 1b da 5c bc
       0.075621456 -0.34392494 0.11237953 -0.013479735
0000c0 bf dd 12 bc ba 27 49 bd ac c1 32 3d eb fd 6c be
       -0.008964001 -0.04911015 0.04364173 -0.23143737
0000d0 dc 32 25 3d 3c a1 9e bd f5 3c bf bd e6 46 db 3d
       0.040331706 -0.07745597 -0.093377985 0.10706882
0000e0 78 d5 70 be d2 45 ad 3e a7 9a a8 bd 79 fc 95 be
       -0.23518932 0.3384233 -0.082326226 -0.29294184
0000f0 70 a5 7a bc 45 62 a7 be 8f fb 61 3e d8 ab 7b bb
       -0.015298232 -0.3269216 0.22068618 -0.0038401987
000100 e5 d3 a9 bd 82 e5 88 3d 33 58 69 3e 3b 86 53 3e
       -0.08292369 0.066844 0.22787552 0.20656674
000110 d4 cf a3 3c 94 1b 6d 3d a0 70 b8 be a8 9f b2 be
       0.019996561 0.05788763 -0.36023426 -0.34887433
000120 b9 b5 e5 3d ae 39 8d be 3f b0 18 3e 69 ab 08 3d
       0.112163015 -0.2758307 0.14910983 0.033366594
000130 1e cc f7 bd aa 51 07 be 66 69 e1 ba ae 1f e0 3e
       -0.12099479 -0.13214746 -0.0017197549 0.4377417
000140 70 35 4d be ce d2 04 3c 7c 10 c4 3e 49 c5 e0 bd
       -0.20039916 0.0081069 0.38293827 -0.10975129
000150 44 4f 59 3d 18 37 a6 3e 1b 95 3f bc d8 39 94 be
       0.05305411 0.32463908 -0.011693264 -0.2895038
000160 04 7b 3e 3c 66 62 20 be 9a d4 4c 3e 6e 2d eb bd
       0.011626009 -0.15662536 0.20002976 -0.114832744
000170 2e e1 a4 bb 78 c3 bd be 8f 52 08 be 6b a9 fe bd
       -0.0050317263 -0.37063193 -0.13312744 -0.12434658
000180 4f d1 39 3e a7 31 77 be 43 89 4b 3d 01 c1 0b 3f
       0.18146251 -0.24140035 0.04969145 0.54591376
000190 84 5f 9e 3c 0d f5 2c bd fa 22 6b 3e 96 aa 45 3e
       0.019332655 -0.042225886 0.22962561 0.19303355
0001a0 12 ad 56 bd 03 79 e9 bc a9 a0 8d 3d 56 79 ca bd
       -0.052411146 -0.028500086 0.06915409 -0.09886424
0001b0 08 23 b8 3d 1f 00 a3 be 73 90 a8 bd 2a be 41 bd
       0.08991057 -0.3183603 -0.082306765 -0.047300495
0001c0 9f d9 70 be 34 58 05 be b8 11 03 3e 30 ae 13 be
       -0.23520516 -0.13021928 0.12799728 -0.14421916
0001d0 e9 57 6c 3c 8f f2 03 3b 9e 7e ab bd 33 b3 18 be
       0.014425256 0.002013359 -0.0837376 -0.14912109
0001e0 47 58 94 be 57 69 88 3e 9b 45 13 3e 83 6e d2 be
       -0.289736 0.26642868 0.14382021 -0.4109994
0001f0 64 c8 0a be 44 f2 3c be 0b 00 91 3d 81 30 44 3e
       -0.13553005 -0.18451792 0.07080086 0.19159128
000200 7c d0 eb 3c 7a 2b e8 3d 0c 5d fa 3d 61 61 88 3d
       0.028785937 0.113364175 0.122247785 0.066591986
000210 b9 b3 9b bd 5d 70 7d bd 22 97 0e be 40 7f 0e 3e
       -0.07602639 -0.061874736 -0.1392484 0.1391573
000220 6c 84 8d bd 4f 26 7b be 47 24 e0 3c e4 64 b6 3e
       -0.06910023 -0.24526332 0.027361048 0.35623848
000230 50 09 a8 3d 50 f1 e2 3d f0 cd 4f 3e b9 d0 02 3c
       0.08204901 0.11081183 0.20293403 0.007984334
000240 45 c5 d5 3d 0c b2 98 3d f6 86 80 3e 4e 85 97 be
       0.10438017 0.07455835 0.25102967 -0.2959389
000250 d8 1e f8 3d 64 ab 68 3e e3 54 04 3e cf 6a 20 3c
       0.12115258 0.2272163 0.12923007 0.00979109
000260 87 5a 16 3e 17 19 0f be 47 9e 30 3d e8 40 a2 bc
       0.14682971 -0.13974415 0.043119695 -0.01980634
000270 09 cd b4 bd 7a db ae bb 5a 86 c5 3d 22 f7 9d 3e
       -0.0882817 -0.0053362222 0.09644766 0.3085261
000280 97 2e 56 3d 64 92 34 be 18 37 ac bd 58 d2 23 3d
       0.052290525 -0.17633969 -0.08408946 0.03999552
000290 80 6f c5 3c 15 90 a5 bd fd c0 2f be c3 f2 4f bc
       0.024101019 -0.08084122 -0.17163463 -0.012692156
0002a0 23 df b3 bd 4c cd 99 be 64 d4 b8 3d e9 43 13 bd
       -0.08782794 -0.30039442 0.09024885 -0.035953436
0002b0 f5 59 34 3e 1f 10 b4 bc 52 cf 21 3e 0f bf 13 3e
       0.17612441 -0.021980343 0.15801743 0.14428352
0002c0 68 e7 54 3d b3 ee cb bd 47 41 b7 bb 81 fc 6d 3c
       0.0519785 -0.09957638 -0.0055924985 0.014525534
0002d0 d6 33 a5 bd 2a 28 1c 3e fa 3f 16 3e 31 8a ef 3d
       -0.080665275 0.15249696 0.14672843 0.1169628
0002e0 d5 55 c4 3d 14 7f 9e 3c 71 ea 57 3b ce 87 16 be
       0.09586684 0.019347705 0.0032946134 -0.14700243
0002f0 a9 59 92 bd df 88 25 be 80 46 c9 bd 89 e7 24 3b
       -0.071460076 -0.16165493 -0.098279 0.002516242
000300 a1 89 29 be 1c 4f 26 bc fa 21 c6 3d 66 66 3e 3e
       -0.16556408 -0.010150697 0.09674449 0.1859375
000310 87 b5 c1 3d bb 6c ce bd a6 70 3a 3d 00 c6 73 3d
       0.09458452 -0.100793324 0.045517586 0.059515
000320 16 42 19 3d fc b7 e8 3c 94 40 04 3e db c2 d3 3d
       0.03741654 0.028408043 0.1291526 0.103399
000330 44 3b eb 3d 4e 71 23 be 59 fb 0a 3e 52 f1 9d bd
       0.114859134 -0.15961191 0.13572444 -0.07712044
000340 d4 fe bc 3d f2 e9 46 3e f2 96 a7 3d 92 6c 55 3d
       0.09228292 0.1942518 0.081830874 0.052105494
000350 0b 15 16 bd ff e0 85 bd ac 8f ca 3d 69 33 eb bd
       -0.036641162 -0.06537055 0.098906845 -0.11484415
000360 39 4b 58 3e 17 2a f4 bd 4c c3 c2 bd 8a 5e d2 bd
       0.21122445 -0.119220905 -0.09509906 -0.10271938
000370 83 9e 54 bd e6 e9 63 bd 43 00 23 bd 12 8f 2c 3d
       -0.05190898 -0.055642985 -0.03979517 0.04212863
000380 a9 36 a5 bc 7b f1 9f bd 31 89 36 3d 5a 6e 5c 3c
       -0.020167666 -0.078097306 0.04456443 0.013454044
000390 70 e7 46 be b1 21 79 3e d6 b5 0e be 14 81 4f be
       -0.19424224 0.24329259 -0.13936552 -0.20264083
0003a0 98 3c bb bc 5f dc f0 bd 37 ba 70 bd c9 b9 80 be
       -0.022856042 -0.117607825 -0.05877134 -0.25141743
0003b0 a9 6f 84 bc f5 9f d5 bd 49 f2 4e bc 30 c8 2f be
       -0.016166525 -0.104309 -0.0126310075 -0.17166209
0003c0 95 46 1c 3e 30 ee e5 bd 8a 24 b7 bc af 9a b2 3d
       0.152613 -0.11227071 -0.02235629 0.0872091
0003d0 72 2c a0 3d 6b c0 c0 3d f9 fe 3f 3e f6 8b d9 bd
       0.07820977 0.09411701 0.18749608 -0.106223986
0003e0 3c b1 61 3d ba b2 1a 3e 57 6b 9c 3c 25 8d b6 bd
       0.055100664 0.15107241 0.019094152 -0.0891364
0003f0 d3 68 3d be 03 4e f8 bd 50 ee 31 be a8 34 5d bd
       -0.18497019 -0.121242546 -0.17376065 -0.054005295

onnx::LSTM_203 f4 [1, 256, 64]
000000 6a 76 64 3d b6 e9 24 bd 92 2f 1c bd 80 8e 12 bd
       0.05577699 -0.040261947 -0.038131304 -0.03578043
000010 28 6e 08 be 18 51 61 3e 55 28 ff bd 99 26 de 3d
       -0.13323271 0.22003591 -0.124588646 0.10847206
000020 e6 14 d5 3d cf af 28 3e 8d dd 3d be cc ed 47 3e
       0.10404377 0.16473316 -0.18541546 0.19524306
000030 63 17 93 be 91 4f 3f 3e d7 4c f8 bd 7a 44 12 be
       -0.2872878 0.18682696 -0.12124031 -0.14283934
000040 4e 49 26 3d d5 22 08 bc ea 90 fc bc 77 d9 1f bd
       0.040597253 -0.008309086 -0.03083082 -0.03902575
000050 9a c7 14 be ce a4 ba 3d 71 77 18 be 6d 60 9a 3d
       -0.14529267 0.09113465 -0.14889313 0.07537923
000060 54 c1 09 bd 11 44 60 3e fa 27 13 be bf ae b5 3d
       -0.033631638 0.21900965 -0.14370719 0.08871221
000070 f8 a2 45 3d 61 48 7b bd 07 9e d4 bd 03 fc dd bd
       0.048251122 -0.061348323 -0.10381704 -0.10839083
000080 8b ef cc 3d 32 35 d0 3c 9c ee 87 bc 3e 4f 6f 3e
       0.10006627 0.02541599 -0.01659327 0.23370072
000090 4f 20 7d bd c1 e2 04 be 45 46 1a bd 6f 0e 53 be
       -0.06179839 -0.12977125 -0.03766467 -0.20610975
0000a0 3b 03 c2 bd e1 df ac 3c de 43 4a 3c 5f 0c 9a bd
       -0.094732724 0.021102848 0.012345282 -0.07521891
0000b0 86 64 1a 3e e1 33 1f be ab cd 61 3e 76 cd 1e 3c
       0.15077409 -0.15547134 0.22051112 0.00969254
0000c0 db f1 e9 bd 0c e6 95 bd c7 b3 8c bd 57 a6 a0 3d
       -0.114230834 -0.073192686 -0.06870227 0.07844227
0000d0 7d 03 4e 3c da fb f8 3b 14 15 80 3d 20 f7 29 be
       0.012574074 0.0075983824 0.0625402 -0.16598177
0000e0 10 97 1f bd fe 7c 85 3d 44 c9 56 3e f1 79 a4 bc
       -0.038962424 0.06517981 0.20975214 -0.020077677
0000f0 11 76 0a be d2 2f 61 3e 04 14 29 3e 52 e5 8c bd
       -0.13521601 0.21990898 0.16511542 -0.06879677
000100 b5 67 47 3d d4 29 d4 bc bf d9 9e bd 9b 3e 13 3e
       0.048682887 -0.025898851 -0.077563755 0.14379351
000110 87 15 ed bd fc 8f 70 3e 05 84 74 be 5f 7e 5f 3d
       -0.11576372 0.23492426 -0.23878486 0.054563876
000120 a5 e5 65 bd 22 2e 12 be 70 a1 84 be 2d 38 19 3e
       -0.05612721 -0.14275411 -0.25904417 0.14962836
000130 18 34 5b be ca 4c 9c 3c 81 45 9a bd 46 ad ab bd
       -0.21406591 0.019079585 -0.07532788 -0.08382659
000140 79 6f d4 bd 49 7f c0 3d eb 41 ee 3d ae 78 fa 3d
       -0.10372824 0.09399278 0.116336666 0.12230049
000150 82 ce 70 be 62 f7 89 bd 77 29 96 bd b6 c3 a6 3d
       -0.23516276 -0.06736638 -0.073321275 0.08142798
000160 a3 ab c9 3d 1f b2 5f 3d c6 27 3f be 4d e8 b6 3d
       0.0984719 0.05461323 -0.18667516 0.089310266
000170 a8 bb c1 3c 90 a5 0e be 4f 88 0e 3e c3 9b 91 3a
       0.023649052 -0.13930345 0.13919185 0.0011109043
000180 c4 14 02 be 86 1f 69 be 48 6e 5a be e8 f3 d1 3c
       -0.12703234 -0.22765931 -0.21331131 0.025628999
000190 76 a7 08 3a 13 ad 97 be 97 46 38 be e7 e8 94 be
       0.0005212942 -0.29624233 -0.17995678 -0.2908394
0001a0 82 40 ad bd fe 4c ca bd 1b 90 47 3d d7 43 84 3d
       -0.084595695 -0.09877966 0.048721414 0.06458252
0001b0 38 a6 a3 3c 32 fe 5b bd c4 f1 ef 3d 52 0b 86 be
       0.01997672 -0.053709216 0.11716035 -0.26180512
0001c0 c7 73 84 be f9 a5 86 bd 15 e5 89 3d 76 ef 11 bd
       -0.2586958 -0.065746255 0.06733147 -0.03562876
0001d0 26 38 fc bd 23 8d 84 bd f4 c4 3f be 9b c1 08 be
       -0.12315397 -0.06472232 -0.18727475 -0.13355105
0001e0 cc 2f 5b bd b4 f3 aa bd a1 3a 50 3e 8d 00 57 bd
       -0.05351238 -0.08347264 0.20334865 -0.05249076
0001f0 1c 98 d4 bd 7b 7c e6 3d 20 be 29 3d f4 8c 24 3e
       -0.10380575 0.112542115 0.041441083 0.16069394
000200 4e 48 ef 3c 6a 83 1a 3a 48 5b dc 3c 23 26 52 bd
       0.029209282 0.0005894216 0.026898995 -0.0513059
000210 fa fe 81 bd 75 54 7b bc fc 9e d2 bc d0 94 17 bc
       -0.06347461 -0.01533996 -0.025710575 -0.009251788
000220 e3 82 77 bd 0f 27 06 3e a9 e4 b3 3c f3 da 34 3c
       -0.060427558 0.13100837 0.02195962 0.01103853
000230 c4 ae da bd 0a 54 84 3c aa d6 1a 3b ef b9 32 3d
       -0.10677865 0.016153354 0.0023626485 0.04363435
000240 21 ee ca bc d9 5d e5 bd 13 3d 28 be 85 ac c5 3d
       -0.024771752 -0.11199541 -0.16429548 0.09652046
000250 d7 f7 a4 3d 5e 99 2b be 7d ee 2d 3e e7 b2 f9 3c
       0.08055084 -0.16757724 0.16985507 0.030480815
000260 b1 e9 0e be 32 8e c5 3d 2b 7e 9a 3c 48 4f 16 3d
       -0.13956334 0.09646262 0.01885899 0.036696702
000270 a1 87 d4 3d eb 6d d7 bd 22 7d 0f 3e f1 c9 59 3c
       0.10377432 -0.10519012 0.14012578 0.0132927755
000280 1a 5d ac bc f1 1a 0a bd 06 15 14 be b0 cf 5e 3e
       -0.021040488 -0.0337171 -0.14461145 0.21758914
000290 e7 17 85 3d d2 de 99 3a 85 d4 09 bb 68 86 89 3d
       0.064987 0.0011739379 -0.0021031213 0.06715089
0002a0 1b 7d d1 bb ec 0e 0b be 62 b0 d9 3d b6 47 57 bd
       -0.0063930876 -0.13579911 0.106293455 -0.052558623
0002b0 67 25 92 3a 60 89 18 3e db 51 30 3e 82 f8 df bd
       0.0011150063 0.14896154 0.17218725 -0.10936071
0002c0 9b 4d 09 bd 86 3b 12 be 4f 15 43 3d 8b 55 58 3c
       -0.033521276 -0.14280519 0.047627743 0.013203989
0002d0 b2 d3 bb 3d 7c 89 3e bd 97 e5 04 3e 6a f2 32 3d
       0.09171237 -0.046517834 0.12978207 0.043688215
0002e0 fb 12 4e 3c 12 bf 11 3e ac ea 1b 3d 01 d2 20 be
       0.0125777675 0.14233044 0.038065597 -0.1570511
0002f0 97 ac 83 be 60 e4 14 be 62 d7 8f 3c 7c 1a 85 bd
       -0.25717613 -0.14540243 0.017558757 -0.06499192
000300 ee 17 c4 bc 34 a1 14 3c a8 dc d8 3d 2b 17 38 3e
       -0.023937192 0.009071637 0.10588962 0.17977588
000310 43 cb 9b bd 59 20 aa 3c 9f 04 62 bc 81 c5 b8 3d
       -0.076071285 0.020767378 -0.013795047 0.09022046
000320 3c 4c 84 bc 62 b8 86 bd 71 68 4a 3d 35 d0 d5 3d
       -0.016149633 -0.06578137 0.04941601 0.10440103
000330 2e 69 c4 bc 70 fe b9 ba 2f 9a f1 bd c3 e0 ad bd
       -0.023975935 -0.0014190208 -0.11796986 -0.084901355
000340 44 f8 53 bd 26 04 0f 3d 7e 25 3c 3d b3 46 2d 3c
       -0.051750436 0.034916066 0.045934193 0.010575938
000350 4b ab 74 3e 30 fd cb 3c 86 54 26 be 7a c9 46 3d
       0.23893468 0.024901003 -0.1624318 0.048531987
000360 1f ed aa be 03 9c 9e 3d 15 77 84 3d d9 94 b8 bc
       -0.33384034 0.077446006 0.064680256 -0.022531914
000370 9a e3 38 3d f7 90 45 be c7 fe ba 3b fb da a7 3c
       0.045138933 -0.19293581 0.0057066414 0.02049016
000380 7e f0 dd bd 1c 81 9e 3b 52 37 ea bd 9d bb 39 be
       -0.10836886 0.0048371684 -0.11436333 -0.18137975
000390 b5 02 3d 3e e4 39 de 3d f0 d8 19 3e 9e 37 6f bd
       0.18458064 0.108508855 0.15024161 -0.05840265
0003a0 ff a5 3f 3e cf df 28 be 8d a3 94 3d e5 b6 37 be
       0.18715666 -0.16491626 0.07257757 -0.17940862
0003b0 a4 53 2c 3d d8 1e 85 3d 26 2f 1f be ec e3 44 3c
       0.042071953 0.065000236 -0.1554533 0.012017231
0003c0 9e 0b cd bd 0c b1 4b be e5 e6 92 3e 0f d9 96 3e
       -0.100119814 -0.19891757 0.28691784 0.29462478
0003d0 2f 70 60 3d 0d ec 11 3e 28 56 1b be 0e b5 aa bd
       0.054794487 0.14250202 -0.15169585 -0.08335315
0003e0 6f ed d9 bc a4 c6 23 3d 78 96 43 bd cf 4f 00 3e
       -0.026602475 0.03998436 -0.04775092 0.12530445
0003f0 d3 15 49 be 69 5c cd bd fd a0 0f bc 73 f3 f1 bb
       -0.19637232 -0.100273915 -0.00876641 -0.0073837577

onnx::LSTM_204 f4 [1, 512]
000000 aa bd d8 3c d4 d6 7c 3e f0 9b 00 3e 0f 89 2f bd
       0.026457626 0.24691325 0.12559485 -0.04285532
000010 cc 6b 4a 3e 0a 65 58 3e 35 04 e7 3d 92 04 d0 3d
       0.19767684 0.21132293 0.11280099 0.10157122
000020 e6 83 9c bd f2 b3 03 3e c8 86 4d 3e ed 0e 06 3e
       -0.07642345 0.12861612 0.20070946 0.13091631
000030 28 55 3c 3b 75 df 4f 3c bc c6 1c 3e 7e b5 45 3d
       0.002873728 0.012687554 0.15310186 0.048268788
000040 73 65 cc 3d 3b 16 0f 3c e6 68 3e 3d d2 7d 16 3e
       0.099802874 0.0087333275 0.046486758 0.14696434
000050 b1 cd f9 3d 41 2f c6 bc 52 73 af 3d 0f f5 bd 3d
       0.12197436 -0.024192454 0.085669175 0.09275257
000060 c3 1e 38 3e a3 49 f0 3d 40 91 82 3e 4b de ad 3d
       0.17980485 0.11732795 0.25501442 0.08489665
000070 98 c1 0a 3e e7 d4 5d 3e b3 1c 44 3d d5 38 49 3e
       0.13550413 0.21663247 0.047878932 0.19650586
000080 76 e2 c6 3d 21 24 4b 3e 64 79 17 3e 2b c7 9b 3c
       0.09711163 0.19838001 0.147924 0.01901587
000090 64 7e 5d 3e 65 0b d4 3d 3d aa 87 3c 56 87 1d 3e
       0.21630245 0.10353736 0.016560668 0.15383658
0000a0 12 2f b7 3d 4f 39 37 3d d1 5f dd 3d 1b 46 81 3d
       0.08944525 0.044732388 0.10809291 0.063122
0000b0 6b 10 66 bc 55 99 00 3e d6 fa 7f bd dd 16 03 3e
       -0.014042 0.12558492 -0.062495075 0.1280169
0000c0 a5 6d 59 3e 93 30 c8 3d 81 f7 93 3d 6f 1b a4 3d
       0.21233232 0.0977489 0.07224942 0.08013045
0000d0 36 ae 01 bd f5 b4 6c 3e 6f 66 6f bc 11 0f 0c 3e
       -0.03166028 0.23115905 -0.014611824 0.13677622
0000e0 ef 52 2b 3d 6a 7c cc 3c 7c 6a 5d 3e 30 28 4b 3e
       0.04182714 0.024961669 0.21622652 0.19839549
0000f0 7e f6 2e bb 91 56 7b bd 5c d3 54 3e fb 25 de 3d
       -0.0026697214 -0.061361853 0.20783752 0.10847088
000100 e2 e9 b2 bc ad 46 68 3e 02 2f f0 3a 38 4e 61 3d
       -0.02184004 0.2268321 0.0018324556 0.055006236
000110 71 bd 33 3d 00 0d 47 3d 2f c2 d3 3d 9d 45 85 3d
       0.043881837 0.048596382 0.10339772 0.06507418
000120 55 6e de bd 43 eb c8 bc 0b eb cc 3d f9 cf 78 3d
       -0.10860888 -0.024526244 0.100057684 0.060745213
000130 31 00 25 bd f9 c5 1e be 44 80 89 3d d5 e2 d2 3d
       -0.040283386 -0.15505208 0.06713918 0.10297171
000140 a5 35 14 3d 1a 8a 14 bc b9 fc 64 3e 20 d6 cd 3c
       0.036183972 -0.009066129 0.22362031 0.025126517
000150 ca 11 02 3d 12 e8 05 be be a9 d5 bc 5f a0 e2 3d
       0.031755246 -0.13076809 -0.026081916 0.110657446
000160 01 33 9d bd 82 ee cc 3d 1b b7 05 3e 04 10 0c 3e
       -0.07675744 0.10006429 0.1305813 0.13677984
000170 ea 95 36 3e df 6f 83 3e cf c5 4f 3e 13 62 2d 3e
       0.17830625 0.25671288 0.20290302 0.16931944
000180 af 5d 36 bd 32 18 37 3e 69 ff b1 3c 20 f0 43 bb
       -0.044522937 0.17880324 0.021728234 -0.0029897764
000190 bd f6 93 3e d1 43 08 3e aa 0d 06 3e f3 02 9f bc
       0.28899184 0.1330712 0.1309115 -0.019410586
0001a0 87 ed be 3c e5 6c 31 3d f1 a2 d0 bd 3c 5e 20 3e
       0.023306621 0.04331674 -0.101873286 0.15660948
0001b0 2c ba 9e 3d eb 2d 0c 3d 00 c8 05 bc db 61 6d 3e
       0.07750353 0.03422348 -0.0081653595 0.2318186
0001c0 70 7e 68 3e fd b0 38 3e 93 46 ce bc 24 23 97 3d
       0.22704482 0.18036266 -0.025180137 0.073797494
0001d0 73 ef 87 bd 1b 74 a6 bc 95 e5 41 bd 8a 47 6e 3d
       -0.06637468 -0.020319035 -0.047338087 0.058173694
0001e0 99 1a 11 3d ea 9d 63 3e 82 50 ff 3b b9 38 b3 bc
       0.035425756 0.22228208 0.0077915797 -0.021877633
0001f0 18 6e 2f bb a8 02 83 3b 33 ea 40 3c 8a 32 74 3d
       -0.0026768502 0.0039981194 0.011774587 0.05961851
000200 02 e0 b7 bd 5d 93 f5 b9 74 6f 71 3d 4c 78 91 bc
       -0.08978273 -0.00046839836 0.05894418 -0.017757557
000210 cf b8 f1 bd 61 4d 48 be 6e 14 e5 bd a6 92 55 3b
       -0.118028276 -0.19560768 -0.11185537 0.003258863
000220 7f 6e 9b bd 92 35 3b 3d 44 de 44 bc 83 4a 89 bd
       -0.07589435 0.045705386 -0.012015883 -0.06703665
000230 3b 0a 0e bd cb 7c b1 bd 55 a4 f4 bd d4 60 60 be
       -0.034677725 -0.086663805 -0.11945406 -0.21911937
000240 09 8c 1a be 50 b2 36 bd 28 53 26 be c8 c8 8e bd
       -0.15092482 -0.044603646 -0.16242659 -0.0697189
000250 2f 47 23 3e 9b 04 69 bd ae 1f 08 3e 10 49 5c be
       0.15945123 -0.056889158 0.13293335 -0.21512246
000260 ab c2 04 3d d0 c0 d6 3d 9a 71 52 bd cb da 6d bc
       0.032412212 0.10485995 -0.05137787 -0.014517496
000270 d8 c7 08 be 74 ba 35 be 38 f1 32 bd 46 ec 22 bd
       -0.13357484 -0.17746907 -0.043687075 -0.03977611
000280 89 a8 18 be 0f aa a4 bd d9 7d 74 be 40 5e 21 3c
       -0.14908041 -0.080402486 -0.23876132 0.009849131
000290 ba 26 94 bd 4d ce 47 be 3a 34 6a bd fb c3 2f be
       -0.07233949 -0.19512291 -0.057178713 -0.17164604
0002a0 b4 36 a6 bb a8 be 08 3d 1b 70 b5 3c cc 64 5b bd
       -0.005072439 0.03338495 0.022148183 -0.053562924
0002b0 a6 69 fd bd b0 75 3a be ab 57 e7 3d 9d ee a1 bd
       -0.123736665 -0.18208957 0.11296018 -0.0790684
0002c0 39 9c 0b be eb 8a 11 bb 39 ab 31 3d 94 cc 65 be
       -0.13633813 -0.0022208046 0.04337618 -0.22441322
0002d0 17 cb a1 ba 06 1b c7 b8 26 0e 16 3c d3 ec d2 3d
       -0.0012343851 -9.494093e-05 0.009158647 0.10299077
0002e0 49 af 4c 3d 83 4e 07 be 8b bf 4a bd ac d5 a4 3c
       0.049971852 -0.13213544 -0.049499076 0.020121418
0002f0 01 2e 26 bc 6c 90 ed bc 8b ca e0 bc a3 c6 9f 3c
       -0.010142804 -0.02899953 -0.02744033 0.019503897
000300 cd cf 92 3d e6 e3 c5 bd a6 43 29 bb aa 04 ab bc
       0.07168541 -0.09662609 -0.0025827675 -0.020876247
000310 8c 0c 32 bd fb 15 4d 3d 35 11 b0 bd d7 21 76 3d
       -0.043468997 0.05006979 -0.08597032 0.060090866
000320 77 60 c0 bc cc 6c f3 bd 32 00 38 3d 2b f0 3b 3d
       -0.023483498 -0.11885986 0.04492206 0.04588334
000330 17 8d 98 bd a4 37 12 bd 9d ab 1b be 3a 9f b3 bd
       -0.07448786 -0.035697594 -0.15202184 -0.087706044
000340 c5 9e c6 3d 0c 93 6d bd 79 5e 5d 3c e4 f6 eb bc
       0.09698252 -0.058001563 0.013511294 -0.02880425
000350 37 60 25 be 08 47 b3 bd 7d 9f c7 bd 73 ae 19 3c
       -0.16149984 -0.087537825 -0.09747217 0.009379971
000360 40 4b d7 3d 58 16 dd 3d 78 b4 1a bd e2 fb 78 3d
       0.105124 0.10795277 -0.037769765 0.06078709
000370 b4 40 44 bd a5 1e 9f bd 94 84 b0 3d b9 b1 8f 3d
       -0.04791327 -0.07769517 0.08619037 0.0701632
000380 df 6a 82 bd 39 e4 95 bc c0 3b db bc 00 07 13 bc
       -0.0636804 -0.018297302 -0.02676189 -0.008973837
000390 63 31 d0 bd e9 36 ac bd 9a 85 cb bc de 0c 89 3d
       -0.1016567 -0.08408911 -0.02484398 0.06691907
0003a0 03 ee 93 3d be 74 8e bd f4 09 f0 3d bc 01 75 bd
       0.072231315 -0.069558606 0.117206484 -0.059816107
0003b0 62 89 00 3d 8c c2 60 3c 3a 89 b8 3d 69 7f 0a be
       0.03138102 0.013718259 0.09010549 -0.13525166
0003c0 5a 18 e3 bd 2d 95 da bd dc ce 03 3e de 25 f6 3c
       -0.11088629 -0.10672984 0.1287188 0.030047353
0003d0 5e e3 73 bd 36 a1 ad 3c 09 10 ac bd a5 2d 21 bd
       -0.059543006 0.021195035 -0.08401496 -0.03935017
0003e0 41 26 20 bd ab 74 f3 3a c2 da 80 3d 94 41 04 3d
       -0.03909898 0.0018574198 0.06291725 0.032289103
0003f0 31 d4 4d 3b 0f e7 c9 bd 7e 32 88 3d d1 fd d5 3d
       0.0031406994 -0.09858524 0.066502556 0.10448802
