models/model_vwap_meanreversion_3min_v3.onnx (onnx, 347419 bytes, 29 tensors)

input_projection.bias f4 [64]
-0.3443525 0.051660057 -0.11739534 -0.21337156 -0.0924709 -0.036767513 0.09896946 0.33299616
0.003036123 -0.2888929 0.38334703 0.0131793 -0.20700735 0.21810856 -0.061542083 0.51912767
-0.4532818 -0.3279778 -0.042615384 -0.16192427 0.040564634 0.16562377 -0.145717 0.30884597
-0.30049032 -0.3504274 -0.13045153 0.036384344 -0.24181879 -0.08647561 -0.11355225 0.06489074
0.5034033 -0.3068708 0.17860718 -0.2109186 -0.07897703 -0.5581359 0.07316354 0.18755162
0.22860518 0.19698703 -0.09146051 0.18861967 0.097270615 0.26068002 0.2722515 0.033750337
-0.2972839 -0.46193737 0.33689857 -0.32387078 0.26561156 0.10712279 0.0012185733 -0.33260342
0.185742 -0.32701924 0.10074468 0.22021222 0.098332435 -0.017668314 0.015390257 0.1282638
00000000: f94e b0be 7f99 533d f86c f0bd 137e 5abe
00000010: 6261 bdbd 8899 16bd 80b0 ca3d 797e aa3e
00000020: b1f9 463b c5e9 93be 1046 c43e feed 573c
00000030: bcf9 53be da57 5f3e 8d13 7cbd 8de5 043f
00000040: 8d14 e8be b5ec a7be 788d 2ebd 7acf 25be
00000050: 1a27 263d 4799 293e d636 15be 0f21 9e3e
00000060: ded9 99be 386b b3be 1695 05be c007 153d
00000070: 589f 77be 201a b1bd 158e e8bd 70e5 843d
00000080: 0adf 003f 2b1e 9dbe cde4 363e 0cfb 57be
00000090: b6be a1bd ffe1 0ebf c4d6 953d 880d 403e
000000a0: 7a17 6a3e f8b6 493e a64f bbbd 8425 413e
000000b0: d135 c73d da77 853e 8c64 8b3e cb3d 0a3d
000000c0: 9835 98be 0e83 ecbe f87d ac3e 64d2 a5be
000000d0: 3dfe 873e 3163 db3d 89b8 9f3a ff4a aabe
000000e0: 2733 3e3e 116f a7be 3a53 ce3d 507f 613e
000000f0: 8462 c93d 24bd 90bc 6b27 7c3c 9657 033e

pos_encoder.pe f4 [41, 1, 64]
0.0 1.0 0.0 1.0 0.0 1.0 0.0 1.0
0.0 1.0 0.0 1.0 0.0 1.0 0.0 1.0
0.0 1.0 0.0 1.0 0.0 1.0 0.0 1.0
0.0 1.0 0.0 1.0 0.0 1.0 0.0 1.0
0.0 1.0 0.0 1.0 0.0 1.0 0.0 1.0
0.0 1.0 0.0 1.0 0.0 1.0 0.0 1.0
0.0 1.0 0.0 1.0 0.0 1.0 0.0 1.0
0.0 1.0 0.0 1.0 0.0 1.0 0.0 1.0
0.84147096 0.54030234 0.68156135 0.731761 0.53316844 0.8460091 0.4093089 0.9123959
0.3109836 0.9504153 0.23492105 0.9720145 0.17689219 0.9842302 0.13295726 0.99112177
0.099833414 0.9950042 0.07491915 0.9971896 0.05620449 0.9984193 0.042157155 0.999111
0.031617504 0.99950004 0.023711512 0.99971884 0.017781857 0.99984187 0.013334819 0.99991107
0.009999833 0.99995 0.0074988706 0.99997187 0.0056233825 0.9999842 0.0042169513 0.9999911
0.0031622713 0.999995 0.0023713715 0.9999972 0.0017782785 0.99999845 0.0013335211 0.9999991
0.0009999998 0.9999995 0.000749894 0.9999997 0.0005623411 0.9999998 0.00042169637 0.99999994
0.00031622782 0.99999994 0.00023713727 1.0 0.00017782794 1.0 0.00013335208 1.0
0.9092974 -0.41614684 0.99748 0.070948265 0.9021307 0.43146282 0.7469035 0.6649324
0.5911271 0.8065784 0.45669332 0.8896242 0.34820527 0.93741834 0.26355368 0.96464473
0.19866931 0.9800666 0.1494172 0.98877424 0.1122313 0.9936821 0.084239356 0.99644554
0.063203394 0.9980007 0.04740969 0.9988755 0.03555809 0.9993676 0.026667267 0.99964434
0.019998666 0.9998 0.014997319 0.9998875 0.011246587 0.99993676 0.008433828 0.9999644
0.006324511 0.99998003 0.00474273 0.99998873 0.0035565514 0.9999937 0.0026670396 0.9999964
0.0019999985 0.99999803 0.0014997876 0.99999887 0.0011246821 0.99999934 0.0008433926 0.99999964
0.0006324556 0.9999998 0.0004742745 0.9999999 0.00035565588 0.99999994 0.00026670416 1.0
0.14112 -0.9899925 0.7782725 -0.6279267 0.9932532 -0.11596616 0.95363444 0.3009673
0.8126489 0.58275366 0.652904 0.7574407 0.5085361 0.86104065 0.3894703 0.92103904
0.2955202 0.9553365 0.22307542 0.9748012 0.16790329 0.9858035 0.12617177 0.9920084
0.094726086 0.99550337 0.071081206 0.9974705 0.053323083 0.9985773 0.039994974 0.99919987
0.0299955 0.99955004 0.022494925 0.999747 0.016869437 0.9998577 0.012650555 0.99991995
0.009486687 0.999955 0.0071140616 0.9999747 0.005334813 0.99998575 0.0040005534 0.999992
0.0029999954 0.9999955 0.0022496805 0.9999975 0.0016870227 0.99999857 0.0012650888 0.9999992
0.00094868336 0.9999996 0.00071141176 0.99999976 0.0005334838 0.9999999 0.00040005625 0.99999994
00000000: 0000 0000 0000 803f 0000 0000 0000 803f
00000010: 0000 0000 0000 803f 0000 0000 0000 803f
00000020: 0000 0000 0000 803f 0000 0000 0000 803f
00000030: 0000 0000 0000 803f 0000 0000 0000 803f
00000040: 0000 0000 0000 803f 0000 0000 0000 803f
00000050: 0000 0000 0000 803f 0000 0000 0000 803f
00000060: 0000 0000 0000 803f 0000 0000 0000 803f
00000070: 0000 0000 0000 803f 0000 0000 0000 803f
00000080: 0000 0000 0000 803f 0000 0000 0000 803f
00000090: 0000 0000 0000 803f 0000 0000 0000 803f
000000a0: 0000 0000 0000 803f 0000 0000 0000 803f
000000b0: 0000 0000 0000 803f 0000 0000 0000 803f
000000c0: 0000 0000 0000 803f 0000 0000 0000 803f
000000d0: 0000 0000 0000 803f 0000 0000 0000 803f
000000e0: 0000 0000 0000 803f 0000 0000 0000 803f
000000f0: 0000 0000 0000 803f 0000 0000 0000 803f
00000100: a46a 573f 4151 0a3f ce7a 2e3f b054 3b3f
00000110: ba7d 083f 0d94 583f f090 d13e c792 693f
00000120: 3e39 9f3e 6b4e 733f 258f 703e f1d5 783f
00000130: 3a23 353e 83f6 7b3f f325 083e 28ba 7d3f
00000140: 7675 cc3d 98b8 7e3f 366f 993d d147 7f3f
00000150: ae36 663d 6898 7f3f fbac 2c3d bdc5 7f3f
00000160: 5b81 013d 3cdf 7f3f a53e c23c 93ed 7f3f
00000170: 42ab 913c a3f5 7f3f 497a 5a3c 2cfa 7f3f
00000180: 57d6 233c b9fc 7f3f 16b9 f53b 28fe 7f3f
00000190: 5a44 b83b f7fe 7f3f 5a2e 8a3b 6bff 7f3f
000001a0: 1c3e 4f3b acff 7f3f 0369 1b3b d1ff 7f3f
000001b0: 2015 e93a e6ff 7f3f 8bc9 ae3a f1ff 7f3f
000001c0: 6d12 833a f8ff 7f3f 8994 443a fbff 7f3f
000001d0: 136a 133a fdff 7f3f 2117 dd39 ffff 7f3f
000001e0: 61cb a539 ffff 7f3f 0da8 7839 0000 803f
000001f0: 5377 3a39 0000 803f 6dd4 0b39 0000 803f
00000200: b7c7 683f 3311 d5be d95a 7f3f 534d 913d
00000210: 0af2 663f b2e8 dc3e 1135 3f3f 0339 2a3f
00000220: 1b54 173f ec7b 4e3f b5d3 e93e 69be 633f
00000230: f647 b23e a6fa 6f3f 82f0 863e f5f2 763f
00000240: f86f 4b3e a5e5 7a3f d300 193e 4f20 7d3f
00000250: 86d9 e53d f361 7e3f af85 ac3d 0e17 7f3f
00000260: c870 813d f97c 7f3f aa30 423d 4eb6 7f3f
00000270: 5ca5 113d 8ed6 7f3f 5075 da3c b1e8 7f3f
00000280: 3ed4 a33c e5f2 7f3f 51b7 753c a1f8 7f3f
00000290: 9b43 383c dbfb 7f3f 0a2e 0a3c abfd 7f3f
000002a0: d83d cf3b b1fe 7f3f e768 9b3b 43ff 7f3f
000002b0: 0815 693b 96ff 7f3f 80c9 2e3b c4ff 7f3f
000002c0: 6812 033b dfff 7f3f 8594 c43a edff 7f3f
000002d0: 126a 933a f5ff 7f3f 1f17 5d3a faff 7f3f
000002e0: 60cb 253a fdff 7f3f 0ca8 f839 feff 7f3f
000002f0: 5377 ba39 ffff 7f3f 6dd4 8b39 0000 803f
00000300: c381 103e 2670 7dbf de3c 473f cebf 20bf
00000310: d745 7e3f ab7f edbd 6321 743f 6318 9a3e
00000320: c209 503f 582f 153f b724 273f a2e7 413f
00000330: 6c2f 023f 296d 5c3f a768 c73e 37c9 6b3f
00000340: 6c4e 973e ef90 743f e26d 643e 928c 793f
00000350: d7ee 2b3e 9e5d 7c3f 2c33 013e 43f4 7d3f
00000360: c0ff c13d 4fd9 7e3f 0693 913d 3a5a 7f3f
00000370: 4e69 5a3d c3a2 7f3f c5d1 233d 90cb 7f3f
00000380: 1fb9 f53c 83e2 7f3f 4747 b83c 6bef 7f3f
00000390: c631 8a3c adf6 7f3f 4644 4f3c c1fa 7f3f
000003a0: 0d6e 1b3c 0dfd 7f3f 131d e93b 58fe 7f3f
000003b0: a8cf ae3b 11ff 7f3f 1317 833b 7aff 7f3f
000003c0: 929b 443b b5ff 7f3f 606f 133b d6ff 7f3f
000003d0: 171f dd3a e8ff 7f3f 56d1 a53a f3ff 7f3f
000003e0: 10b1 783a f9ff 7f3f 097e 3a3a fcff 7f3f
000003f0: 7ed9 0b3a feff 7f3f a4be d139 ffff 7f3f

transformer_encoder.layers.0.self_attn.in_proj_bias f4 [192]
0.07962036 -0.17296058 -0.18709517 0.07210648 0.111102104 0.011596343 -0.035480276 0.022140903
0.057233658 -0.10837824 -0.1657822 -0.041890297 -0.32530636 -0.080318004 0.110264115 0.10612397
0.023089763 0.20281869 -0.26056102 -0.124130145 0.06896644 0.16554745 0.027082065 -0.24541977
0.0066697933 0.15241592 0.04090181 0.17902136 0.1967537 -0.06762197 0.059909973 0.12999383
-0.1751834 0.114824675 0.05157364 0.31963906 0.23198414 0.23375064 0.043401632 -0.053938214
-0.20132944 0.07960943 -0.24203357 -0.1214817 0.027116584 0.37464994 -0.037064485 0.0034210803
0.26021808 -0.19498612 -0.102804445 -0.12525359 -0.04545678 -0.22860424 -0.14629467 0.07544747
0.18220969 0.08073183 -0.02838452 0.034721676 -0.13902676 0.27559566 -0.008506401 -0.04197489
-0.3403757 -0.17944518 -0.22257227 -0.15994829 0.13713117 -0.13087747 0.24076024 0.20170948
0.09565134 0.018630207 -0.00271703 -0.30509785 0.26462224 0.13586129 -0.12846485 0.106513195
0.1241171 -0.19542192 0.28966978 0.1597021 0.08328944 -0.12259097 -0.14495865 0.28986132
0.08756194 -0.049229614 0.13140185 -0.02959472 -0.23718311 0.06669039 0.18796532 -0.16214871
0.18267637 0.10054789 -0.07877633 -0.63739634 -0.3705073 -0.6401873 -0.3164902 0.16680117
0.46456343 0.092757285 0.5767004 0.49684376 0.12526551 -0.5672346 0.4442659 0.07574472
0.06942804 0.39403576 0.2520843 0.3690643 -0.3134095 0.43053198 -0.37620768 -0.31904763
-0.27049634 0.29802415 0.31142768 0.12754016 0.15557796 -0.60056317 0.41429746 0.41099995
-0.01034223 0.23611027 0.0041431827 -0.0069129174 0.067684606 0.2916428 -0.07480948 -0.0625269
-0.05143128 0.017871436 0.15238829 0.0800462 -0.14053397 0.028534347 -0.053199034 -0.02653249
-0.122560605 0.10978475 -0.02713109 0.028150644 -0.008875866 -0.07312611 -0.074365444 0.013016171
-0.08521768 0.00070877833 0.009721512 -0.0048942715 -0.12683801 -0.10766258 0.06841998 -0.0120955575
0.033087343 -0.15009587 0.078799866 0.15340228 -0.060356304 0.13019346 0.1667139 -0.029349396
0.11650854 -0.07096721 -0.07451403 -0.00076606125 0.0822098 -0.036612425 0.35780218 0.122533426
0.070052534 -0.005949244 -0.16531858 -0.0023053568 -0.039052214 0.09563156 0.05056618 0.16139278
-0.045058493 0.14250882 -0.18409969 -0.11448852 -0.01296638 0.010142557 -0.1548605 0.03617515
00000000: 0010 a33d 941c 31be e095 3fbe 90ac 933d
00000010: 8089 e33d 96fe 3d3c c453 11bd d760 b53c
00000020: d76d 6a3d 69f5 ddbd cfc2 29be 2995 2bbd
00000030: 8e8e a6be c47d a4bd 27d2 e13d 8657 d93d
00000040: be26 bd3c b4af 4f3e 4168 85be f237 febd
00000050: 473e 8d3d 4585 293e 35db dd3c 524f 7bbe
00000060: 488e da3b eb12 1c3e a888 273d 6051 373e
00000070: cd79 493e 637d 8abd 2964 753d 1a1d 053e
00000080: 4763 33be 3329 eb3d e23e 533d bba7 a33e
00000090: 408d 6d3e 545c 6f3e e9c5 313d 51ee 5cbd
000000a0: 4e29 4ebe 450a a33d a6d7 77be 66cb f8bd
000000b0: 9923 de3c 1ed2 bf3e eed0 17bd 3434 603b
000000c0: 4e3b 853e 71aa 47be 238b d2bd 7a42 00be
000000d0: e330 3abd 3b17 6abe 45ce 15be 3484 9a3d
000000e0: 2d95 3a3e bb56 a53d a786 e8bc 5138 0e3d
000000f0: 085d 0ebe e01a 8d3e 6f5e 0bbc dded 2bbd
00000100: b945 aebe 7ac0 37be fce9 63be 7cc9 23be
00000110: 1d6c 0c3e be04 06be da89 763e ee8c 4e3e
00000120: dae4 c33d 609e 983c 3310 32bb c935 9cbe
00000130: 917c 873e 391f 0b3e 4a8c 03be 9723 da3d
00000140: 1b31 fe3d af1c 48be 994f 943e f388 233e
00000150: a793 aa3d f910 fbbd 0a70 14be b468 943e
00000160: ad53 b33d fea4 49bd 358e 063e a070 f2bc
00000170: 21e0 72be f994 883d fb79 403e 500a 26be
00000180: 840f 3b3e 0dec cd3d 7c55 a1bd 682c 23bf
00000190: 22b3 bdbe 51e3 23bf 010b a2be edcd 2a3e
000001a0: 42db ed3e 88f7 bd3d a3a2 133f 4e62 fe3e
000001b0: 9a45 003e 4936 11bf d276 e33e 0c20 9b3d
000001c0: 4a30 8e3d 0ebf c93e 3211 813e fff5 bc3e
000001d0: 3677 a0be b06e dc3e 4b9e c0be 365a a3be
000001e0: 7f7e 8abe 9f96 983e 7373 9f3e e399 023e
000001f0: d44f 1f3e 82be 19bf cc1e d43e 966e d23e
00000200: 7572 29bc e4c6 713e 89c3 873b c185 e2bb
00000210: 3a9e 8a3d 3552 953e b635 99bd 1a0e 80bd
00000220: 9ba9 52bd 1e67 923c ad0b 1c3e 43ef a33d
00000230: 23e8 0fbe ddc0 e93c 3be7 59bd aa5a d9bc
00000240: 0e01 fbbd d4d6 e03d 0542 debc 2e9c e63c
00000250: 156c 11bc 24c3 95bd e94c 98bd c741 553c
00000260: 9b86 aebd 4fcd 393a fa46 1f3c 2060 a0bb
00000270: d3e1 01be 337e dcbd c61f 8c3d 722c 46bc
00000280: 9886 073d bbb2 19be d361 a13d 7d15 1d3e
00000290: 2c38 77bd 6f51 053e 0cb7 2a3e 256e f0bc
000002a0: 089c ee3d 4257 91bd d09a 98bd 80d1 48ba
000002b0: 9d5d a83d e9f6 15bd d931 b73e cef2 fa3d
000002c0: b477 8f3d e0f1 c2bb 4649 29be 7815 17bb
000002d0: 37f5 1fbd 7bda c33d 7c1e 4f3d 2644 253e
000002e0: 418f 38bd d5ed 113e a184 3cbe f578 eabd
000002f0: f170 54bc f82c 263c c093 1ebe 652c 143d

transformer_encoder.layers.0.self_attn.out_proj.weight f4 [64, 64]
-0.0749013 -0.019811535 -0.035222877 -0.03138248 -0.01341323 -0.059033234 -0.027819578 0.07816311
0.0268749 -0.008886189 0.02692442 0.021105302 0.020474903 -0.0009515596 -0.036070444 3.3688968e-05
0.067582294 0.02869864 -0.04255629 -0.014790765 -0.057929132 -0.007647584 0.006771131 0.025920155
0.040491216 -0.008468847 -0.022627113 0.048104096 -0.020731548 -0.02662754 0.031003475 -0.006247023
-0.008529665 0.047936827 0.021812003 0.008677988 -0.013054957 -0.008730489 -0.008683302 0.021438323
0.0031327647 -0.076530285 0.061578687 0.04052313 0.0013390568 0.06526662 -0.050579347 0.014869265
-0.06299373 0.0076488177 -0.04202363 0.029950513 -0.02979933 -0.06968363 -0.037510272 0.03439025
0.0410554 -0.01955775 0.012018957 0.021641314 0.030729257 0.048287597 0.060756363 -0.032104567
-0.0009529164 -0.06913457 0.06275698 0.039251555 0.022946004 0.061174724 0.02567831 -0.06555801
-0.0607957 -0.0213654 -0.14739142 0.021591252 -0.08519601 -0.009174554 -0.026432382 0.022419907
0.011860119 0.03770453 0.0061300555 0.09473975 0.019186944 -0.025686637 -0.0048984755 -0.04531315
0.057009768 0.053921062 -0.03851941 0.026945332 0.03220044 0.009834233 0.052054007 0.056568068
-0.006311316 0.017819896 -0.055562794 0.013493635 0.0028346286 -0.051609136 0.0021354796 -0.0052947258
0.05862494 0.047313828 -0.037546083 0.03479507 -0.07021514 0.046585906 -0.05029301 -0.023254042
-0.021744322 0.009003943 0.03761615 -0.01085809 0.031320974 -0.05795504 -0.038555577 -0.0064632804
0.015626565 0.013784107 -0.05303923 -0.026165621 0.034470495 -0.021025337 -0.025229013 -0.028487312
-0.0015139864 -0.003340761 0.00035225198 0.0055379467 0.022228727 0.027065352 -0.017245878 0.011571183
0.0046582427 0.04081257 0.014958505 -0.01167993 -0.007026998 -0.027949937 0.016513119 -0.0059692254
-0.003418828 -3.4797817e-05 -0.012229255 -0.009065158 0.022948554 0.014837858 0.0053205416 0.00213673
-0.019704659 0.033653684 0.019506095 0.0047801607 0.019964108 0.037129205 -0.02382409 -0.04050486
-0.008859918 0.004888527 0.03884041 0.004120451 0.017330732 0.010282354 0.011728805 -0.016417483
-0.026854591 0.018471695 -0.01212686 0.017973183 -0.00613169 -0.0019188114 0.0015207429 -0.017040515
0.038798448 -0.025768893 0.011268979 -0.027475173 0.012771772 0.019380355 -0.017819041 0.019300463
0.0046711983 0.003413746 -0.003551911 0.023750493 0.0003693677 0.025425997 -0.0053369896 -0.018416263
0.08098805 0.0876142 -0.09761378 -0.022655092 0.027030652 -0.06408994 0.044892512 0.083189435
-0.0011590496 0.03206205 0.016605375 -0.05669055 -0.006773437 -0.084583886 -0.12788126 -0.045551766
0.0438669 -0.023505801 0.085686505 -0.109878264 -0.05291956 0.005130812 -0.09139077 -0.019561315
0.055800684 0.15223019 -0.033041377 0.01417623 -0.029382518 -0.13205446 -0.056649037 0.044464312
-0.07433974 -0.004141735 0.058114726 -0.10397823 0.034878295 0.024462702 0.082399 -0.0752127
-0.043008327 -0.03628657 -0.021545867 -0.07340553 -0.09598028 0.028363654 -0.045199532 0.03801751
-0.009562523 0.06430345 0.069515824 0.071655735 -0.007243835 0.114046246 0.031661578 0.03555918
-0.051568918 -0.06753686 0.13221824 -0.12240535 0.032313 -0.020571629 -0.114867285 0.021852177
00000000: da65 99bd cd4b a2bc dd45 10bd ea8a 00bd
00000010: 2ac3 5bbc d5cc 71bd e2e5 e3bc fb13 a03d
00000020: c028 dc3c 6197 11bc 9a90 dc3c 07e5 ac3c
00000030: fcba a73c 1572 79ba 9abe 13bd 414d 0d38
00000040: 9668 8a3d 6919 eb3c 814f 2ebd f754 72bc
00000050: 1947 6dbd 9698 fabb 5de0 dd3b 8156 d43c
00000060: 1eda 253d ebc0 0abc 7f5c b9bc cd08 453d
00000070: 35d5 a9bc 0022 dabc 00fb fd3c d4b3 ccbb
00000080: 02c0 0bbc 6859 443d 16af b23c 1f2e 0e3c
00000090: 75e4 55bc 530a 0fbc 6944 0ebc 6c9f af3c
000000a0: 124f 4d3b e9bb 9cbd ef39 7c3d 95fb 253d
000000b0: 4a83 af3a 81aa 853d 4a2c 4fbd 389e 733c
000000c0: db02 81bd efa2 fa3b f820 2cbd c75a f53c
000000d0: b91d f4bc 4ab6 8ebd 5fa4 19bd cadc 0c3d
000000e0: b529 283d 9337 a0bc 29eb 443c 2049 b13c
000000f0: ecbb fb3c 37c9 453d aadb 783d 1480 03bd
00000100: 23cd 79ba 6d96 8dbd bb86 803d 3dc6 203d
00000110: 42f9 bb3c 5992 7a3d 525b d23c 4743 86bd
00000120: e904 79bd 7e06 afbc c7ed 16be 23e0 b03c
00000130: 3f7b aebd de50 16bc b988 d8bc f4a9 b73c
00000140: f250 423c 1170 1a3d a2de c83b ea06 c23d
00000150: f02d 9d3c c86c d2bc 6483 a0bb 489a 39bd
00000160: 1383 693d 55dc 5c3d 87c6 1dbd 75bc dc3c
00000170: 9ce4 033d c31f 213c 9536 553d ebb3 673d
00000180: 28cf cebb 08fb 913c d095 63bd 6814 5d3c
00000190: 2dc5 393b 1a64 53bd 67f3 0b3b 617f adbb
000001a0: b520 703d 25cc 413d ecc9 19bd 4685 0e3d
000001b0: f5cc 8fbd ddd0 3e3d 0b00 4ebd 437f bebc
000001c0: 2621 b2bc 4685 133c 6413 1a3d 21e6 31bc
000001d0: 6c4a 003d 4462 6dbd 74ec 1dbd edc9 d3bb
000001e0: 4803 803c bcd6 613c aa3f 59bd 4959 d6bc
000001f0: ef30 0d3d 543d acbc 13ad cebc 395e e9bc
00000200: f470 c6ba abf0 5abb 76ae b839 aa77 b53b
00000210: 0519 b63c 28b8 dd3c 3a47 8dbc 0f95 3d3c
00000220: 2ca4 983b 152b 273d 8414 753c 2d5d 3fbc
00000230: bb42 e6bb 44f7 e4bc 8546 873c 7e99 c3bb
00000240: 6a0e 60bb dff3 11b8 375d 48bc 0786 14bc
00000250: 9bfe bb3c 7d1a 733c f057 ae3b 6108 0c3b
00000260: aa6b a1bc 72d8 093d 3fcb 9f3c e5a2 9c3b
00000270: c58b a33c cb14 183d bd2a c3bc 6de8 25bd
00000280: 3129 11bc f02f a03b 1f17 1f3d d904 873b
00000290: 2ef9 8d3c 5277 283c 2c2a 403c f57d 86bc
000002a0: 29fe dbbc f451 973c bdaf 46bc 7f3c 933c
000002b0: 58ec c8bb a080 fbba aa53 c73a 8d98 8bbc
000002c0: 1feb 1e3d 4919 d3bc 86a1 383c 9d13 e1bc
000002d0: b240 513c 8dc3 9e3c 3df9 91bc 011c 9e3c
000002e0: da10 993b 27b9 5f3b 2ec7 68bb 6590 c23c
000002f0: b2a7 c139 2e4a d03c eae1 aebb b4dd 96bc
00000300: 10dd a53d 136f b33d bce9 c7bd 2c97 b9bc
00000310: 636f dd3c 9641 83bd 36e1 373d 395f aa3d
00000320: 40eb 97ba 7f53 033d ff07 883c 5a34 68bd
00000330: b5f3 ddbb 513a adbd 4ef3 02be 7d94 3abd
00000340: c7ad 333d 3d8f c0bc 687c af3d db07 e1bd
00000350: 2ec2 58bd 5f20 a83b 162b bbbd 0d3f a0bc
00000360: 428f 643d 3be2 1b3e 6556 07bd 6b43 683c
00000370: 9bb3 f0bc 4939 07be d208 68bd 3620 363d
00000380: 6f3f 98bd 64b7 87bb b509 6e3d 8af2 d4bd
00000390: 8bdc 0e3d 0166 c83c cfc0 a83d 1e09 9abd
000003a0: 8029 30bd 3aa1 14bd f580 b0bc a355 96bd
000003b0: 4f91 c4bd e55a e83c 2523 39bd 40b8 1b3d
000003c0: 21ac 1cbc 87b1 833d 505e 8e3d 3ec0 923d
000003d0: b15d edbb 1491 e93d 92af 013d 81a6 113d
000003e0: ee39 53bd c450 8abd 3864 073e a8af fabd
000003f0: a35a 043d d585 a8bc 8a3f ebbd 5603 b33c

transformer_encoder.layers.0.self_attn.out_proj.bias f4 [64]
-0.14739226 -0.26381728 -0.24575691 -0.53416055 -0.061726242 -0.19133921 0.3150563 -0.08498393
0.18800673 -0.3240702 0.7908706 0.19047171 -0.2697227 0.35957676 -0.24040018 0.78690505
-0.77165467 -0.49360082 0.23126614 -0.74502546 0.12725246 0.12724285 -0.2617945 0.3900995
-0.45842898 0.04334107 0.023829825 0.040614914 -0.11472203 0.051012028 -0.1616637 0.18172064
0.6402697 -0.25398663 0.14822957 -0.18965605 0.054853808 -0.6108811 0.12906033 0.4958882
0.52571 0.30710804 -0.21163923 0.4903539 0.29819772 0.3915797 0.61412656 0.19393115
-0.32594013 -0.77939975 0.46680984 -0.8813287 0.49475908 0.51801103 -0.067568146 -0.08615575
0.14198276 -0.32395172 -0.2746788 0.7119338 -0.22938561 0.058240913 -0.26660433 -0.112754576
00000000: ffed 16be 0f13 87be b3a7 7bbe bfbe 08bf
00000010: a8d4 7cbd 6dee 43be 0f4f a13e 0e0c aebd
00000020: d684 403e 87ec a5be 7f76 4a3f 040b 433e
00000030: 1819 8abe 721a b83e 772b 76be 9c72 493f
00000040: 298b 45bf 3fb9 fcbe 08d1 6c3e fdb9 3ebf
00000050: 784e 023e f34b 023e ee09 86be 1fbb c73e
00000060: 34b7 eabe 6886 313d c436 c33c d35b 263d
00000070: 62f3 eabd fdf1 503d 2b8b 25be fa14 3a3e
00000080: b7e8 233f 890a 82be 7ec9 173e 3235 42be
00000090: 63ae 603d b462 1cbf 6428 043e 0fe5 fd3e
000000a0: ee94 063f 443d 9d3e f4b7 58be ab0f fb3e
000000b0: 5fad 983e 227d c83e 6637 1d3f e395 463e
000000c0: a0e1 a6be be86 47bf b301 ef3e c29e 61bf
000000d0: 1051 fd3e 5f9c 043f 2b61 8abd 6d72 b0bd
000000e0: ee63 113e 00dd a5be b3a2 8cbe 4b41 363f
000000f0: 10e4 6abe 068e 6e3d 5d80 88be dfeb e6bd

transformer_encoder.layers.0.linear1.bias f4 [128]
-0.25472307 -0.33922383 -0.2327692 -0.30270284 -0.1619282 -0.20570497 -0.20907032 -0.13283557
-0.5133271 -0.22035418 -0.15888739 -0.039979577 -0.15642299 -0.15574338 -0.08044349 -0.20173106
-0.15888765 -0.23251277 -0.29557273 -0.18396823 -0.09317776 -0.11760032 -0.024120405 -0.17933227
-0.29726517 -0.21017595 -0.22622924 -0.27757755 -0.23478065 -0.24337247 -0.13914499 -0.13947842
-0.4918567 -0.14988807 -0.18679526 -0.219734 -0.18515903 -0.11471441 -0.41483262 -0.12284913
-0.2880735 -0.24344802 -0.40463606 -0.26503152 -0.26080877 -0.0801575 -0.26064464 -0.27917057
-0.44514215 -0.3564952 -0.3454655 -0.11231573 -0.2510241 -0.4132578 -0.4323479 -0.3402034
-0.15139987 -0.33202672 -0.4384788 -0.13335499 -0.3641464 -0.2583162 -0.11441578 -0.13432007
-0.40666693 -0.23067793 -0.362451 -0.17594872 -0.17757982 -0.19782163 -0.26682043 -0.40495
-0.23198712 -0.4206711 0.0008070941 -0.33680183 -0.47984967 -0.10116414 -0.28514126 -0.19553061
-0.18320544 -0.18891646 -0.30410758 -0.122898206 -0.13154328 -0.13741323 -0.35447583 -0.03665182
-0.22242504 -0.29365075 -0.17818263 -0.28757823 -0.171523 -0.3356549 -0.28346372 -0.6130566
-0.13457073 -0.10839682 -0.110088065 -0.3131835 -0.1676183 -0.2633852 -0.23964512 -0.35173398
-0.39528015 -0.27894714 -0.43555498 -0.099311866 -0.08752866 -0.27088574 -0.25374502 -0.12746082
-0.14702159 -0.34778756 -0.20974384 -0.24837936 -0.08425283 -0.28105044 -0.027523536 -0.37020057
-0.31962845 -0.41597906 -0.36842543 -0.16277815 -0.11243578 -0.22458962 -0.17061165 -0.06437758
00000000: 106b 82be bfae adbe 0d5b 6ebe defb 9abe
00000010: 82d0 25be 53a4 52be 8816 56be 0c06 08be
00000020: 6869 03bf 87a4 61be 60b3 22be a0c1 23bd
00000030: 592d 20be 317b 1fbe 8ebf a4bd 9692 4ebe
00000040: 72b3 22be d417 6ebe 4f55 97be 2b62 3cbe
00000050: fbd3 bebd 70d8 f0bd 2898 c5bc e1a2 37be
00000060: 2433 98be 5d38 57be a3a8 67be a51e 8ebe
00000070: 576a 70be a236 79be 067c 0ebe 6ed3 0ebe
00000080: a4d4 fbbe 427c 19be 4247 3fbe f301 61be
00000090: 549a 3dbe 63ef eabd f164 d4be 5398 fbbd
000000a0: 5f7e 93be 704a 79be 752c cfbe 36b2 87be
000000b0: ba88 85be 9e29 a4bd 3773 85be 72ef 8ebe
000000c0: ace9 e3be 8a86 b6be dbe0 b0be ca05 e6bd
000000d0: 3b86 80be 8796 d3be b45c ddbe 242f aebe
000000e0: 9108 1bbe 68ff a9be 4b80 e0be 368e 08be
000000f0: 6671 babe 0542 84be d252 eabd 338b 09be
00000100: a636 d0be d636 6cbe 2d93 b9be e72b 34be
00000110: 7cd7 35be c191 4abe b09c 88be 9b55 cfbe
00000120: 088e 6dbe 3462 d7be 2b93 533a 4a71 acbe
00000130: dbae f5be 252f cfbd 09fe 91be 2d39 48be
00000140: 359a 3bbe 5173 41be fdb3 9bbe 0eb2 fbbd
00000150: 48b3 06be 0eb6 0cbe db7d b5be 3820 16bd
00000160: 64c3 63be 6459 96be 8275 36be 743d 93be
00000170: baa3 2fbe f6da abbe 2822 91be 47f1 1cbf
00000180: e9cc 09be 27ff ddbd da75 e1bd 9659 a0be
00000190: 22a4 2bbe 6dda 86be 8865 75be 7a16 b4be
000001a0: 2962 cabe 29d2 8ebe 1001 dfbe 0564 cbbd
000001b0: 3a42 b3bd 89b1 8abe deea 81be 1785 02be
000001c0: d48c 16be 3611 b2be 17c7 56be 2957 7ebe
000001d0: bf8c acbd d8e5 8fbe 0a79 e1bc ee8a bdbe
000001e0: 57a6 a3be 35fb d4be 42a2 bcbe 51af 26be
000001f0: bb44 e6bd d2fa 65be d2b4 2ebe 65d8 83bd

transformer_encoder.layers.0.linear2.bias f4 [64]
-0.04090472 0.07053087 -0.011548511 -0.033400558 -0.09720939 0.053636536 0.022719953 0.06981221
-0.08373259 0.1314861 0.010781426 0.07820181 -0.0077780425 -0.19227862 0.07144717 -0.07228403
0.10724603 0.041369565 -0.006494673 0.07445499 0.041568946 -0.013165029 0.01820254 -0.22401945
0.01532516 -0.15315662 -0.042361822 0.061163835 0.009558115 0.31476027 0.04812539 -0.073648475
0.07756997 -0.1139826 -0.18368182 0.08330061 0.0015522308 0.075442865 0.08557007 -0.06271027
-0.21031643 2.8072647e-05 0.1255695 -0.1564201 -0.15954128 -0.0623603 -0.16245069 0.00048057572
0.037879292 0.15283412 0.04632897 0.021152357 0.09423787 -0.022207843 0.07418979 0.027214043
0.023565123 -0.06749783 0.048940048 -0.091893926 0.15404412 0.038449697 -0.006081683 0.020124834
00000000: b58b 27bd 7d72 903d f735 3dbc 06cf 08bd
00000010: b715 c7bd fcb1 5b3d 321f ba3c b4f9 8e3d
00000020: fe7b abbd 4ba4 063e 94a4 303c 4528 a03d
00000030: f3de febb b0e4 44be e552 923d a609 94bd
00000040: cea3 db3d 2273 293d 44d1 d4bb dc7b 983d
00000050: 3344 2a3d 22b2 57bc 7e1d 953c 5b65 65be
00000060: 6116 7b3c 17d5 1cbe 9783 2dbd ee86 7a3d
00000070: a499 1c3c 4228 a13e 211f 453d 03d5 96bd
00000080: 01dd 9e3d b66f e9bd 1617 3cbe 8399 aa3d
00000090: 3974 cb3a ca81 9a3d 5c3f af3d 3e6e 80bd
000000a0: 315d 57be 8d7d eb37 4a95 003e 972c 20be
000000b0: ca5e 23be 846d 7fbd 7959 26be c8f5 fb39
000000c0: 5127 1b3d 8c80 1c3e 72c3 3d3d b547 ad3c
000000d0: c9ff c03d 39ed b5bc d1f0 973d fcef de3c
000000e0: a50b c13c 4d3c 8abd 5c75 483d e232 bcbd
000000f0: bebd 1d3e 6e7d 1d3d db48 c7bb d6dc a43c

transformer_encoder.layers.0.norm1.weight f4 [64]
0.922134 0.83792967 1.3731222 0.51224077 1.2475489 1.0997249 0.5874415 0.6556784
1.0031741 0.5520043 0.85223246 0.6576613 0.89188653 0.7494785 1.0469157 0.9485519
0.9958316 1.1047878 0.7522878 0.85847706 0.982244 0.8328563 0.8555589 0.8208723
0.9479406 1.0715309 1.4522957 1.0182987 1.5252486 0.6954883 0.7666108 0.63451594
1.0096222 0.82766104 0.86962306 0.8786627 1.2376262 0.8046669 0.6658212 0.7556166
1.0119495 0.6233059 0.7002854 0.6074743 0.5522085 0.89351285 0.78401166 1.5022922
0.73167646 0.81334996 0.6828041 0.70627713 0.7324772 0.6688038 1.3577119 0.71030104
1.5083606 0.8867944 0.8236725 0.6157145 0.87570876 1.0309685 0.8010085 0.82685786
00000000: f910 6c3f 8f82 563f 78c2 af3f 3622 033f
00000010: afaf 9f3f c9c3 8c3f 9162 163f 8ada 273f
00000020: 0268 803f 2750 0d3f e82b 5a3f 7e5c 283f
00000030: ad52 643f d3dd 3f3f 5501 863f 4cd4 723f
00000040: d2ee 7e3f b069 8d3f ef95 403f 27c5 5b3f
00000050: 5874 7b3f 1236 553f e805 5b3f b024 523f
00000060: 3cac 723f ed27 893f d3e4 b93f 9d57 823f
00000070: 593b c33f 850b 323f 9b40 443f a36f 223f
00000080: 4d3b 813f 98e1 533f 9e9f 5e3f 0af0 603f
00000090: 896a 9e3f a6fe 4d3f 4273 2a3f 1770 413f
000000a0: 9087 813f fa90 1f3f e745 333f 7083 1b3f
000000b0: 895d 0d3f 42bd 643f fdb4 483f 1c4b c03f
000000c0: 264f 3b3f b437 503f 40cc 2e3f 94ce 343f
000000d0: a083 3b3f ba36 2b3f 81c9 ad3f 4ad6 353f
000000e0: f611 c13f f504 633f 33dc 523f 779f 1d3f
000000f0: 732e 603f c7f6 833f e50e 4d3f f5ac 533f

transformer_encoder.layers.0.norm1.bias f4 [64]
-0.18332191 -0.36815014 -0.26692167 -0.43782553 -0.019547507 -0.1473008 0.36346063 -0.34592405
0.61692756 -0.054671697 0.23765048 -0.025357699 -0.31395176 0.5082971 0.025895495 0.302493
-0.4835717 -0.26222244 0.018341959 -0.27462265 0.37989217 -0.14183588 -0.11870433 0.23650254
-0.40916216 0.17542502 0.12914549 0.10671838 -0.19931643 -0.22209188 -0.21879527 0.24588549
0.560495 0.02093364 0.077662125 -0.50119776 -0.08212999 -0.12637727 -0.14334229 0.004298804
0.5732541 0.42826468 -0.22675624 -0.00056241854 0.06812761 0.38377807 0.583842 0.33865976
-0.1493372 -0.8184074 0.13913773 -0.88895506 0.35324165 0.43109858 -0.27562314 0.12089987
0.37203473 -0.1672016 -0.2912581 0.8239148 -0.19647591 0.2930697 -0.23878267 -0.1181101
00000000: bdb8 3bbe 2d7e bcbe f5a9 88be ab2a e0be
00000010: 1822 a0bc 05d6 16be 8317 ba3e f51c b1be
00000020: f7ee 1d3f 6eef 5fbd a65a 733e f3ba cfbc
00000030: 49be a0be c21f 023f ca22 d43c 5de0 9a3e
00000040: b696 f7be 0542 86be e041 963c 579b 8cbe
00000050: 3a81 c23e 6d3d 11be 411b f3bd b92d 723e
00000060: b47d d1be 9ea2 333e b73e 043e 2a8f da3d
00000070: 9b19 4cbe 0e6c 63be de0b 60be 68c9 7b3e
00000080: 9a7c 0f3f 067d ab3c 520d 9f3d 7f4e 00bf
00000090: c533 a8bd 0b69 01be 52c8 12be fbdc 8c3b
000000a0: c8c0 123f 8245 db3e ca32 68be 456f 13ba
000000b0: 7d86 8b3d 8f7e c43e ab76 153f d064 ad3e
000000c0: daeb 18be 2683 51bf 1f7a 0e3e 8f92 63bf
000000d0: 17dc b43e f4b8 dc3e 7a1e 8dbe 5a9a f73d
000000e0: 567b be3e e536 2bbe c81f 95be 15ec 523f
000000f0: fb30 49be 3b0d 963e 7283 74be b5e3 f1bd

transformer_encoder.layers.0.norm2.weight f4 [64]
0.6253008 0.775625 0.90675235 0.65990067 0.77825963 0.8911933 0.55206984 0.7050986
0.8277869 0.51680946 0.6964124 0.5794658 0.70160675 0.69990635 0.8594909 0.73004025
0.50210154 0.664554 0.6201108 0.6861968 0.6352902 0.837009 0.7436754 0.6955509
0.9830567 0.7304831 1.1004509 0.76137024 0.97139055 0.44300827 0.69140875 0.5993146
0.89088297 0.74606955 0.64804256 0.9001625 1.0650425 0.69891644 0.6820728 0.601993
0.60381883 0.8140046 0.70311266 0.5240385 0.76074463 0.7269994 0.49582106 0.920344
0.75524473 0.675115 0.6495636 0.72260755 0.5964108 0.62641674 0.87485 0.8485738
0.9664072 0.8442057 0.5345142 0.5942571 0.7004523 0.8265898 0.6951672 0.69053966
00000000: b713 203f 5c8f 463f ec20 683f 40ef 283f
00000010: 063c 473f 3e25 643f 7354 0d3f 5881 343f
00000020: d8e9 533f a04d 043f 1548 323f df57 143f
00000030: 809c 333f 102d 333f 9807 5c3f ebe3 3a3f
00000040: ba89 003f 3620 2a3f 95bf 1e3f 98aa 2f3f
00000050: 61a2 223f 3946 563f 8361 3e3f a00f 323f
00000060: 9ba9 7b3f f100 3b3f 93db 8c3f 29e9 423f
00000070: 0dad 783f fbd1 e23e 2a00 313f ae6c 193f
00000080: e810 643f 6afe 3e3f 1ee6 253f 0d71 663f
00000090: 5053 883f 30ec 323f 539c 2e3f 371c 1a3f
000000a0: df93 1a3f 9b62 503f 31ff 333f 6327 063f
000000b0: 29c0 423f a21c 3a3f 42dc fd3e aa9b 6b3f
000000c0: b857 413f 56d4 2c3f cd49 263f cffc 383f
000000d0: 61ae 183f d95c 203f 2bf6 5f3f 223c 593f
000000e0: 7666 773f dd1d 583f ecd5 083f 3c21 183f
000000f0: d850 333f 649b 533f 7af6 313f 35c7 303f

transformer_encoder.layers.0.norm2.bias f4 [64]
0.2454346 0.16212621 -0.079400785 0.04081219 0.21668755 -0.06446583 -0.2009811 -0.0049301013
0.05223607 0.14470491 -0.08859949 -0.074948505 0.14352727 -0.07690493 0.117648356 -0.15313941
0.119746126 0.2697079 0.073819384 0.12728353 0.010421369 -0.055543885 0.008524816 -0.12634836
-0.008006384 -0.060040258 0.23524219 -0.007323629 0.10982575 0.03107018 0.07445447 -0.075338006
-0.1553125 0.12447286 -0.009338184 -0.09500597 -0.17271073 0.027140452 0.11402496 -0.03241092
0.031468444 -0.053694997 0.10785899 -0.14468934 -0.016932577 0.06950615 0.13975546 0.11677739
0.0502492 -0.041221324 -0.027142808 0.06061514 -0.2225623 -0.070121095 -0.20518325 -0.0039374977
0.019652182 0.023180798 0.10423009 0.075544454 -0.0511418 -0.042512268 -0.02962084 -0.06170025
00000000: 3553 7b3e 6a04 263e e19c a2bd af2a 273d
00000010: 57e3 5d3e a906 84bd fdcd 4dbe b08c a1bb
00000020: 7df5 553d 862d 143e a673 b5bd 9a7e 99bd
00000030: d0f8 123e 5580 9dbd 9ff1 f03d 94d0 1cbe
00000040: 753d f53d 2717 8a3e 9e2e 973d 9d56 023e
00000050: 64be 2a3c fc81 63bd abab 0b3c 7761 01be
00000060: 352d 03bc c6ec 75bd 54e3 703e 0efb efbb
00000070: 53ec e03d e486 fe3c 967b 983d d04a 9abd
00000080: 3d0a 1fbe a0eb fe3d 2fff 18bc 7d92 c2bd
00000090: 15db 30be a755 de3c eb85 e93d 50c1 04bd
000000a0: 0ee5 003d 49ef 5bbd 2de5 dc3d 7129 14be
000000b0: 30b6 8abc 3e59 8e3d 0e1c 0f3e fc28 ef3d
000000c0: 1bd2 4d3d b1d7 28bd 985a debc 9547 783d
000000d0: 5fe7 63be a69b 8fbd 8f1b 52be 2006 81bb
000000e0: 9dfd a03c a8e5 bd3c 9676 d53d 0db7 9a3d
000000f0: 107a 51bd 5821 2ebd 67a7 f2bc 67b9 7cbd

transformer_encoder.layers.1.self_attn.in_proj_bias f4 [192]
0.08509641 -0.0127126 -0.04491843 -0.03519724 -0.063084036 -0.19512527 0.15421176 -0.089886256
0.077147275 -0.08040203 0.057000287 -0.0989198 0.015888724 0.0074266004 0.012297304 0.15824749
-0.19408526 0.27568048 -0.010366837 -0.17740819 0.049189784 -0.16914997 0.07522743 -0.21805352
0.053187933 0.11118527 -0.042690586 0.17775708 0.22317185 0.11603167 0.07093982 0.087725244
-0.18259425 0.10329208 -0.06736837 -0.09082107 0.32609504 -0.2241598 0.02109887 0.03787715
-0.039084602 0.12670855 0.109376654 0.057507675 0.22890922 0.35419884 -0.14178011 0.1241542
0.117306784 0.109189555 0.15321474 0.12273683 0.001523432 -0.05648934 0.37659281 0.079883635
0.20105171 -0.023153378 -0.28633368 0.2479747 0.056316625 0.0142504675 0.12530659 -0.1417573
-0.074366026 -0.046907384 0.04350761 -0.08055801 -0.0009724626 0.13162518 -0.11307945 0.055201676
-0.06298372 -0.004083578 0.023457306 0.061355617 0.06784525 0.13015887 0.034722447 -0.032889538
0.26453322 -0.20157702 0.08782584 0.03435713 0.050336156 0.13056232 0.0014565763 0.15963657
-0.021273214 -0.10304448 0.14301935 -0.14404327 -0.10759095 -0.040323086 -0.08769117 0.023405448
0.07815326 0.0908254 -0.009361975 -0.05827983 -0.18855985 -0.051351562 -0.08659235 0.09817303
0.045446955 -0.088299096 -0.10328877 -0.0015452378 -0.17176802 -0.2587849 0.1000309 -0.053180777
-0.038045708 0.017912775 -0.18466964 -0.14095907 0.037149243 0.09285078 -0.23724271 -0.18961631
-0.02549591 0.009513616 0.07555728 -0.07573622 -0.17911102 0.031569123 -0.009413406 0.005707938
0.003465769 -0.030346606 -0.02009161 -0.01662093 0.004964792 0.020349221 0.015812106 -0.016239049
0.020135067 -0.017479522 -0.097650684 0.034392416 -0.025506958 0.0039457097 -0.01717449 0.05857239
0.017752564 0.03168583 0.070437536 -0.02878455 -0.013895264 0.02584829 -0.052418925 0.0058010328
-0.02252656 0.014842337 0.011924377 0.018598605 0.027692653 -0.030990882 0.023848493 -0.07193283
0.029105041 -0.0155925965 0.018140817 -0.024099488 -0.015677854 -0.020965194 -0.039045323 0.01102579
0.00877407 0.03669737 0.004838339 0.0027605374 0.026845248 -0.05052505 -0.004040217 -0.035184488
-0.031020489 0.00602142 0.020839045 0.051967815 0.031741276 0.02533292 -0.022440268 0.087508604
-0.030201243 0.030463045 -0.012530952 -0.008943734 -0.066808574 -0.039680254 -0.023169443 -0.0077307373
00000000: 0747 ae3d 8248 50bc 63fc 37bd fb2a 10bd
00000010: 3432 81bd ebce 47be b0e9 1d3e 4916 b8bd
00000020: 64ff 9d3d d2a9 a4bd 2279 693d 7796 cabd
00000030: 1229 823c d75a f33b a27a 493c a10b 223e
00000040: 49be 46be fe25 8d3e aad9 29bc 7eaa 35be
00000050: 3a7b 493d a635 2dbe d710 9a3d 6c49 5fbe
00000060: 97db 593d 1ab5 e33d 53dc 2ebd f405 363e
00000070: 2987 643e 03a2 ed3d e548 913d 4ba9 b33d
00000080: fdf9 3abe cc8a d33d 6ef8 89bd 6600 babd
00000090: eef5 a63e 268a 65be 8ad7 ac3c 1225 1b3d
000000a0: 2d17 20bd e3bf 013e de00 e03d 2b8d 6b3d
000000b0: 2e67 6a3e 8d59 b53e ce2e 11be 8f44 fe3d
000000c0: 8a3e f03d c69e df3d 53e4 1c3e 725d fb3d
000000d0: e5ad c73a 5e61 67bd c6d0 c03e 089a a33d
000000e0: 80e0 4d3e 27ac bdbc 549a 92be 14ed 7d3e
000000f0: 43ac 663d cb7a 693c 5f50 003e d328 11be
00000100: 374d 98bd f521 40bd 0935 323d 99fb a4bd
00000110: dcec 7eba c0c8 063e 3396 e7bd 271b 623d
00000120: 9cfd 80bd 89cf 85bb 8929 c03c 0750 7b3d
00000130: 73f2 8a3d 5e48 053e 2039 0e3d 2eb7 06bd
00000140: e670 873e 356a 4ebe 09de b33d 10ba 0c3d
00000150: 492d 4e3d 21b2 053e 97ea be3a c577 233e
00000160: 2a45 aebc fc08 d3bd aa73 123e 1480 13be
00000170: a558 dcbd d229 25bd 6e97 b3bd c8bc bf3c
00000180: d10e a03d ab02 ba3d f862 19bc d5b6 6ebd
00000190: d515 41be 0456 52bd 5457 b1bd f10e c93d
000001a0: 9626 3a3d 28d6 b4bd 1089 d3bd 9489 caba
000001b0: f5e3 2fbe 747f 84be 00dd cc3d 16d4 59bd
000001c0: d1d5 1bbd d0bd 923c 0a1a 3dbe 9357 10be
000001d0: ce29 183d 8d28 be3d c1ef 72be c72a 42be
000001e0: ccdc d0bc ffde 1b3c c6bd 9a3d 971b 9bbd
000001f0: e168 37be a04e 013d b03a 1abc a809 bb3b
00000200: f521 633b 7299 f8bc 2997 a4bc 9e28 88bc
00000210: b2af a23b 69b3 a63c 6488 813c c107 85bc
00000220: 4cf2 a43c 3731 8fbc 15fd c7bd 10df 0c3d
00000230: f8f3 d0bc 034b 813b 84b1 8cbc 9ae9 6f3d
00000240: d36d 913c 00c9 013d 8e41 903d 94cd ebbc
00000250: f6a8 63bc cbbf d33c 3ab5 56bd 9716 be3b
00000260: 9f89 b8bc 462d 733c 765e 433c 1a5c 983c
00000270: b4db e23c 97e0 fdbc ea5d c33c 8551 93bd
00000280: b26d ee3c 1778 7fbc 0d9c 943c 4a6c c5bc
00000290: d86e 80bc 33bf abbc fded 1fbd 84a5 343c
000002a0: 1ec1 0f3c fb4f 163d ee8a 9e3b 22ea 343b
000002b0: 91ea db3c 5bf3 4ebd cc63 84bb 9c1d 10bd
000002c0: ae1e febc 554f c53b a5b6 aa3c 34dc 543d
000002d0: 2403 023d fc86 cf3c a7d4 b7bc b637 b33d
000002e0: 9968 f7bc a38d f93c 9f4e 4dbc bd88 12bc
000002f0: efd2 88bd c387 22bd d8cd bdbc 2052 fdbb

transformer_encoder.layers.1.self_attn.out_proj.weight f4 [64, 64]
0.06490963 0.043165512 0.0550357 -0.028418899 -0.028461715 0.0593384 0.007264194 0.104585096
-0.016588228 0.07219319 -0.031764682 -0.030661449 -0.08462912 -0.007924725 0.06808958 0.03536825
-0.08722578 0.016507026 0.017400559 -0.028051717 -0.04523335 0.046834804 0.06436409 0.012437792
0.052794136 0.034686536 0.04485975 -0.004190302 -0.02428881 -0.0544074 0.0041922336 0.13162686
-0.006291093 0.005577768 0.066762105 -0.010564603 0.004132674 -0.075763434 -0.0184572 -0.007504599
0.0593213 -0.0074820616 -0.05991104 -0.056420967 -0.08283717 -0.042326104 -0.027639346 0.013996023
-0.021731116 -0.06041298 -0.016320376 0.13635372 -0.0065438715 0.057959322 0.0218213 -0.059407093
-0.023503229 -0.016401187 0.02443153 0.021374365 0.008225626 0.041887373 0.08712367 -0.029261786
0.06791347 -0.0047038314 0.012939879 0.086654656 0.2253692 0.083400615 0.031821318 -0.007690203
-0.0007277813 0.112305835 -0.113015935 -0.01240519 -0.055941567 0.040182214 -0.011903509 -0.076786265
0.018870007 -0.0072895284 0.071958005 0.07476582 0.024543943 -0.003545132 -0.08737061 -0.06388736
0.12953399 -0.055663545 0.07368403 0.21431787 0.10893438 -0.07629269 -0.07439301 -0.16091008
0.06688594 -0.011387475 -0.027423337 0.06226489 0.10830824 0.18006942 -0.033458173 -0.022118822
-0.09373059 0.06418627 -0.025699522 -0.12874055 0.08736036 0.0006030839 -0.15071094 -0.1639645
0.052735724 -0.14241828 0.08358733 -0.06583584 -0.049122848 -0.009765851 -0.12440905 0.022021338
-0.01952044 -0.2021635 0.15961279 -0.04452801 -0.1412637 -0.028976122 -0.059219435 -0.051208552
0.006678976 -0.0063606747 0.04267476 0.0028054735 0.018497385 -0.017783843 0.0002949965 0.006376088
0.009605774 -0.042424887 0.022941237 -0.013668797 0.016927281 -0.042834323 -0.0009302223 -0.035498787
0.011942162 0.021538205 0.006069339 0.010120677 0.007536099 0.0573717 -0.037008446 -0.0013803917
0.015968964 -0.029272849 -0.027043585 -0.0016895141 0.00060502643 -0.015346807 -0.0145689845 0.108549595
-0.0051805475 -0.010501965 -0.031923216 0.0019430971 -0.017235745 -0.07856931 0.011110101 -0.020953832
0.018686948 -0.021768415 0.0041979207 0.011534565 0.030638065 0.0064895833 0.012246508 0.0028811037
-0.010866196 -0.027084181 0.016669108 0.072666615 0.015081152 -0.033728514 0.00045426266 0.024144111
0.028984778 -0.007051981 0.019460928 -0.020088322 0.0053979405 -0.007587745 0.0046620634 0.04852802
-0.03027361 0.0808138 0.10728178 0.09200434 0.013696138 -0.063917585 0.0715646 -0.18863675
-0.0077145514 0.024305182 0.08477562 -0.08834804 0.07274279 0.12384906 0.11293938 0.021861995
-0.07995541 0.09016976 -0.1915573 -0.09215742 -0.16387424 -0.035059698 -0.0062402375 -0.12521556
-0.14070001 0.0027439205 -0.002376679 -0.01906202 -0.2024299 -0.08827671 -0.004617352 0.050734438
0.093469225 0.3218126 0.0804602 0.031975303 -0.19381803 0.1095355 0.046011034 0.14064923
0.05546194 -0.18669002 -0.09332063 -0.046977945 -0.21740238 0.30042243 -0.12828489 0.12896073
-0.08038568 -0.15569822 0.056606937 -0.2324215 -0.10525013 -0.03994591 -0.22297662 -0.25445542
0.060235813 0.074213095 0.066764526 -0.06721616 0.1141881 0.061669655 -0.060595542 -0.066294014
00000000: 57ef 843d 52ce 303d 1d6d 613d c0ce e8bc
00000010: 8b28 e9bc d20c 733d 7a08 ee3b b630 d63d
00000020: 09e4 87bc 06da 933d af1b 02bd b82d fbbc
00000030: 0852 adbd b5d6 01bc 8d72 8b3d 4cde 103d
00000040: 6ea3 b2bd be39 873c 9e8b 8e3c b7cc e5bc
00000050: 9b46 39bd dad5 3f3d 52d1 833d e1c7 4b3c
00000060: aa3e 583d 7813 0e3d dbbe 373d cd4e 89bb
00000070: 54f9 c6bc 4bda 5ebd 015f 893b 31c9 063e
00000080: 8325 cebb b6c5 b63b 92ba 883d 2817 2dbc
00000090: 626b 873b dc29 9bbd 8e33 97bc 24e9 f5bb
000000a0: e4fa 723d 152c f5bb 4765 75bd ac19 67bd
000000b0: 89a6 a9bd 235e 2dbd e96b e2bc 934f 653c
000000c0: 7405 b2bc 9a73 77bd 4fb2 85bc 4fa0 0b3e
000000d0: f96d d6bb c166 6d3d 95c2 b23c da54 73bd
000000e0: d889 c0bc c85b 86bc a224 c83c 4b19 af3c
000000f0: c7c4 063c 1892 2b3d e56d b23d 6ab6 efbc
00000100: 3816 8b3d 9922 9abb c901 543c ff77 b13d
00000110: 2fc7 663e f1cd aa3d 1257 023d 19fe fbbb
00000120: 94c8 3eba 9a00 e63d e674 e7bd 233f 4bbc
00000130: fc22 65bd 1b96 243d ef06 43bc 1e42 9dbd
00000140: 4695 9a3c ffdc eebb b85e 933d d21e 993d
00000150: 6110 c93c 7255 68bb 5def b2bd 60d7 82bd
00000160: 8fa4 043e 75ff 63bd a7e7 963d 2576 5b3e
00000170: fd18 df3d 583f 9cbd 5d5b 98bd 9dc5 24be
00000180: 7ffb 883d 8892 3abc e8a6 e0bc 7809 7f3d
00000190: b6d0 dd3d 1e64 383e 700b 09bd 8832 b5bc
000001a0: d3f5 bfbd 1774 833d ce87 d2bc 90d4 03be
000001b0: fde9 b23d 4718 1e3a f853 1abe 4fe6 27be
000001c0: 6a01 583d 19d6 11be d62f ab3d f1d4 86bd
000001d0: 0a35 49bd f300 20bc 2cca febd 1866 b43c
000001e0: 54e9 9fbc f303 4fbe 8971 233e 0163 36bd
000001f0: 6ea7 10be 555f edbc 1490 72bd 0fc0 51bd
00000200: 50db da3b 356d d0bb bbcb 2e3d 09dc 373b
00000210: d487 973c 6caf 91bc c3a9 9a39 81ee d03b
00000220: 8961 1d3c b8c5 2dbd 43ef bb3c 17f3 5fbc
00000230: 15ab 8a3c 0b73 2fbd 29da 73ba 2d67 11bd
00000240: 0fa9 433c e470 b03c 4ee1 c63b 32d1 253c
00000250: 61f1 f63b 96fe 6a3d 2b96 17bd 42ee b4ba
00000260: 58d1 823c 9dcd efbc 828a ddbc b072 ddba
00000270: a39a 1e3a 2d71 7bbc c0b2 6ebc 404f de3d
00000280: 95c1 a9bb 6f10 2cbc ebc1 02bd 85af fe3a
00000290: fa31 8dbc f2e8 a0bd 2407 363c 5fa7 abbc
000002a0: 5f15 993c ad53 b2bc b68e 893b 79fb 3c3c
000002b0: aefc fa3c 92a6 d43b 94a5 483c e6d0 3c3b
000002c0: 2108 32bc a5df ddbc a78d 883c 3cd2 943d
000002d0: f016 773c e926 0abd 1a2a ee39 dfc9 c53c
000002e0: 7c71 ed3c 4e14 e7bb 866c 9f3c 4490 a4bc
000002f0: 35e1 b03b 9ea2 f8bb 39c4 983b 51c5 463d
00000300: 5d00 f8bc b581 a53d 8db6 db3d c56c bc3d
00000310: c465 603c 39e7 82bd 7690 923d fe29 41be
00000320: 59ca fcbb a91b c73c d79e ad3d d1ef b4bd
00000330: 2cfa 943d 93a4 fd3d c34c e73d ed17 b33c
00000340: a9bf a3bd ecaa b83d 9927 44be 08bd bcbd
00000350: a6ce 27be c29a 0fbd e87a ccbb 8238 00be
00000360: aa13 10be 59d3 333b 0fc2 1bbb f427 9cbc
00000370: c949 4fbe 6bca b4bd 284d 97bb eace 4f3d
00000380: cb6c bf3d 9fc4 a43e 51c8 a43d 89f8 023d
00000390: 3c78 46be 2654 e03d 1176 3c3d 5a06 103e
000003a0: 0f2c 633d ab2b 3fbe e31e bfbd f26b 40bd
000003b0: bb9e 5ebe f8d0 993e 1d5d 03be 480e 043e
000003c0: 3fa1 a4bd 5b6f 1fbe addc 673d e7ff 6dbe
000003d0: 618d d7bd 539e 23bd fc53 64be fb47 82be
000003e0: d4b9 763d 09fd 973d d7bb 883d a0a8 89bd
000003f0: 73db e93d 5299 7c3d 0833 78bd 28c5 87bd

transformer_encoder.layers.1.self_attn.out_proj.bias f4 [64]
-0.12210871 0.09400053 -0.1674722 -0.2605215 0.12531972 -0.17585531 -0.069749996 0.08566208
-0.011950101 -0.18597527 0.23927227 -0.24882452 -0.045880936 0.19457296 -0.12373441 0.2486301
-0.25393206 0.12760824 -0.04482474 -0.16382694 -0.13256378 -0.013001394 0.10808039 0.18178944
-0.0923895 -0.05669067 0.0071104164 -0.021497887 -0.09454854 -0.2497875 -0.011414257 0.25737497
0.1921433 0.027883977 0.17994916 -0.12429257 0.013501388 -0.07558375 -0.09146964 0.113933705
0.06363547 0.07552313 -0.18695982 -0.16666844 0.22771463 0.13297014 0.22083731 0.12739746
-0.06627222 -0.15877926 -0.021069912 -0.102336034 0.07833712 -0.017005695 -0.084317334 -0.059034407
0.1066494 -0.10602204 -0.20251998 0.11751486 -0.18297957 -0.054454446 0.11364158 0.065041214
00000000: 2214 fabd 5a83 c03d d57d 2bbe 1363 85be
00000010: d053 003e 6a13 34be 16d9 8ebd 9a6f af3d
00000020: 5bca 43bc 4d70 3ebe ca03 753e dbcb 7ebe
00000030: a6ed 3bbd 223e 473e 7768 fdbd e498 7e3e
00000040: 6203 82be bcab 023e 269a 37bd 40c2 27be
00000050: cdbe 07be cd03 55bc 4059 dd3d 0327 3a3e
00000060: b536 bdbd 7a34 68bd 7ffe e83b 561c b0bc
00000070: aaa2 c1bd 4bc8 7fbe dd02 3bbc a7c6 833e
00000080: 37c1 443e f06c e43c 9844 383e 1a8d febd
00000090: ed34 5d3c a7cb 9abd 6f54 bbbd 1356 e93d
000000a0: 5053 823d dfab 9a3d 6572 3fbe 22ab 2abe
000000b0: 062e 693e 5329 083e 2d23 623e 7b74 023e
000000c0: bbb9 87bd 0897 22be cf9a acbc 8e95 d1bd
000000d0: 366f a03d 874f 8bbc 91ae acbd 10ce 71bd
000000e0: 006b da3d 1522 d9bd 6661 4fbe a2ab f03d
000000f0: ff5e 3bbe a00b 5fbd ebbc e83d 5434 853d

transformer_encoder.layers.1.linear1.bias f4 [128]
-0.19330393 -0.16185397 -0.21397853 -0.24067326 -0.030485151 -0.2802717 -0.15551618 -0.12788399
-0.18822205 -0.007976945 -0.113598734 -0.04899927 -0.21541418 -0.08272155 -0.13331264 -0.2287552
-0.19600095 -0.20453033 -0.20792796 -0.23675603 -0.1276626 -0.21242355 -0.08773073 -0.0074565453
-0.3458504 -0.20249464 -0.36338264 -0.21396552 -0.16956945 -0.21459743 -0.052949555 -0.12286434
-0.29485908 -0.11749221 -0.17932764 -0.26175657 -0.18852395 -0.11084524 -0.3122166 -0.17894945
-0.21857412 -0.30403063 -0.273007 -0.29847854 -0.091102935 -0.26781112 -0.18100883 -0.22407244
-0.21671288 -0.15430047 -0.14878614 -0.09142076 -0.054926828 -0.21208979 -0.23210704 -0.23006007
-0.114577495 -0.27819717 -0.20816366 -0.054971736 -0.13421372 -0.32723844 -0.2968446 -0.30933127
-0.22872062 -0.3291397 -0.24400744 -0.29012257 -0.13326868 -0.3147005 -0.1826607 -0.25374588
-0.21235205 -0.33601162 -0.10001045 -0.11995995 -0.22985844 -0.16901979 -0.20931822 -0.26239726
-0.11580239 -0.26880115 -0.25917184 -0.26410368 -0.10640252 -0.14968543 -0.17017506 -0.114404276
-0.09404557 -0.2164029 -0.35606924 -0.25405988 -0.027196841 -0.27263767 -0.11044637 -0.3102599
-0.03251511 -0.15498279 -0.07726325 -0.25944644 -0.15121159 -0.26904383 -0.22259523 -0.3710795
-0.28736335 -0.115985975 -0.16827801 -0.19549018 -0.19210166 -0.12955548 -0.0926794 -0.18804076
-0.22780026 -0.20251684 -0.26368678 -0.046900332 -0.10172923 -0.25330094 -0.17687143 -0.34224817
-0.083151534 -0.25005877 -0.20410466 -0.19512317 -0.1353037 -0.07813807 -0.17784554 -0.16713394
00000000: 77f1 45be 0cbd 25be 301d 5bbe 0d73 76be
00000010: ffbb f9bc c67f 8fbe a23f 1fbe 05f4 02be
00000020: 48bd 40be bbb1 02bc 74a6 e8bd 75b3 48bd
00000030: 8995 5cbe ea69 a9bd 1c83 08be ce3e 6abe
00000040: 79b4 48be 6670 51be 11eb 54be 2c70 72be
00000050: fcb9 02be 8f85 59be 2bac b3bd 0956 f4bb
00000060: 4e13 b1be c15a 4fbe 4a0d babe c719 5bbe
00000070: 9da3 2dbe 6ebf 5bbe a2e1 58bd 4da0 fbbd
00000080: c5f7 96be c19f f0bd aaa1 37be f504 86be
00000090: 6c0c 41be d402 e3bd dbda 9fbe 863e 37be
000000a0: e5d1 5fbe e7a9 9bbe 93c7 8bbe 2ed2 98be
000000b0: 2d94 babd 8a1e 89be 615a 39be 3f73 65be
000000c0: fbe9 5dbe f100 1ebe 655b 18be cf3a bbbd
000000d0: f4fa 60bd 112e 59be 78ad 6dbe de94 6bbe
000000e0: 9ba7 eabd dc6f 8ebe db28 55be 0b2a 61bd
000000f0: 526f 09be cc8b a7be 04fc 97be ab60 9ebe
00000100: bd35 6abe 0085 a8be 16dd 79be f28a 94be
00000110: 9677 08be 6d20 a1be 680b 3bbe fbea 81be
00000120: d172 59be b709 acbe 47d2 ccbd 90ad f5bd
00000130: 0360 6bbe 8613 2dbe 8457 56be ef58 86be
00000140: ce29 edbd 4ea0 89be 2cb2 84be 9938 87be
00000150: 90e9 d9bd 2347 19be 5f42 2ebe ca4c eabd
00000160: f79a c0bd b998 5dbe b54e b6be 2314 82be
00000170: e9cb debc 2a97 8bbe b531 e2bd 63da 9ebe
00000180: 902e 05bd cfb3 1ebe 323c 9ebd 2ad6 84be
00000190: 36d7 1abe 1dc0 89be 01f0 63be 22fe bdbe
000001a0: 4a21 93be 0e8a edbd 1251 2cbe 942e 48be
000001b0: 4cb6 44be 31aa 04be b3ce bdbd c28d 40be
000001c0: 7944 69be 9360 4fbe f401 87be 901a 40bd
000001d0: 6a57 d0bd a9b0 81be c91d 35be 273b afbe
000001e0: 5a4b aabd b407 80be d000 51be 5ece 47be
000001f0: 0e8d 0abe da06 a0bd 241d 36be 2925 2bbe

transformer_encoder.layers.1.linear2.bias f4 [64]
-0.0031823344 -0.09061768 -0.012435418 -0.20085368 -0.033376906 0.03801973 0.12950824 0.02128702
0.040784027 0.032072995 0.16031355 0.03317373 -0.090731554 0.12684105 0.10031763 -0.003949463
-0.074018985 -0.08213381 0.019598778 -0.34592253 0.021540921 -0.016384609 -0.026289936 -0.025341805
-0.1842259 -0.111962266 -0.0009477514 0.058803823 0.0064869504 0.07758924 0.0030038701 -0.04588635
0.082881786 0.022911174 -0.026271708 -0.15493515 -0.019332167 -0.046559095 0.031394463 0.03419627
0.084430106 0.30657813 -0.014709244 -0.19463834 -0.12178707 -0.02610951 0.012605475 0.00056790584
0.040546816 -0.3341671 0.07229991 -0.15935154 0.01689557 0.009347929 0.054803174 0.07513916
-0.007969682 -0.20530097 -0.032792773 0.095196396 -0.1473904 0.028776323 -0.048820782 -0.019672034
00000000: b68e 50bb c395 b9bd ecbd 4bbc 96ac 4dbe
00000010: 39b6 08bd 94ba 1b3d cf9d 043e 1e62 ae3c
00000020: 270d 273d f95e 033d 3c29 243e 2de1 073d
00000030: 77d1 b9bd 9fe2 013e 5473 cd3d 7f6a 81bb
00000040: 4497 97bd c535 a8bd 9e8d a03c c21c b1be
00000050: 9676 b03c 0439 86bc fe5d d7bc 9e99 cfbc
00000060: b7a5 3cbe 794c e5bd 8572 78ba 47dc 703d
00000070: 7c90 d43b 1ce7 9e3d 94dc 443b 53f3 3bbd
00000080: edbd a93d 37b0 bb3c c437 d7bc 52a7 1ebe
00000090: 7e5e 9ebc c0b4 3ebd 7b97 003d 6311 0c3d
000000a0: b1e9 ac3d cff7 9c3e 0aff 70bc 464f 47be
000000b0: 806b f9bd 9ce3 d5bc 3287 4e3c 84df 143a
000000c0: 6b14 263d f317 abbe fa11 943d 0d2d 23be
000000d0: 9468 8a3c 0e28 193c 4b79 603d 8fe2 993d
000000e0: 4593 02bc 6b3a 52be b751 06bd 54f6 c23d
000000f0: 82ed 16be 53bc eb3c 4df8 47bd 3f27 a1bc

transformer_encoder.layers.1.norm1.weight f4 [64]
0.74878234 1.1617398 1.2727144 0.8787322 1.0079814 0.9284903 0.41205105 0.7616005
0.9282365 0.5959677 0.7035322 0.42089158 0.88078415 0.86789364 0.78085524 0.92706716
0.65591615 0.63204855 0.58948904 0.88379174 0.74051535 0.8295462 0.5751618 0.7670501
1.433694 1.0850374 1.3379806 0.56920826 1.2786793 0.4852433 0.79958826 0.69812554
1.1322147 0.46506703 0.7271049 1.2483228 1.1680083 0.88065094 0.6057108 0.6783403
1.2930423 0.9861773 0.50359 0.6989369 0.50040066 1.0464133 1.1913278 1.248743
0.5843799 1.3172923 0.408491 1.1710054 0.7680376 0.62500995 1.1613009 0.80435014
1.2604052 0.96009076 0.29281822 1.0631305 1.0335097 0.7884159 0.58880657 0.6357671
00000000: 33b0 3f3f e4b3 943f 4ee8 a23f 98f4 603f
00000010: 8905 813f 8ab1 6d3f 5bf8 d23e 40f8 423f
00000020: e8a0 6d3f 5791 183f b01a 343f 1a7f d73e
00000030: 127b 613f 472e 5e3f 21e6 473f 4654 6d3f
00000040: 1fea 273f efcd 213f c1e8 163f 2d40 623f
00000050: 6a92 3d3f 245d 543f ce3d 133f 655d 443f
00000060: 4983 b73f 81e2 8a3f f342 ab3f a2b7 113f
00000070: c3ab a33f cf71 f83e d1b1 4c3f 5bb8 323f
00000080: 69ec 903f 441d ee3e 8c23 3a3f 0bc9 9f3f
00000090: 4c81 953f 5772 613f dd0f 1b3f b6a7 2d3f
000000a0: 6982 a53f 1e76 7c3f 46eb 003f 87ed 323f
000000b0: 421a 003f dff0 853f 6e7d 983f d0d6 9f3f
000000c0: ec99 153f 099d a83f bb25 d13e 81e3 953f
000000d0: 1d9e 443f a700 203f 82a5 943f e4e9 4d3f
000000e0: f554 a13f 82c8 753f 45ec 953e a914 883f
000000f0: 0c4a 843f a0d5 493f 07bc 163f a2c1 223f
