models/model_vwap_meanreversion_3min_v2.onnx (onnx, 221054 bytes, 8 tensors)

fc.weight f4 [3, 64]
-0.0776092 -0.1939623 0.04293651 0.051244527 0.16470537 0.17581414 -0.053916063 0.24281248
-0.15695065 -0.03367667 0.036811847 -0.016990673 -0.13243371 -0.0092785945 0.017847475 0.11049875
-0.12882157 0.1611646 -0.12494196 -0.017424004 0.15951723 0.02974369 0.10869341 0.13943161
0.120441526 -0.10572211 -0.1637154 -0.119437836 -0.14463364 0.08671512 -0.09572606 -0.17334421
0.08255991 -0.14901204 -0.09829541 0.0041406075 0.118417285 -0.20026818 -0.09874406 -0.14817774
0.100309275 0.15175605 0.018271592 -0.049865354 0.19793335 -0.10535642 0.039787408 -0.004870903
-0.15653156 0.09746074 -0.14348425 0.15105982 -0.08469803 0.051511116 0.072554395 0.1752504
-0.029831996 -0.08268404 0.11303127 -0.033332776 0.15421644 0.15357411 0.17310433 -0.16255781
-0.10509822 0.42222714 -0.03509914 0.0718268 -0.28874424 0.19956893 -0.1741194 0.012432259
-0.055340994 0.08470179 -0.044991095 -0.007994196 0.10147462 -0.17586696 -0.042868357 -0.12581368
0.16090254 -0.28170502 -0.14121921 0.4243758 -0.19767092 -0.09759511 -0.3701062 -0.11713339
0.011564436 -0.116058215 -0.16661163 -0.12778166 -0.1839536 -0.15755485 0.3922045 -0.0030167766
0.15124486 -0.14939447 0.3329587 0.09702423 -0.238297 0.19477212 -0.19215816 0.41490412
-0.26142943 0.1481465 -0.3486749 0.28208283 0.10588621 0.26333052 -0.05542477 -0.1690789
-0.17374064 -0.37358922 0.29179385 -0.31410483 0.24151811 -0.46659184 -0.14305635 -0.18232831
0.058264975 -0.10251388 -0.02686394 0.09453829 0.17188041 -0.12748304 -0.00880184 -0.0516497
0.6858609 -0.18332508 0.053191546 -0.9084796 0.18640496 -0.7935729 0.080092385 -0.295293
0.44490755 -0.20502166 0.086302616 0.7605281 -0.07413647 0.051266044 0.4065694 -0.19928725
0.25373387 0.15262525 0.7354445 -0.023100736 0.16253848 -0.003360215 0.10372925 -0.08760114
-0.044811767 0.6058678 0.76570636 0.77062666 0.6945457 0.09793502 -0.08873354 0.07048942
-0.30540413 0.41026574 -0.094081745 -0.0437601 0.15464266 -0.18428883 0.2417406 -0.15117653
0.09202685 -0.6817359 0.045614257 -0.018774109 -0.5609714 -0.049292717 -0.07420625 0.13050188
0.73157656 0.100182675 -0.12284052 0.18912056 -0.1367889 0.07411657 0.13217375 -0.020199109
-0.076770194 0.7728879 -0.4580094 0.12828068 -0.7796298 0.17647886 -0.23150665 0.045734372
00000000: 92f1 9ebd 0e9e 46be 32de 2f3d c8e5 513d
00000010: 86a8 283e 9f08 343e 17d7 5cbd d6a3 783e
00000020: acb7 20be 8cf0 09bd 05c8 163d 0630 8bbc
00000030: b49c 07be 3f05 18bc de34 923c 2b4d e23d
00000040: cde9 03be 5508 253e 92e1 ffbd c9bc 8ebc
00000050: 7c58 233e 0aa9 f33c a79a de3d 29c7 0e3e
00000060: 0caa f63d d584 d8bd 03a5 27be d39b f4bd
00000070: d71a 14be b297 b13d 060c c4bd 2581 31be
00000080: 2c15 a93d 9d96 18be 1b4f c9bd efad 873b
00000090: c384 f23d 1a13 4dbe 533a cabd e8bb 17be
000000a0: f36e cd3d f065 1b3e 4eae 953c 9d3f 4cbd
000000b0: 0aaf 4a3e 1bc5 d7bd 1ff8 223d 199c 9fbb
000000c0: cf49 20be 7f99 c73d 89ed 12be 6daf 1a3e
000000d0: 2976 adbd 52fd 523d 6697 943d d774 333e
000000e0: 3b62 f4bc 4056 a9bd f07c e73d f387 08bd
000000f0: eaea 1d3e 8842 1d3e 4342 313e 8e75 26be
00000100: bc3d d7bd 282e d83e 1ec4 0fbd ee19 933d
00000110: 49d6 93be cc5b 4c3e 5b4c 32be acb0 4b3c
00000120: 3dad 62bd 2278 ad3d 9548 38bd 17fa 02bc
00000130: edd1 cf3d 7816 34be bb96 2fbd 4dd5 00be
00000140: a3c3 243e a43b 90be c59b 10be c947 d93e
00000150: 3f6a 4abe f2df c7bd 8f7e bdbe a1e3 efbd
00000160: c378 3d3c eeaf edbd 3d9c 2abe 32d9 02be
00000170: 555e 3cbe 0f56 21be 07cf c83e 1db5 45bb
00000180: efdf 1a3e ddfa 18be 9079 aa3e a4b4 c63d
00000190: 2104 74be 5872 473e 1cc5 44be 506e d43e
000001a0: 14da 85be b7b3 173e 8485 b2be 296d 903e
000001b0: dfda d83d 42d3 863e 1505 63bd 0523 2dbe
000001c0: 11e9 31be 1647 bfbe 0166 953e 59d2 a0be
000001d0: 8650 773e 20e5 eebe 5d7d 12be 46b4 3abe
000001e0: 41a7 6e3d ccf2 d1bd c411 dcbc 4a9d c13d
000001f0: 6b01 303e ea8a 02be 9835 10bc a38e 53bd
00000200: 9494 2f3f 92b9 3bbe 61df 593d 1e92 68bf
00000210: f1e0 3e3e 9827 4bbf 7a07 a43d a530 97be
00000220: ecca e33e 33f1 51be 6dbf b03d f8b1 423f
00000230: ddd4 97bd 58fc 513d dd29 d03e f511 4cbe
00000240: 68e9 813e cb49 1c3e 1746 3c3f c13d bdbc
00000250: 7d70 263e 0e37 5cbb 0070 d43d 3a68 b3bd
00000260: 8b8c 37bd 271a 1b3f 5505 443f ca47 453f
00000270: bfcd 313f 2892 c83d eeb9 b5bd c25c 903d
00000280: ee5d 9cbe 5a0e d23e eead c0bd ca3d 33bd
00000290: a55a 1e3e 36b6 3cbe d98a 773e 05ce 1abe
000002a0: 9378 bc3d 3e86 2ebf 04d6 3a3d 29cc 99bc
000002b0: d29b 0fbf 29e7 49bd 72f9 97bd 49a2 053e
000002c0: 9a48 3b3f 932c cd3d d093 fbbd d2a8 413e
000002d0: 6412 0cbe 6eca 973d 8e58 073e 9a78 a5bc
000002e0: b139 9dbd fbdb 453f 3580 eabe 035c 033e
000002f0: d295 47bf e0b6 343e 1410 6dbe f753 3b3d

fc.bias f4 [3]
-0.14290486 -0.041078344 0.14774318
00000000: a755 12be c441 28bd fd49 173e

onnx::LSTM_193 f4 [1, 256, 15]
-0.29236552 -0.030558065 -0.5218486 -0.22813067 -0.0030422616 -0.09841346 0.34200156 0.06001219
-0.25145134 -0.07785731 -0.2870641 0.24389787 0.21158059 -0.33429492 -0.013455545 0.5354789
-0.17093307 0.48604244 0.5843609 0.5060323 -0.068114296 0.5675077 0.15423429 0.12257932
-0.045797117 -0.19184715 0.34467328 -0.26436657 -0.2699768 0.8588242 0.58148175 0.097727925
0.2814077 -0.031553462 -0.11262982 0.019161245 0.23357561 0.08030681 0.007875913 -0.49752057
-0.07794499 -0.06496238 -0.13892564 -0.051014174 0.31762114 -0.11970759 -0.27086824 -0.6202038
0.24161574 -0.086532466 -0.19355728 0.12141248 -0.13718048 -0.072981216 -0.29307655 -0.13503666
0.21465299 -0.031189024 -0.01654515 0.19191565 -0.0454324 -0.115568146 0.26731578 0.030210434
0.1425249 -0.1234115 -0.43186697 -0.419631 -0.09181695 -0.091332845 0.35576513 -0.3545352
0.1273737 -0.15263642 -0.50634307 0.12846825 -0.12726294 0.17669839 0.018156359 -0.20814626
-0.079861134 0.094414726 0.20155242 0.38526222 -0.0388132 0.30529594 -0.26975754 -0.04704736
-0.5862408 -0.49240062 -0.23233755 0.58757937 -0.076412156 0.25926977 0.07800737 0.177383
0.5218599 0.40576836 0.21597558 0.0819744 -0.1721167 0.07569818 0.04661864 0.31911668
0.087640285 0.23519942 0.016241463 -0.051710635 0.34916463 -0.18187307 0.034176044 -0.0011301178
0.37284747 0.08080112 -0.29903197 0.04854717 -0.05326678 -0.27462432 0.06516864 -0.33546728
0.17935762 0.5316997 -0.22020935 -0.018416578 -0.72410583 -0.26900718 0.38764068 0.20051484
-0.29114813 -0.12945814 -0.58405143 0.53652734 0.2309108 0.24032487 0.80835706 -0.16128503
0.17406659 -0.37147075 0.008331034 0.2756406 -0.4955328 -0.098704964 -0.12855922 -0.58942336
-0.67073077 -0.08406595 0.12366939 -0.31882024 0.28198314 -0.11308313 -0.38873038 -0.108791985
0.21581686 -0.05136837 -0.13866262 0.0066756895 -0.40340745 -0.043362025 0.46940577 -0.016527608
0.1668207 -0.22129905 -0.07903251 0.37896714 -0.08518833 -0.07116432 -0.0702419 -0.07848142
-0.030322967 0.03232342 -0.15486579 -0.2954125 0.0009700493 0.6029501 -0.40266052 0.058331076
0.015989527 -0.2653692 0.046395384 0.3239373 -0.045481626 0.11140314 -0.4107543 0.10535195
-0.413961 0.11659865 -0.08528952 -0.11093496 -0.44069445 0.14906415 -0.28571832 0.22509973
-0.8136254 -0.070788585 -0.5258814 0.5311223 -0.6222744 0.11231776 0.17694706 -0.84111786
0.036671657 0.19348358 -0.03569432 0.0039662174 0.050983876 -0.09796499 -0.039238993 -0.03580863
0.4233224 0.51341534 -0.23105319 0.0676731 -0.17229882 -0.20011294 0.1373679 -0.20178092
-0.53877807 -0.38503256 -0.6061124 -0.766495 0.1985274 -0.22422801 -0.33020106 -0.057359755
0.38391554 0.50887066 0.10816154 0.29518923 -0.2103998 -0.1076994 0.04409391 0.43292242
0.38611105 0.29651994 -0.36436036 0.10182681 0.0007642342 0.55194205 0.2503922 0.23680726
0.16930568 -0.6053119 -0.025255458 -0.17542478 -0.411999 -0.05055291 -0.21706596 -0.16676608
-0.26448143 0.30586606 0.5483343 -0.64525366 -0.36552954 -0.20251028 0.062459823 0.18998586
00000000: efb0 95be e854 fabc df97 05bf 169b 69be
00000010: ae60 47bb ff8c c9bd d41a af3e 58cf 753d
00000020: 3bbe 80be a773 9fbd 11fa 92be 5dc0 793e
00000030: 95a8 583e b428 abbe a574 5cbc 2515 093f
00000040: 1409 2fbe 8eda f83e ad98 153f 558b 013f
00000050: 827f 8bbd 2f48 113f 98ef 1d3e de0a fb3d
00000060: c295 3bbd 9473 44be 0479 b03e 0e5b 87be
00000070: 663a 8abe e7db 5b3f fddb 143f 9425 c83d
00000080: ac14 903e 343e 01bd 77aa e6bd 0bf8 9c3c
00000090: 722e 6f3e e677 a43d f909 013c 04bb febe
000000a0: 9fa1 9fbd ff0a 85bd 8642 0ebe 3df4 50bd
000000b0: 3d9f a23e 4129 f5bd 3eaf 8abe adc5 1ebf
000000c0: 1e6a 773e ef37 b1bd e133 46be 1ba7 f83d
000000d0: 0a79 0cbe 2d77 95bd 210e 96be 0d47 0abe
000000e0: fecd 5b3e 2080 ffbc b289 87bc 8985 443e
000000f0: 5317 3abd feae ecbd 9ddd 883e df7b f73c
00000100: 0cf2 113e 2bbf fcbd ab1d ddbe e0d9 d6be
00000110: 860a bcbd b70c bbbd d926 b63e a385 b5be
00000120: 406e 023e b94c 1cbe b39f 01bf 2e8d 033e
00000130: 3751 02be 6cf0 343e a5bc 943c 4b24 55be
00000140: 3c8e a3bd 825c c13d c263 4e3e 1741 c53e
00000150: 97fa 1ebd c04f 9c3e a91d 8abe bcb4 40bd
00000160: e113 16bf ef1b fcbe e5e9 6dbe 9a6b 163f
00000170: fa7d 9cbd 02bf 843e 54c2 9f3d e4a3 353e
00000180: 9c98 053f dfc0 cf3e b428 5d3e 32e2 a73d
00000190: 5c3f 30be a607 9b3d 30f3 3e3d 4363 a33e
000001a0: c07c b33d 1ed8 703e d10c 853c 88ce 53bd
000001b0: b5c5 b23e ef3c 3abe 2efc 0b3d 7620 94ba
000001c0: dde5 be3e 0f7b a53d b81a 99be 66d9 463d
000001d0: 442e 5abd 8f9b 8cbe 2377 853d 5ec2 abbe
000001e0: 86a9 373e 791d 083f 8f7e 61be 5dde 96bc
000001f0: 005f 39bf 4fbb 89be d778 c63e c353 4d3e
00000200: 5e11 95be ad90 04be 6584 15bf db59 093f
00000210: e173 6c3e b917 763e 7df0 4e3f e727 25be
00000220: 833e 323e 6a31 bebe e47e 083c c420 8d3e
00000230: 7ab6 fdbe d425 cabd 07a5 03be 73e4 16bf
00000240: 03b5 2bbf c52a acbd 6146 fd3d 683c a3be
00000250: 1860 903e 2198 e7bd ab07 c7be 55ce debd
00000260: 18ff 5c3e a467 52bd 93fd 0dbe bebf da3b
00000270: 6c8b cebe 619c 31bd f455 f03e e864 87bc
00000280: 0cd3 2a3e 389c 62be ccdb a1bd fb07 c23e
00000290: 3877 aebd 99be 91bd fcda 8fbd deba a0bd
000002a0: df67 f8bc 9065 043d 2395 1ebe 4f40 97be
000002b0: e84a 7e3a f05a 1a3f 8529 cebe 91ec 6e3d
000002c0: 78fc 823c 79de 87be 1609 3e3d 1cdb a53e
000002d0: f14a 3abd 5427 e43d 634e d2be c3c2 d73d
000002e0: b2f2 d3be 46cb ee3d 46ac aebd de31 e3bd
000002f0: b4a2 e1be 46a4 183e ac49 92be 8b80 663e
00000300: c149 50bf 9bf9 90bd 2aa0 06bf a2f7 073f
00000310: 604d 1fbf db06 e63d 9c31 353e 8053 57bf
00000320: 0535 163d 8f20 463e 3534 12bd 0bf7 813b
00000330: 78d4 503d dea1 c8bd 11b9 20bd 12ac 12bd
00000340: b7bd d83e 306f 033f 3599 6cbe 3298 8a3d
00000350: 1a6f 30be 68ea 4cbe 2caa 0c3e a89f 4ebe
00000360: 5ced 09bf fd22 c5be 2f2a 1bbf 0439 44bf
00000370: c44a 4b3e 079c 65be 1d10 a9be 10f2 6abd
00000380: 9490 c43e 5945 023f cc83 dd3d 0b23 973e
00000390: 0c73 57be 8191 dcbd d19b 343d 02a8 dd3e
000003a0: 59b0 c53e 76d1 973e 718d babe 938a d03d
000003b0: e456 483a 134c 0d3f 6833 803e 9a7d 723e
000003c0: 785e 2d3e b8f5 1abf 89e4 cebc 8ea2 33be
000003d0: 88f1 d2be 9110 4fbd 8a46 5ebe bac4 2abe
000003e0: 1c6a 87be 7a9a 9c3e a35f 0c3f 582f 25bf
000003f0: b026 bbbe db5e 4fbe dfd5 7f3d a78b 423e

onnx::LSTM_194 f4 [1, 256, 64]
0.2959823 -0.36110717 0.16916585 0.44129422 0.18646456 -0.19614573 -0.013039523 -0.8345013
0.73597765 -0.102616645 0.05168287 0.4092664 0.607038 -0.7366562 0.049943794 0.1327464
-0.48059914 -0.009105512 -0.0051359884 0.029039895 -0.14483124 0.15875527 0.32181945 -0.095454074
0.4865851 -0.055184003 -0.21308714 -0.21681602 -0.11105974 -0.105214745 0.35264602 0.31020677
0.30279377 0.32336852 0.2835952 0.30746496 -0.029504403 -0.25569025 0.5503704 0.41857448
0.26831192 -0.29656893 -0.025401797 -0.25292152 0.005752496 0.40714782 0.12591107 0.09135444
-0.16054861 -0.0036711525 0.16591895 -0.27834544 -0.029699631 0.33434972 0.31728548 -0.07472216
-0.23507056 0.16748609 -0.042182855 0.02916669 0.23559763 -0.013207088 0.24296162 -0.27844986
0.10140832 0.18347329 0.24571705 -0.43934628 -0.060477823 0.02725775 0.45231614 0.06867483
-0.647496 0.59213006 -0.85465574 -0.10060398 -0.009268843 -0.083475046 0.123654895 -0.093600184
-0.4538158 -0.06813439 -0.024340194 -0.3018252 0.12083898 -0.20807672 0.56287146 0.5243574
0.26017848 0.2925025 0.3614694 0.5004294 0.3980356 -0.43227628 0.4962578 -0.45049304
-0.02738679 0.11645902 -0.33572444 0.029542556 -0.13566898 0.3683202 0.10659463 -0.09951979
-0.056965716 -0.0029900433 -0.016646234 -0.45895004 -0.26506025 -0.2963876 -0.23772918 -0.014725325
0.12178352 -0.16887645 -0.32221398 -0.42235696 0.13801344 0.2278135 -0.5400001 0.0030606124
0.38467908 -0.03039649 -0.30010673 0.14128965 0.13810329 -0.18806131 0.22670922 0.06400556
0.09643094 -0.17644598 -0.1079981 -0.57634324 -0.6605839 -0.11886919 0.46919125 -0.19358636
-0.18321379 0.30920443 -0.029442443 -0.26633084 0.13631906 0.11664438 0.26480088 0.11004648
-0.038988497 0.023286734 -0.5449524 -0.20940429 0.3992457 -0.039478734 0.37975016 0.8092893
0.048785437 0.0063407687 0.0914916 0.6756 0.36265215 -0.28303015 0.5879619 -0.60990757
0.092813045 -0.0812419 -0.4927026 0.19529961 -0.011883684 0.25883085 -0.3180893 -0.7708035
-0.3019429 -0.03764564 -0.16085649 -0.23647173 -0.498694 0.37078798 0.063929334 -0.050724175
0.34074685 0.18027967 -0.029161008 -0.05566727 0.03996372 -0.26289007 -0.27976397 -0.3435013
0.4273548 -0.013899751 -0.44584537 -0.06759983 -0.18136299 -0.14889243 0.22034495 -0.29022682
0.6858513 -0.21470061 0.19600107 -0.18638773 0.44033378 -0.21379271 -0.4994396 -0.05431713
0.004384677 -0.04581452 0.3597268 0.35884327 0.6307448 0.022713762 -0.4534672 0.28889084
0.16260538 0.09490909 0.3175496 0.30268 0.21132985 0.272262 0.2075641 -0.19233838
0.031116929 0.10363291 -0.02032802 -0.35348052 0.19651255 0.30451214 0.16162905 0.32874003
0.25011873 0.20556366 0.23625374 -0.10741665 -0.2302128 -0.070056535 0.058562256 0.07950429
0.12948033 -0.043677606 -0.09922174 -0.25757572 -0.534549 0.3663074 0.017017525 0.03355101
-0.42589274 -0.47773567 0.08834136 -0.35076848 -0.13520265 -0.20442592 0.36653292 0.06113195
-0.07909168 -0.09080969 0.33494923 0.13039443 0.18582235 0.15569167 0.49079883 0.12029168
00000000: fe8a 973e 0ae3 b8be d039 2d3e 51f1 e13e
00000010: 91f0 3e3e 6dda 48be b9a3 55bc e1a1 55bf
00000020: 0869 3c3f ad28 d2bd 6bb1 533d 5e8b d13e
00000030: d866 1b3f 8095 3cbf dd91 4c3d acee 073e
00000040: 1711 f6be 492f 15bc cb4b a8bb 13e5 ed3c
00000050: a44e 14be be90 223e 85c5 a43e 6d7d c3bd
00000060: af21 f93e 9f08 62bd 8433 5abe 0505 5ebe
00000070: 4a73 e3bd d47a d7bd 058e b43e 6cd3 9e3e
00000080: c907 9b3e 8f90 a53e 6433 913e 0c6c 9d3e
00000090: 38b3 f1bc d5e9 82be 13e5 0c3f 654f d63e
000000a0: 2e60 893e e2d7 97be 6e17 d0bc ee7e 81be
000000b0: 6f7f bc3b ae75 d03e d5ee 003e 0918 bb3d
000000c0: db66 24be b897 70bb a8e6 293e 4b83 8ebe
000000d0: a44c f3bc e32f ab3e 3e73 a23e ef07 99bd
000000e0: 56b6 70be 7981 2b3e eec7 2cbd fbee ee3c
000000f0: 8140 713e 8b62 58bc eeca 783e fb90 8ebe
00000100: 2aaf cf3d 6ce0 3b3e 409d 7b3e fff1 e0be
00000110: 98b7 77bd a54b df3c fb95 e73e 64a5 8c3d
00000120: 4cc2 25bf d695 173f b8ca 5abf 7609 cebd
00000130: 58dc 17bc f7f4 aabd c73e fd3d 74b1 bfbd
00000140: 8b5a e8be 0b8a 8bbd 1665 c7bc d588 9abe
00000150: 6d7a f73d 1012 55be 5818 103f 493c 063f
00000160: 1d36 853e e3c2 953e 8412 b93e 241c 003f
00000170: 52cb cb3e 5153 ddbe 8115 fe3e 06a7 e6be
00000180: 435a e0bc 1182 ee3d 13e4 abbe 3b03 f23c
00000190: cfec 0abe 7794 bc3e 494e da3d 08d1 cbbd
000001a0: e254 69bd 9af4 43bb af5d 88bc 80fb eabe
000001b0: fab5 87be 1ec0 97be 476f 73be 7d42 71bc
000001c0: a369 f93d f3ed 2cbe 3bf9 a4be 2c3f d8be
000001d0: 6553 0d3e f147 693e 723d 0abf 8e94 483b
000001e0: a8f4 c43e 0f02 f9bc 97a7 99be 3cae 103e
000001f0: f36a 0d3e 2593 40be 7626 683e 5915 833d
00000200: 967d c53d 41ae 34be 1c2e ddbd 3b8b 13bf
00000210: 071c 29bf b171 f3bd d639 f03e 813b 46be
00000220: 659c 3bbe 0b50 9e3e 4731 f1bc 845c 88be
00000230: 3997 0b3e 40e3 ee3d fb93 873e 0d60 e13d
00000240: 67b2 1fbd d2c3 be3c 0082 0bbf 146e 56be
00000250: ef69 cc3e 74b4 21bd 9d6e c23e 952d 4f3f
00000260: 3dd3 473d 39c6 cf3b f35f bb3d 1ff4 2c3f
00000270: 8bad b93e 54e9 90be ac84 163f e722 1cbf
00000280: c414 be3d 2762 a6bd 8443 fcbe 9ffc 473e
00000290: c9b3 42bc 7a85 843e 9adc a2be 6153 45bf
000002a0: 4398 9abe 5132 1abd 90b7 24be a525 72be
000002b0: d254 ffbe ecd7 bd3e 62ed 823d 27c4 4fbd
000002c0: 5f76 ae3e 3c9b 383e 11e3 eebc 5d03 64bd
000002d0: ffb0 233d 8799 86be 393d 8fbe 67df afbe
000002e0: 40ce da3e c8bb 63bc d845 e4be c871 8abd
000002f0: 38b7 39be 4277 18be 1ba2 613e 9c98 94be
00000300: f393 2f3f 7ada 5bbe 81b4 483e 6ddc 3ebe
00000310: 6e73 e13e 7aec 5abe 8cb6 ffbe a47b 5ebd
00000320: 56ad 8f3b 02a8 3bbd 1c2e b83e 4eba b73e
00000330: 7e78 213f 3612 ba3c da2c e8be 80e9 933e
00000340: 0682 263e b25f c23d dc95 a23e dff8 9a3e
00000350: da66 583e ed65 8b3e af8b 543e 5af4 44be
00000360: eee8 fe3c 7e3d d43d f386 a6bc 66fb b4be
00000370: 963a 493e 04e9 9b3e 1682 253e 9d50 a83e
00000380: 900f 803e 487f 523e 80ec 713e 43fd dbbd
00000390: e7bc 6bbe cd79 8fbd fade 6f3d 25d3 a23d
000003a0: 7e96 043e 4ae7 32bd c534 cbbd f7e0 83be
000003b0: 34d8 08bf a58c bb3e 5668 8b3c c96c 093d
000003c0: 9d0e dabe c599 f4be 51ec b43d ed97 b3be
000003d0: 9072 0abe 0755 51be 34aa bb3e 7f65 7a3d
000003e0: d2fa a1bd 6efa b9bd 777e ab3e 1e86 053e
000003f0: 3748 3e3e a36d 1f3e fc49 fb3e 7c5b f63d

onnx::LSTM_195 f4 [1, 512]
-0.027188733 -0.08198802 -0.16533247 0.15556441 0.102630496 -0.40449214 0.06836212 -0.08797291
-0.08300026 0.18027659 -0.04070235 0.2079882 0.34397018 -0.10633461 0.06372456 -0.23335288
0.14039406 0.017213432 -0.10774799 0.40298572 -0.07541507 -0.037187986 0.38633713 0.5887239
0.019242816 0.29478478 -0.42403984 0.08567877 0.26127008 0.12956703 0.023470286 0.03578633
0.33227283 0.4255331 0.11046032 0.2861415 0.22177921 -0.02099702 0.078176506 -0.05112152
-0.13684979 0.3036273 -0.011154636 0.027592769 0.5292359 -0.2822108 -0.07702227 0.19550538
-0.2572036 -0.0664276 -0.2367681 0.06660796 -0.09992773 -0.11185338 -0.37524518 -0.17091976
0.031711705 0.005975785 -0.067829944 0.029927786 0.13241297 0.25482598 0.028713627 -0.2697173
0.09546237 0.13483496 -0.03955856 0.17169572 0.21836805 0.0690854 0.18043433 0.197368
0.10568011 0.21091351 0.30011946 0.2110577 0.3129585 0.4270226 0.27417064 -0.16379322
0.070642926 0.01030136 0.13765831 0.6918431 0.12338602 0.1024038 0.2860802 0.23336616
0.19956285 0.25782073 -0.027965494 0.17236918 0.21830793 0.17218207 0.10977075 0.14469457
0.34251633 0.21344611 0.43012404 0.06763627 0.23202495 0.06490395 -0.04116868 0.04665187
0.126275 0.37455812 0.08032045 0.086217634 0.32786122 0.07001579 0.04457645 0.09314683
0.22333078 0.033830702 -0.19308601 0.09605987 0.20826629 0.20027953 0.09763872 0.22680415
-0.06427651 0.028055187 -0.020346913 0.45626467 0.20072453 0.31081438 0.4552446 0.18368599
0.038135912 -0.07673439 -0.343487 0.062731534 -0.101060085 0.20422263 0.043965712 0.2657482
-0.4966338 -0.38972965 0.05957568 0.047849726 -0.12926078 -0.15577021 0.09408145 -0.26162955
-0.19392437 0.074659996 0.16533026 -0.88077945 -0.16747825 0.25374758 -0.585419 -0.6927922
-0.3464512 -0.7096378 -0.16338594 -0.5533668 -0.6946045 -0.43465674 -0.03543592 0.26676035
-0.17436841 -0.24769314 -0.35799024 -0.028191313 -0.31282994 -0.3624774 0.12246178 -0.07560666
0.4359297 -0.12447302 0.025337452 0.19900489 -0.36704963 0.14830518 0.030553117 -0.009224535
0.31204805 -0.4123314 -0.017000757 0.20845091 0.058634568 0.14941353 0.264332 -0.046351958
-0.05606425 0.012438875 0.11315355 -0.46996784 -0.14955938 -0.7802451 0.036296938 0.11723733
-0.011005451 0.07942262 0.03490988 0.03922587 0.13318823 0.04314727 0.020391317 0.078225814
0.06173794 0.00896222 0.0037692871 0.04342594 -0.0022584468 -0.04586361 -0.0064484114 -0.037694864
0.13296153 -0.038775705 -0.08068598 -0.070733376 -0.00542188 -0.13397567 -0.05192118 -0.03392222
0.064892955 -0.093375914 -0.14724049 -0.18428963 -0.030977936 0.22367755 -0.10769158 0.18282257
-0.16842112 -0.09228358 -0.07041062 0.052669745 0.21619226 0.056643933 -0.014529148 -0.05181617
0.026399102 -0.025639184 -0.054582816 -0.1409573 0.23122442 -0.22643335 -0.025568368 0.014259009
0.0739909 0.030624818 0.18866962 0.0021008654 -0.15568417 -0.09543188 0.1334576 0.0090125445
0.042945996 0.07048417 -0.02342228 -0.14634019 -0.23562676 0.18511645 -0.13080266 0.03371582
00000000: e8ba debc 56e9 a7bd ea4c 29be 474c 1f3e
00000010: f02f d23d 9819 cfbe 7001 8c3d 242b b4bd
00000020: 0afc a9bd 6d9a 383e 82b7 26bd dcfa 543e
00000030: dc1c b03e f6c5 d9bd 0682 823d 0ff4 6ebe
00000040: 76c3 0f3e 2f03 8d3c faaa dcbd 2554 ce3e
00000050: 3773 9abd 6e52 18bd fbcd c53e 9cb6 163f
00000060: 1ca3 9d3c 08ee 963e c01b d9be 5a78 af3d
00000070: 31c5 853e 38ad 043e c244 c03c b094 123d
00000080: aa1f aa3e 79df d93e 0539 e23d 2481 923e
00000090: 171a 633e f101 acbc 011b a03d cd64 51bd
000000a0: 5a22 0cbe 0a75 9b3e efc1 36bc 3b0a e23c
000000b0: 017c 073f ef7d 90be dabd 9dbd 9032 483e
000000c0: 31b0 83be 320b 88bd 5673 72be c169 883d
000000d0: e9a6 ccbd 6313 e5bd 2320 c0be 9705 2fbe
000000e0: 22e4 013d 85d0 c33b 6dea 8abd 1e2b f53c
000000f0: 4497 073e 8d78 823e d738 eb3c 6318 8abe
00000100: c681 c33d 2d12 0a3e 2808 22bd 01d1 2f3e
00000110: e09b 5f3e a57c 8d3d c7c3 383e d61a 4a3e
00000120: d06e d83d b6f9 573e 42a9 993e 821f 583e
00000130: 193c a03e b5a2 da3e 1860 8c3e 69b9 27be
00000140: 3dad 903d 09c7 283c 4df6 0c3e a11c 313f
00000150: cfb1 fc3d 15b9 d13d 1b79 923e 8af7 6e3e
00000160: 345a 4c3e 1401 843e e417 e5bc 8c81 303e
00000170: 1d8c 5f3e 7f50 303e 7dcf e03d d02a 143e
00000180: 4d5e af3e 9e91 5a3e 3839 dc3e e284 8a3d
00000190: f397 6d3e 5dec 843d 7da0 28bd 0816 3f3d
000001a0: 3c4e 013e 15c6 bf3e 0c7f a43d df92 b03d
000001b0: 6ddd a73e 7064 8f3d cc95 363d c4c3 be3d
000001c0: d3b0 643e 1092 0a3d 57b8 45be 0abb c43d
000001d0: c243 553e 1416 4d3e cff6 c73d 593f 683e
000001e0: 67a3 83bd fed3 e53c 92ae a6bc 869b e93e
000001f0: bb8a 4d3e 1023 9f3e d215 e93e 2e18 3c3e
00000200: 6734 1c3d eb26 9dbd 87dd afbe 6479 803d
00000210: 97f8 cebd bd1f 513e 6415 343d 2610 883e
00000220: c946 febe a58a c7be a105 743d 13fe 433d
00000230: f05c 04be 3a82 1fbe c6ad c03d 4ff4 85be
00000240: 1c94 46be 57e7 983d 564c 293e c37a 61bf
00000250: 6b7f 2bbe 34eb 813e 05de 15bf d45a 31bf
00000260: 0d62 b1be d3aa 35bf a54e 27be 72a9 0dbf
00000270: 9ad1 31bf 548b debe 4125 11bd d094 883e
00000280: a28d 32be 45a3 7dbe 7f4a b7be 78f1 e6bc
00000290: 3f2b a0be a396 b9be 3ecd fa3d aad7 9abd
000002a0: 2d32 df3e b6eb febd 7d90 cf3c f0c7 4b3e
000002b0: eeed bbbe 50dd 173e 884a fa3c 8122 17bc
000002c0: c3c4 9f3e 1a1d d3be 2c45 8bbc 2874 553e
000002d0: cd2a 703d dcff 183e 8656 873e 8ddb 3dbd
000002e0: a1a3 65bd 6ccc 4b3c 0cbd e73d a09f f0be
000002f0: 1826 19be 25be 47bf 19ac 143d 201a f03d
00000300: 3550 34bc 54a8 a23d aafd 0e3d 4eab 203d
00000310: 7f62 083e 31bb 303d b10b a73c db34 a03d
00000320: ece0 7c3d 46d6 123c 2506 773b 66df 313d
00000330: 7302 14bb 7bdb 3bbd 324d d3bb ee65 1abd
00000340: 1127 083e 46d3 1ebd b13e a5bd a9dc 90bd
00000350: 07aa b1bb eb30 09be 4eab 54bd 07f2 0abd
00000360: 99e6 843d df3b bfbd 36c6 16be 6cb6 3cbe
00000370: 71c5 fdbc ba0b 653e 678d dcbd d735 3b3e
00000380: 9676 2cbe 2cff bcbd 7133 90bd 3bbc 573d
00000390: 8161 5d3e 7803 683d aa0b 6ebc 313d 54bd
000003a0: ee42 d83c 4409 d2bc 3b92 5fbd 1c57 10be
000003b0: 18c6 6c3e 25de 67be c174 d1bc 9e9e 693c
000003c0: 8a88 973d e6e0 fa3c 9c32 413e acae 093b
000003d0: ac6b 1fbe ca71 c3bd 1ca9 083e 5aa9 133c
000003e0: 24e8 2f3d 015a 903d 15e0 bfbc 34da 15be
000003f0: 2448 71be 2b8f 3d3e 22f1 05be 9a19 0a3d

onnx::LSTM_213 f4 [1, 256, 64]
-0.19539692 -0.016739678 -0.23438105 0.021571929 0.03795858 0.08833608 0.11261895 -0.026854925
0.4167692 0.16518162 0.26592505 -0.077063516 0.025929796 0.015911825 0.15585458 -0.16453542
0.20383172 -0.020034125 -0.0516636 -0.047837254 0.14277937 0.096070156 0.078038625 -0.0029549014
0.040034447 0.0019158727 -0.02441189 -0.0332563 -0.021941438 -0.0074557485 -0.0059016924 0.03866221
-0.028424092 -0.3804901 0.024948267 -0.037316006 0.117494054 -0.07710941 -0.02784357 -0.0764938
0.20745064 0.18497045 0.01791001 -0.037686702 -0.20731202 -0.012222371 -0.44753465 -0.008094364
0.1184329 0.20635785 0.11377332 0.117423005 -0.158643 0.0473289 -0.096854575 -0.048223265
0.12364283 0.17179681 0.36156678 0.099668495 0.036686163 0.18715893 0.07462633 -0.3551927
0.24252513 0.18126966 0.2387591 0.09372072 -0.22940435 0.03608545 0.086857475 -0.0587768
-0.21425445 -0.15069607 -0.17788126 0.12831518 0.273616 0.15091996 -0.13290407 0.22888151
0.15828581 0.39512396 0.008551089 -0.14044672 -0.0067290515 0.34081638 0.048161775 0.010934531
0.41849425 0.36668766 0.29154903 0.17281035 0.07109328 -0.2690539 -0.21186943 0.059511773
0.09877373 0.0040337564 -0.1375193 -0.18496622 -0.25001004 -0.25566837 -0.2324145 -0.16752282
-0.25754225 -0.10999151 0.06584404 -0.1190892 -0.09460499 -0.3093704 -0.17152469 -0.093393095
-0.096621506 0.044055257 0.23280653 -0.11032536 0.036110528 0.064908005 0.0028902527 -0.066720895
-0.06213785 0.1230282 0.16896325 0.16057228 0.13077064 -0.061310872 -0.13548507 0.17865904
0.109468296 0.0036686994 -0.037284788 -0.33141187 0.022199338 -0.33907977 0.31584978 -0.5150696
-0.067576885 0.29517567 -0.10288476 0.32920435 -0.09648441 0.03808671 0.39501783 0.1595363
-0.4488812 -0.056459248 0.014595199 -0.27688473 -0.22168253 -0.044395316 0.04390107 0.009094918
-0.025027359 0.10672343 0.10377094 -0.21811827 0.27707708 0.35678205 0.18685326 -0.4175599
-0.064817876 -0.115428664 0.01909719 0.26690525 -0.4652038 0.0150337 0.03357323 0.19205712
-0.022435527 0.15190625 0.24134006 0.019972712 0.3756066 -0.026488356 -1.0027572 0.30213135
0.010497245 -0.42773756 -0.04059316 0.16871776 0.32777342 0.2953337 0.025335845 0.368104
-0.28044647 0.47565404 0.2832073 -0.10578033 0.3004636 -0.14128882 0.08207624 -0.31973884
-0.105259895 0.028424844 0.4855755 0.016185548 0.15063266 0.15751688 0.104843386 0.13478166
0.11878398 -0.20329945 0.08472293 -0.03706404 0.13567366 0.0030958941 -0.11765869 0.080925465
-0.02300497 0.13823831 -0.0601882 0.04948727 0.18207183 0.3156568 -0.04656355 0.009546655
0.088524684 -0.06271449 0.09335741 -0.11019337 -0.30669004 0.24360812 -0.36393058 0.11038421
-0.08114224 -0.19612151 0.058570992 0.068598576 -0.16062464 -0.29112875 0.025644736 -0.19016159
-0.031308394 -0.19899811 -0.09206088 0.017665396 -0.33373436 0.004380908 -0.18172628 0.12678874
0.15359117 -0.14395848 0.1149796 0.12799731 -0.2143386 0.04323507 0.060690317 0.05855116
0.062541015 -0.04367241 -0.007474544 0.25124758 -0.121768296 0.10219523 0.06509789 0.022580002
00000000: 2116 48be a621 89bc 9601 70be 9db7 b03c
00000010: 757a 1b3d 8ce9 b43d c4a4 e63d dcfe dbbc
00000020: c662 d53e 5f25 293e 5427 883e 7ad3 9dbd
00000030: b96a d43c 8459 823c 5898 1f3e f97b 28be
00000040: 43b9 503e 9b1e a4bc 369d 53bd fff0 43bd
00000050: c134 123e 6ec0 c43d b7d2 9f3d 05a7 41bb
00000060: 29fb 233d 051e fb3a 72fb c7bc c237 08bd
00000070: 88be b3bc 5a4f f4bb fc62 c1bb 445c 1e3d
00000080: a4d9 e8bc 99cf c2be 4f60 cc3c abd8 18bd
00000090: b9a0 f03d 8aeb 9dbd 3318 e4bc c8a8 9cbd
000000a0: f16d 543e e568 3d3e 03b8 923c 5f5d 1abd
000000b0: 9a49 54be 5740 48bc 4323 e5be 399e 04bc
000000c0: f38c f23d 794f 533e fd01 e93d 797b f03d
000000d0: 5073 22be f3db 413d b15b c6bd c285 45bd
000000e0: 7438 fd3d 81eb 2f3e 481f b93e ff1e cc3d
000000f0: 3b44 163d 97a6 3f3e b0d5 983d d1db b5be
00000100: 8258 783e c19e 393e 447d 743e a6f0 bf3d
00000110: f9e8 6abe 56ce 133d 55e2 b13d f1bf 70bd
00000120: 8565 5bbe 1250 1abe 8126 36be 0e65 033e
00000130: 6517 8c3e c38a 1a3e 0118 08be ea5f 6a3e
00000140: ad15 223e b04d ca3e de19 0c3c 44d1 0fbe
00000150: 607f dcbb 7c7f ae3e 4845 453d bf26 333c
00000160: e144 d63e 7cbe bb3e ea45 953e 32f5 303e
00000170: 5b99 913d 6fc1 89be 4df4 58be 9ec2 733d
00000180: e249 ca3d 9a2d 843b dcd1 0cbe c967 3dbe
00000190: 5101 80be f7e6 82be 11fe 6dbe 1a8b 2bbe
000001a0: 94dc 83be 3b43 e1bd 3dd9 863d 0ae5 f3bd
000001b0: 43c0 c1bd cc65 9ebe 2ba4 2fbe e144 bfbd
000001c0: 7fe1 c5bd 4973 343d d664 6e3e 43f2 e1bd
000001d0: a2e8 133d 7dee 843d 656a 3d3b f7a4 88bd
000001e0: 4284 7ebd 35f6 fb3d b404 2d3e 0f6d 243e
000001f0: bde8 053e 1c21 7bbd 99bc 0abe 65f2 363e
00000200: ea30 e03d 906e 703b efb7 18bd d1ae a9be
00000210: 63db b53c dd9b adbe 10b7 a13e 9adb 03bf
00000220: c065 8abd 4421 973e 3fb5 d2bd 798d a83e
00000230: 9e99 c5bd cf00 1c3d c73f ca3e 7c5d 233e
00000240: c2d3 e5be d041 67bd b420 6f3c d6c3 8dbe
00000250: bf00 63be ddd7 35bd 9cd1 333d da02 153c
00000260: 2d06 cdbc d091 da3d dc85 d43d 655a 5fbe
00000270: 0cdd 8d3e 23ac b63e 7656 3f3e 69ca d5be
00000280: 3cbf 84bd dd65 ecbd b671 9c3c cea7 883e
00000290: 312f eebe e84f 763c 1584 093d 9faa 443e
000002a0: b6ca b7bc 508d 1b3e d921 773e d09d a33c
000002b0: 824f c03e 1cfe d8bc 595a 80bf f6b0 9a3e
000002c0: a3fc 2b3c 6b00 dbbe 0345 26bd 59c4 2c3e
000002d0: ebd1 a73e fb35 973e 1e8d cf3c 2178 bc3e
000002e0: ae96 8fbe ed88 f33e 8c00 913e 5ca3 d8bd
000002f0: 5dd6 993e 04ae 10be 9617 a83d cfb4 a3be
00000300: 8092 d7bd 38db e83c 5a9d f83e 8e97 843c
00000310: 733f 1a3e 1b4c 213e 21b8 d63d 3404 0a3e
00000320: 0445 f33d bb2d 50be 3783 ad3d 76d0 17bd
00000330: 09ee 0a3e 7ce4 4a3b 0af7 f0bd 40bc a53d
00000340: eb74 bcbc 588e 0d3e e787 76bd 2ab3 4a3d
00000350: 0a71 3a3e c59d a13e 6cb9 3ebd 9369 1c3c
00000360: 6e4c b53d 7470 80bd 2b32 bf3d 10ad e1bd
00000370: 7a06 9dbe 6874 793e 1c55 babe 1e11 e23d
00000380: e72d a6bd 14d4 48be 23e8 6f3d 697d 8c3d
00000390: c97a 24be d40e 95be e914 d23c b8b9 42be
000003a0: 3b3d 00bd 29c6 4bbe 6a8a bcbd 05b7 903c
000003b0: 3bdf aabe b88d 8f3b 7416 3abe e8d4 013e
000003c0: 0147 1d3e da69 13be 6d7a eb3d ba11 033e
000003d0: 947b 5bbe 4217 313d 6996 783d 57d3 6f3d
000003e0: 8115 803d d7e1 32bd 05ed f4bb 86a3 803e
000003f0: a861 f9bd bc4b d13d 0b52 853d b2f9 b83c

onnx::LSTM_214 f4 [1, 256, 64]
0.15616895 0.12236071 0.21030091 0.050555892 -0.07608096 0.061811913 0.1573752 0.35003385
-0.19580886 -0.07300147 -0.2701817 -0.07189648 -0.32522333 -0.012597482 0.1885993 0.050311018
-0.5727103 -0.2508755 -0.028525492 0.040142592 -0.4184217 -0.09345493 0.054709036 0.37621397
0.023002077 -0.10849458 -0.09038602 -0.15469344 0.013573403 -0.34477505 0.06321757 -0.012977691
-0.21531716 -0.1199624 0.027598396 -0.047372106 0.104507335 -0.21026778 -0.23336883 0.035672985
-0.3416106 0.15000777 -0.14951156 0.29850677 -0.12494071 0.12829801 -0.320643 -0.026358983
-0.026930748 -0.08287525 -0.044890124 -0.16746186 0.07293768 -0.059928276 -0.44118205 0.050244704
0.1686415 -0.013286629 0.021656767 0.27399525 0.064310096 0.053710863 0.3648282 -0.4422209
-0.02391859 0.11176271 -0.12792085 -0.013131879 0.1544005 -0.09453446 0.100463495 -0.10151599
0.15195894 -0.06261489 -0.17246601 0.2015251 0.16417737 0.0963177 0.028225211 -0.04697453
0.052041985 0.44410697 -0.035428558 -0.24057062 -0.09170117 -0.25156018 0.16870381 0.08918419
0.30926946 0.06312966 0.16932838 0.104289964 -0.016226517 0.103980966 0.16694966 0.07381787
-0.17991412 0.3244814 -0.044502825 -0.13792157 0.0834132 -0.2251562 -0.041068934 -0.14329986
0.21951027 -0.113103114 0.0034239623 0.052312497 -0.054744452 0.11713085 0.05816828 -0.17619221
0.14101432 0.087170675 -0.4404176 0.24976385 0.13164479 0.21105283 0.1100575 -0.02995638
0.15468742 0.08328484 -0.20626137 0.14369962 -0.16436099 -0.11264967 -0.12347575 -0.035605
0.06524183 -0.41584814 -0.058035363 -0.019641532 0.26835537 -0.23773965 0.5458882 0.040913742
-0.097063065 -0.1847192 0.7576145 -0.027973214 -0.39575714 0.36154023 0.33956522 0.19881052
-0.04975605 0.09977424 0.21473956 -0.13047493 0.023521474 0.40848452 -0.0129818 0.50030994
-0.05732839 0.07946746 0.17453079 0.094955616 0.24433638 -0.19864616 -0.46401218 0.17553237
-0.11814958 0.14145346 0.2697567 0.29374903 0.11696995 -0.57646567 0.34556735 -0.1605291
-0.44898593 -0.12566938 0.3933138 0.26340303 -0.107394375 -0.059664074 0.030301467 0.7099402
0.22678037 0.3671798 -0.1553974 0.093077764 -0.033506397 0.029834718 0.025739755 0.26953858
-0.06632113 -0.030603305 -0.07731514 -0.041096363 -0.0061728493 0.21210004 -0.011305185 0.089746416
-0.018450867 -0.049544655 -0.13852492 -0.007549568 0.012519027 -0.08621139 -0.014218747 0.16426305
-0.21386948 -0.18364783 -0.16127415 -0.2364377 -0.36158738 0.002418924 0.14614232 0.03747413
-0.351285 -0.22160625 -0.13543503 0.075411595 -0.42739594 -0.02154273 0.10172595 0.149837
-0.09378432 -0.1580044 -0.038969185 -0.16169243 -0.05722296 -0.1805212 -0.10225001 0.07042541
-0.13211039 0.06060549 -0.14708877 0.14347298 -0.05433587 -0.010191358 -0.16349624 0.0065272804
-0.11234742 0.40323162 -0.059887607 0.10966473 0.040507868 0.076564915 -0.20486401 -0.009334129
0.07739048 -0.006426556 -0.053359896 -0.035189886 -0.03287549 0.20119981 -0.3531633 -0.10690746
-0.071517855 -0.17093381 0.16797975 0.31378552 0.12336746 -0.014504947 0.21786864 -0.30310804
00000000: c1ea 1f3e 4098 fa3d 1f59 573e b213 4f3d
00000010: 56d0 9bbd 7d2e 7d3d f726 213e a337 b33e
00000020: 1e82 48be cb81 95bd 4155 8abe 763e 93bd
00000030: ac83 a6be ab65 4ebc 2d20 413e ed12 4e3d
00000040: 249d 12bf c172 80be 4bae e9bc 8f6c 243d
00000050: 5e3b d6be 4c65 bfbd 9516 603d 1e9f c03e
00000060: da6e bc3c 6832 debd 4e1c b9bd f567 1ebe
00000070: fa62 5e3c 5b86 b0be 3778 813d 62a0 54bc
00000080: 1a7c 5cbe d9ae f5bd 0816 e23c 4109 42bd
00000090: f107 d63d 7050 57be 3df8 6ebe d61d 123d
000000a0: 96e7 aebe a39b 193e 8f19 19be e1d5 983e
000000b0: eae0 ffbd 8e60 033e 522b a4be cbee d7bc
000000c0: df9d dcbc 80ba a9bd b5de 37bd 1f7b 2bbe
000000d0: 5a60 953d 5a77 75bd 9de2 e1be 64cd 4d3d
000000e0: 5bb0 2c3e 29b0 59bc 8869 b13c 1b49 8c3e
000000f0: 03b5 833d ecff 5b3d c3ca ba3e c76a e2be
00000100: ebf0 c3bc d9e3 e43d affd 02be 1827 57bc
00000110: 2a1b 1e3e 489b c1bd cebf cd3d 9ee7 cfbd
00000120: 209b 1b3e 3c3c 80bd ee9a 30be 995c 4e3e
00000130: 1d1e 283e 3742 c53d 8f38 e73c 5d68 40bd
00000140: fa29 553d fd61 e33e 891d 11bd 2558 76be
00000150: d3cd bbbd 7fcc 80be b1c0 2c3e 33a6 b63d
00000160: 9158 9e3e 204a 813d 6b64 2d3e fa95 d53d
00000170: 79ed 84bc f9f3 d43d daf4 2a3e d32d 973d
00000180: 683b 38be 6d22 a63e 9848 36bd 503b 0dbe
00000190: 8ad4 aa3d 598f 66be e637 28bd 33bd 12be
000001a0: 4dc7 603e 9ba2 e7bd 8e64 603b a145 563d
000001b0: b83b 60bd 4de2 ef3d dd41 6e3d bb6b 34be
000001c0: 0f66 103e 8a86 b23d 6a7e e1be 18c2 7f3e
000001d0: e4cd 063e 3c1e 583e d465 e13d 1567 f5bc
000001e0: 6166 1e3e 3e91 aa3d 2e36 53be fe25 133e
000001f0: 3f4e 28be dfb4 e6bd dbe0 fcbd 8cd6 11bd
00000200: 829d 853d 0cea d4be 7db6 6dbd 47e7 a0bc
00000210: e065 893e 0672 73be 54bf 0b3f 2b95 273d
00000220: 00c9 c6bd 0827 3dbe 06f3 413f 1528 e5bc
00000230: aea0 cabe cd1b b93e 7edb ad3e fc94 4b3e
00000240: 00cd 4bbd 7056 cc3d b0e4 5b3e 389b 05be
00000250: 1bb0 c03c e224 d13e 9eb1 54bc 5014 003f
00000260: 2dd1 6abd d6bf a23d 33b8 323e 1778 c23d
00000270: 5133 7a3e e669 4bbe 0193 edbe c2be 333e
00000280: 68f8 f1bd 2dd9 103e 8d1d 8a3e 4666 963e
00000290: f18d ef3d 4193 13bf 34ee b03e be61 24be
000002a0: 7ce1 e5be 79af 00be 6d60 c93e c3dc 863e
000002b0: 95f1 dbbd 5162 74bd c83a f83c a4be 353f
000002c0: 1d39 683e fefe bb3e 7f20 1fbe 8e9f be3d
000002d0: 013e 09bd f067 f43c 2edc d23c f600 8a3e
000002e0: 5fd3 87bd c8b3 fabc 6657 9ebd a954 28bd
000002f0: 9d45 cabb c130 593e 6239 39bc f8cc b73d
00000300: 4626 97bc 56ef 4abd 7ad9 0dbe 5e62 f7bb
00000310: 9b1c 4d3c 998f b0bd bff5 68bc 9334 283e
00000320: 9a00 5bbe 2d0e 3cbe 0d25 25be b91c 72be
00000330: fb21 b9be cf86 1e3b 55a6 153e 797e 193d
00000340: a1db b3be c0ec 62be 7baf 0abe 6571 9a3d
00000350: a4d3 dabe 617a b0bc b255 d03d df6e 193e
00000360: fe11 c0bd e8cb 21be 279e 1fbd b392 25be
00000370: 9f62 6abd 8dda 38be 7468 d1bd 333b 903d
00000380: f247 07be 763d 783d 709e 16be 95ea 123e
00000390: 4a8f 5ebd a7f9 26bc 8f6b 27be cce2 d53b
000003a0: 6716 e6bd 6074 ce3e b54c 75bd e797 e03d
000003b0: 94eb 253d 11ce 9c3d dfc7 51be 2dee 18bc
000003c0: e67e 9e3d dc95 d2bb e88f 5abd 4523 10bd
000003d0: 73a8 06bd 5307 4e3e d2d1 b4be 4cf2 dabd
000003e0: f477 92bd 4609 2fbe e202 2c3e 7fa8 a03e
000003f0: 14a8 fc3d 28a6 6dbc f518 5f3e fa30 9bbe

onnx::LSTM_215 f4 [1, 512]
-0.11666468 -0.5281855 -0.13836597 -0.45587504 -0.27564207 -0.289195 -0.09138255 -0.12053863
-0.23319182 -0.3026115 -0.13364507 -0.32360953 -0.35791552 -0.27143058 -0.27646554 -0.32247907
-0.19812481 -0.2039622 -0.34918174 -0.5925831 -0.3788179 -0.36687848 -0.49432808 -0.55947626
-0.03119795 -0.53926915 -0.3031448 -0.42279166 -0.3568342 -0.27324829 -0.02076061 0.006391817
-0.07417479 -0.23552032 -0.23045343 -0.4025022 -0.19064045 -0.41428006 -0.38682523 -0.43176046
-0.07322483 -0.426988 -0.38214475 -0.12875336 -0.3444451 -0.16460495 -0.22042634 -0.1261809
-0.2178559 -0.2993802 -0.4272389 -0.30733824 -0.22156794 -0.45391077 0.12934393 -0.24709864
0.13771015 -0.3157049 -0.25317317 0.025240246 -0.22250412 -0.11183426 -0.30743536 -0.3252118
-0.26328424 -0.2707004 -0.0070119523 -0.32646465 -0.3043943 -0.12403283 -0.10377171 -0.22037575
-0.26349536 -0.117221296 0.07470807 -0.30824578 -0.05918955 -0.07722687 -0.11101141 -0.21340111
-0.06501183 -0.49849966 -0.42865723 -0.19282055 -0.09716559 -0.1826322 -0.4467687 -0.21201764
-0.072412334 -0.19368902 -0.43602115 -0.54608047 -0.38877678 -0.15293537 -0.31314763 -0.043599833
-0.2793617 -0.23683183 -0.16849281 0.08470996 -0.16597825 -0.113944575 0.012435992 -0.21716633
-0.34004647 -0.44716084 -0.36929807 -0.25524157 -0.30781516 -0.06854539 -0.20582284 -0.19283567
-0.3244711 -0.21420215 -0.21527782 -0.33653373 -0.16200994 -0.22217005 -0.08095276 -0.43459582
0.19066724 -0.17914334 -0.30611244 0.28484145 -0.47811657 -0.09716449 -0.29590726 -0.22516641
-0.43088904 -0.21026891 0.102299854 -0.23743016 -0.28065345 -0.34009892 0.13772082 -0.15489072
-0.19182558 0.24452516 0.09593897 -0.3347738 -0.05822959 -0.21302173 -0.19451109 -0.23649931
-0.017525358 0.110894844 -0.57011664 -0.3442597 -0.015521568 0.34275943 -0.020198233 0.048538044
0.16805817 -0.09893994 -0.28473285 -0.16185288 -0.25667655 0.021774381 -0.45152134 0.008964648
-0.16545992 -0.16589236 -0.22886825 0.5197091 -0.38602126 -0.14744061 -0.007988834 -0.42734483
-0.15008287 -0.13486141 -0.23084235 -0.17653807 -0.4007739 -0.24155311 0.051833317 -0.08606891
-0.4813652 -0.2879215 -0.09542438 -0.055328514 -0.14376676 -0.3541404 0.24606077 -0.21667933
0.09371112 -0.13127545 -0.24841312 -0.19032733 -0.32181585 -0.1896382 -0.08970121 -0.0027164153
-0.03708552 -0.027449152 0.018512413 0.07689322 0.053548213 0.14748009 0.077623405 0.25233465
-0.23154591 -0.0042260396 -0.0018341399 -0.1422956 0.05659207 0.07410083 -0.12426744 0.08030421
-0.10870513 0.082690105 -0.09067064 0.30993015 0.026309906 0.05208427 0.14649932 -0.08054537
0.07192299 -0.08918013 -0.12390953 -0.014008887 -0.10271812 0.07302384 0.06506487 -0.20822436
0.29832917 -0.17638776 -0.11266391 -0.10173714 0.10683931 -0.14752212 -0.20445421 -0.07950144
0.17232773 0.1246272 -0.027300425 0.020535903 0.16898024 -0.158509 -0.040214315 0.12412663
-0.10569086 0.041833445 -0.07092107 0.17697157 -0.08315179 -0.028239906 0.19649933 0.052421488
-0.03389264 -0.011374327 0.02531886 -0.25109026 0.22891128 0.14338784 0.24646561 -0.018561468
00000000: e4ed eebd 2a37 07bf cfaf 0dbe 7468 e9be
00000010: f520 8dbe 5e11 94be c626 bbbd f5dc f6bd
00000020: d6c9 6ebe e5ef 9abe 41da 08be 26b0 a5be
00000030: b440 b7be f3f8 8abe e48c 8dbe fa1b a5be
00000040: 3be1 4abe 78db 50be f3c7 b2be 87b3 17bf
00000050: 6bf4 c1be 7fd7 bbbe 9218 fdbe d639 0fbf
00000060: d892 ffbc 8b0d 0abf cc35 9bbe 2678 d8be
00000070: f9b2 b6be 33e7 8bbe 2812 aabc 7272 d13b
00000080: f4e8 97bd 3d2c 71be fcfb 6bbe c514 cebe
00000090: 4037 43be 841c d4be f50d c6be b50f ddbe
000000a0: e6f6 95bd 2c9e dabe 7aa8 c3be ecd7 03be
000000b0: 1c5b b0be 338e 28be 71b7 61be 9135 01be
000000c0: 9e15 5fbe 5d48 99be 0fbf dabe 705b 9dbe
000000d0: b5e2 62be fe66 e8be bc72 043e 6d07 7dbe
000000e0: e403 0d3e 13a4 a1be ea9f 81be a2c4 ce3c
000000f0: 1fd8 63be 5c09 e5bd 2b68 9dbe 2982 a6be
00000100: 31cd 86be 3e99 8abe 85c4 e5bb 6026 a7be
00000110: 92d9 9bbe ed04 febd 4386 d4bd 2eaa 61be
00000120: dde8 86be b811 f0bd 8b00 993d 64d2 9dbe
00000130: be70 72bd 1f29 9ebd f359 e3bd d285 5abe
00000140: ec24 85bd 593b ffbe f678 dbbe c072 45be
00000150: c1fe c6bd ef03 3bbe debe e4be 271b 59be
00000160: eb4c 94bd 6a56 46be 2a3e dfbe eecb 0bbf
00000170: c00d c7be 179b 1cbe e354 a0be bd95 32bd
00000180: 7f08 8fbe 0b84 72be 6189 2cbe 6a7c ad3d
00000190: 34f6 29be c65b e9bd 55c0 4b3c da60 5ebe
000001a0: 921a aebe 44f2 e4be a314 bdbe 06af 82be
000001b0: f399 9dbe 8761 8cbd 39c3 52be b776 45be
000001c0: 1321 a6be cf57 5bbe ca71 5cbe 264e acbe
000001d0: efe5 25be 8c80 63be 90ca a5bd 5883 debe
000001e0: 463e 433e 5a71 37be c5ba 9cbe bdd6 913e
000001f0: b2cb f4be 2dfe c6bd 2881 97be 0692 66be
00000200: 7d9d dcbe bc50 57be 9682 d13d e420 73be
00000210: cfb1 8fbe 7221 aebe b006 0d3e ac9b 1ebe
00000220: ed6d 44be ce64 7a3e a77b c43d 7967 abbe
00000230: 2782 6ebd 5e22 5abe ea2d 47be e02c 72be
00000240: 5791 8fbc d61c e33d 2af3 11bf cf42 b0be
00000250: 2d4e 7ebc 2a7e af3e c476 a5bc d4cf 463d
00000260: 7117 2c3e 06a1 cabd 81c8 91be c3bc 25be
00000270: 1c6b 83be 3060 b23c ce2d e7be 75e0 123c
00000280: 536e 29be b0df 29be 705c 6abe a80b 053f
00000290: 94a4 c5be acfa 16be 99e3 02bc f1cc dabe
000002a0: 53af 19be 1c19 0abe f061 6cbe 65c6 34be
000002b0: 3d32 cdbe b359 77be 2c4f 543d e644 b0bd
000002c0: 8075 f6be 726a 93be db6d c3bd 27a0 62bd
000002d0: 9837 13be e451 b5be 5bf7 7b3e 30e1 5dbe
000002e0: 9eeb bf3d 126d 06be 0260 7ebe 2be5 42be
000002f0: 0cc5 a4be 8430 42be 45b5 b7bd e305 32bb
00000300: fce6 17bd 0bdd e0bc 58a7 973c 317a 9d3d
00000310: 5f55 5b3d 0505 173e 05f9 9e3d 0232 813e
00000320: 5f1a 6dbe 977a 8abb 8667 f0ba f0b5 11be
00000330: 16cd 673d 2dc2 973d ed7f febd 8976 a43d
00000340: cca0 debd 6e59 a93d 87b1 b9bd 2aaf 9e3e
00000350: df87 d73c 5156 553d eb03 163e f9f4 a4bd
00000360: 5c4c 933d 12a4 b6bd 48c4 fdbd 8885 65bc
00000370: e15d d2bd 868d 953d bb40 853d c438 55be
00000380: 9abe 983e fe9e 34be 56bc e6bd 905b d0bd
00000390: 91ce da3d 0a10 17be 725c 51be a7d1 a2bd
000003a0: ae76 303e 8c3c ff3d 24a5 dfbc e93a a83c
000003b0: 2809 2d3e 2f50 22be c4b7 24bd 1a36 fe3d
000003c0: 7374 d8bd 8c59 2b3d 113f 91bd 0938 353e
000003d0: 7c4b aabd 6057 e7bc 1f37 493e eab7 563d
000003e0: 02d3 0abd 635b 3abc 7f69 cf3c e78e 80be
000003f0: b867 6a3e 43d4 123e 7b61 7c3e 380e 98bc
