models/multi_tf_transformer_v6_3_6.onnx (onnx, 33142 bytes, 4 tensors)

model.action_head.0.bias f4 [56]
000000 9b e9 af bd 03 22 94 bd 25 cc 9c 3d ac 34 65 3d
       -0.085894786 -0.0723305 0.07656125 0.055958435
000010 60 31 02 3e 28 f3 e4 3c 24 63 37 3d 15 b2 8a bd
       0.12714148 0.027947977 0.044772282 -0.06772248
000020 7c 4a ea 3d 0b 10 6c 3d b6 8e 45 3d 2c 92 07 3c
       0.11439988 0.057632487 0.048231803 0.008274596
000030 ba 79 44 bb 0f 92 25 3c 9d 2b 3b bd 33 f1 d9 3d
       -0.0029979781 0.010105624 -0.04569589 0.10641708
000040 dd c5 36 bd 2f bd a6 3c f7 68 6c bd da c9 81 bd
       -0.04462229 0.020353882 -0.05771729 -0.06337328
000050 4d bf c8 bd 92 c2 6c bd 0d 6b df bd e3 c4 74 3d
       -0.09802113 -0.057802744 -0.1090909 0.05975808
000060 c7 75 b6 3c 7a 03 7c bd a7 20 ac 3d da 00 eb bc
       0.022272957 -0.061526753 0.084046654 -0.02868693
000070 08 5e 8f 3d 6b c9 a2 bd f5 49 31 3c 7e 4c 86 3d
       0.07000357 -0.07948574 0.010820855 0.065575585
000080 e5 b7 f2 bd 6b c8 dc 3c 21 99 d9 bc 60 a6 5d 3d
       -0.11851481 0.026951035 -0.026562275 0.054113746
000090 1e fe 33 3d 0a 15 cd 3d f5 2a 92 3d 00 2f 4d bd
       0.043943517 0.100137785 0.071371 -0.05009365
0000a0 04 d5 66 3d 97 a6 39 bd ea 78 76 bd 23 c6 84 bd
       0.05635549 -0.045324888 -0.060173906 -0.06483104
0000b0 f7 e4 8e bc 09 d1 ce 3d 1b 6b 8d 3d 27 b0 9b bd
       -0.017443163 0.10098464 0.06905194 -0.07601958
0000c0 2b d8 81 3c 67 f7 a8 3d 97 11 c3 3c f5 c4 9b bd
       0.015850147 0.08250313 0.023812098 -0.07605926
0000d0 ef cc 1e bb 77 e4 0d 3d a9 89 74 3d b4 57 26 bc
       -0.0024231037 0.03464171 0.059701595 -0.010152746

model.action_head.3.bias f4 [3]
000000 22 3f 4f 3d 72 30 81 bd 00 d6 82 3d
       0.050597318 -0.06308068 0.063884735

model.confidence_head.0.bias f4 [28]
000000 04 4f 00 be d2 25 15 bd 93 e5 c3 3c 97 1f e8 bd
       -0.12530142 -0.03641302 0.02391318 -0.1133415
000010 15 4d e9 3c 8f d2 e8 bc c3 0f f0 3d 69 4d c0 bb
       0.028479138 -0.028420715 0.11721756 -0.005868603
000020 bf 06 1d 3e 4b b1 18 3e f7 69 fc bd 74 2c 29 3c
       0.15334605 0.14911382 -0.12324899 0.01032554
000030 24 f0 0b bc 77 02 e8 bc b6 73 02 3d 8e 77 fe 3d
       -0.008541141 -0.028321488 0.03184863 0.12425147
000040 e8 f8 15 3d 16 3d cc 3b f7 32 81 bd 0a 81 17 3e
       0.03661433 0.006232868 -0.06308549 0.14795318
000050 30 50 88 3c 82 cc 51 3d 27 c7 d6 bd b6 d2 81 3d
       0.016639799 0.051220424 -0.10487204 0.06339018
000060 64 81 d2 3d cd 1c e0 bd db 75 40 bc 76 2e cc bc
       0.102785856 -0.10942993 -0.011746849 -0.024924498

val_290 f4 [28, 1]
000000 ff 69 88 bd 43 61 bd bd d0 65 a9 3d 4d 4c e3 bd
       -0.06660842 -0.09247067 0.08271372 -0.110985376
000010 dd bc 10 3d 47 09 ee 3d 0a 14 86 3d f9 72 fe 3d
       0.035336364 0.11622863 0.06546791 0.12424273
000020 78 85 e7 3d bf 63 20 3d 5d 92 14 bd a8 24 3f bd
       0.11304754 0.039157625 -0.036272395 -0.046665817
000030 56 b3 ad bb 7e 50 0b 3d 0b b1 01 3e ff 47 c0 3d
       -0.0053009195 0.03401231 0.12665193 0.09388732
000040 e3 3c b9 bd 01 0a 16 3d 47 04 cb bd 01 41 0d 3d
       -0.09044816 0.036630634 -0.09912925 0.03448582
000050 a2 6f 00 be 43 9c dc 3d 8f c6 f8 bd 32 09 cc 3c
       -0.12542585 0.10771992 -0.12147247 0.024906728
000060 5a 5e 98 3d 53 75 ca bb 92 69 d8 bd af f1 f3 3d
       0.07439871 -0.006178537 -0.10567011 0.11911332
