models/multi_tf_transformer_v6_3_3.onnx (onnx, 33051 bytes, 4 tensors)

model.action_head.0.bias f4 [48]
0.042916007 -0.07704844 0.02109569 0.031811494 0.0765275 -0.07629018 -0.016300758 -0.050119855
-0.009139524 0.021377405 0.055855133 0.07503815 0.06775811 -0.09380239 -0.06941758 0.011313147
0.033510577 0.05078107 0.033820614 -0.007856919 -0.0028173344 0.054398615 -0.08779418 0.12499384
0.046344507 0.061749883 0.037607267 0.098083735 -0.03949924 -0.05280396 0.023539152 -0.085858025
0.10606914 0.002098353 -0.06047603 -0.022125846 -0.0046469467 0.041905526 0.074986674 -0.03956174
-0.09572433 0.037548598 0.03317975 -0.068464294 -0.041916613 -0.0077668647 -0.040499963 0.031701375
00000000: b2c8 2f3d 93cb 9dbd ded0 ac3c c54c 023d
00000010: 73ba 9c3d 073e 9cbd 2b89 85bc 7a4a 4dbd
00000020: f1bd 15bc ab1f af3c 5ac8 643d 9aad 993d
00000030: c4c4 8a3d 781b c0bd ce2a 8ebd c75a 393c
00000040: 6342 093d d0ff 4f3d 7c87 0a3d 4fba 00bc
00000050: 07a3 38bb 15d1 5e3d 6fcd b3bd c5fc ff3d
00000060: bdd3 3d3d 72ed 7c3d 140a 1a3d 20e0 c83d
00000070: f5c9 21bd f748 58bd 2ed5 c03c 55d6 afbd
00000080: c73a d93d 8684 093b b7b5 77bd 4341 b5bc
00000090: 6a45 98bb 21a5 2b3d 9d92 993d 7e0b 22bd
000000a0: 1e0b c4bd 8fcc 193d 7de7 073d 0237 8cbd
000000b0: c1b0 2bbd 2f81 febb 4ae3 25bd 4dd9 013d

model.action_head.3.bias f4 [3]
0.11584146 -0.14722753 -0.045318283
00000000: 4a3e ed3d d0c2 16be aa9f 39bd

model.confidence_head.0.bias f4 [24]
0.028642444 0.11058793 -0.04536545 0.031497326 -0.10198777 0.057760306 -0.0015730629 -0.00022337912
0.027087953 -0.044184152 0.045819633 -0.053825475 -0.027421802 0.048868146 0.05260553 0.10655613
-0.10898176 -0.06677781 0.08666365 0.052386988 -0.062111646 -0.067177534 -0.0027019766 0.060847614
00000000: 8fa3 ea3c ed7b e23d 1fd1 39bd 5703 013d
00000010: f7de d0bd 1296 6c3d 3b2f ceba e03a 6ab9
00000020: 8ee7 dd3c 71fa 34bd 5ead 3b3d 1a78 5cbd
00000030: b0a3 e0bc f729 483d e578 573d 1a3a da3d
00000040: d431 dfbd cec2 88bd b67c b13d bd93 563d
00000050: c868 7ebd 6094 89bd a513 31bb 593b 793d

val_290 f4 [24, 1]
0.09350652 0.08262861 -0.08551051 0.031724103 -0.12530977 0.10434327 0.05620455 0.08034248
0.06947342 0.106628366 0.109231085 -0.16385013 0.10101181 -0.050919235 0.044909846 0.13034031
-0.14938398 -0.14301123 0.029748846 -0.028498087 -0.08324671 -0.02042711 0.10535538 0.16340034
00000000: 5980 bf3d 3039 a93d 2220 afbd 22f1 013d
00000010: 3451 00be edb1 d53d be36 663d 998a a43d
00000020: 1548 8e3d f95f da3d 8cb4 df3d 54c8 27be
00000030: 48df ce3d b090 50bd 63f3 373d ee77 053e
00000040: 1df8 18be 8971 12be dab3 f33c d274 e9bc
00000050: 407d aabd c156 a7bc 90c4 d73d 6b52 273e
