models/SUPERTRADER_strategy_2_run4_logicfix.onnx (onnx, 26966 bytes, 8 tensors)

fc.0.weight f4 [16, 32]
0.16103473 0.1760894 -0.07827831 0.19059896 0.22649522 0.15555702 0.017022938 0.0011296995
-0.086843304 -0.10931318 -0.079688504 -0.10720747 -0.058074296 -0.013563485 -0.16597368 0.099362865
0.23638211 0.2536279 0.0068212124 0.23025925 0.016949384 -0.20274214 0.08428013 -0.1731126
-0.15932254 -0.1755447 -0.11708994 0.0063767564 -0.12715785 0.06064908 0.120808996 -0.05528849
0.19068597 0.10876461 -0.011887591 0.007998067 0.07512322 0.086668074 -0.09237614 -0.13699375
-0.21523938 0.080267236 0.10253711 0.07864835 -0.06269379 0.04044608 -0.14621603 0.1289578
0.21016236 0.01789447 -0.09010276 0.19566694 -0.021664752 -0.15609828 -0.07754433 -0.0035229335
0.09253451 -0.06939209 -0.04043186 0.084596016 0.07895034 0.10329046 0.15877715 0.07052429
0.083338715 0.152999 0.030938203 0.23460248 -0.02215406 0.11691256 -0.18378559 0.19419995
-0.23084566 -0.016005391 -0.16639335 -0.25374064 -0.019383073 -0.19192606 -0.09856042 0.122226216
0.12058005 -0.11422698 0.23371036 0.22176214 -0.0863082 -0.13789022 0.11379466 -0.22186717
-0.15925397 0.011384543 -0.1078086 -0.05006859 -0.11699726 0.095413014 0.0704355 -0.08566397
0.111132555 0.12985826 0.1521099 -0.20456417 -0.14938937 0.13149938 0.18625617 0.13551334
0.13783371 0.018627873 0.09381239 0.06256215 0.13179693 0.1530819 0.13330418 0.05657103
-0.03274158 -0.09507603 -0.18025774 -0.08291616 -0.113977216 -0.06893756 0.07475402 0.17101607
-0.19007427 -0.00067989965 0.10591753 -0.12315645 0.0068733725 0.043291997 -0.21051614 0.040970974
0.11202824 -0.07589527 0.05296624 -0.20073453 -0.19553764 -0.075023495 0.2223493 -0.13016438
-0.094461136 -0.1119454 0.021640807 0.15893842 0.054670166 0.15383604 0.13208205 0.12823227
-0.14901167 -0.012426037 -0.12033872 -0.077427134 0.019912107 -0.15792927 0.10649531 0.1705759
-0.047301553 0.013935706 -0.0032715623 -0.06531334 0.09361018 -0.18894078 -0.17407872 0.07901865
-0.105951644 0.07180005 0.022325238 -0.21811494 -0.07921361 0.024586285 0.22457238 -0.07957372
0.18491831 -0.06885503 -0.03448347 0.19000684 0.08153186 0.1780687 0.04976064 -0.11851371
-0.014910286 0.08027727 -0.14000365 0.10791695 -0.13652366 -0.0007587192 0.052602485 -0.012685015
0.004477936 -0.028922599 0.10088833 0.1370143 0.13069768 -0.08728875 0.10631958 0.109859295
0.11794327 -0.023098147 0.0839645 0.008343131 0.031020362 0.022044133 -0.19620392 -0.012378318
-0.22743985 0.0014408117 -0.007373884 -0.047592163 0.030774575 -0.15826972 -0.23177446 0.12578999
0.1296285 -0.04728481 0.275259 0.11630677 -0.009049806 -0.07135967 -0.10810838 -0.01614229
-0.06804692 0.017415516 -0.06088874 0.11656347 -0.08216656 0.105785415 0.003105908 -0.15414019
-0.092334636 0.09222669 0.05724151 0.07653753 0.09202218 -0.027366776 0.043728918 0.17228259
0.20827681 0.17246802 -0.0067727417 0.24624358 0.1281437 0.02861964 0.12868342 -0.040172126
0.112835474 0.08966017 -0.02329625 0.12088091 -0.18484838 0.13736562 -0.02965516 0.13518454
0.13199975 0.03953188 -0.12813625 0.11807324 0.0320095 -0.16375645 -0.06557285 0.08461659
00000000: 4ae6 243e c850 343e 6150 a0bd 602c 433e
00000010: 5dee 673e 574a 1f3e b073 8b3c 6d12 943a
00000020: e7da b1bd 97df dfbd ba33 a3bd 978f dbbd
00000030: 50df 6dbd 6139 5ebc 01f5 29be c27e cb3d
00000040: 270e 723e 84db 813e 7a84 df3b 15c9 6b3e
00000050: 6fd9 8a3c a39b 4fbe 109b ac3d 6e44 31be
00000060: 7325 23be fdc1 33be dacc efbd 1cf4 d03b
00000070: ab35 02be 2b6b 783d b56a f73d 2f76 62bd
00000080: 2f43 433e fbbf de3d 2cc4 42bc 530a 033c
00000090: 34da 993d 087f b13d b42f bdbd 1748 0cbe
000000a0: b667 5cbe 2663 a43d fafe d13d 6312 a13d
000000b0: 9a65 80bd caaa 253d a8b9 15be 830d 043e
000000c0: cd34 573e 6c97 923c cc87 b8bd ea5c 483e
000000d0: 477a b1bc 3ad8 1fbe 90cf 9ebd 04e1 66bb
000000e0: bc82 bd3d 711d 8ebd e19b 25bd ad40 ad3d
000000f0: b7b0 a13d f389 d33d 7a96 223e 0a6f 903d
00000100: 7dad aa3d c5ab 1c3e 1d72 fd3c a23b 703e
00000110: 6e7c b5bc da6f ef3d 4a32 3cbe 5adc 463e
00000120: ce62 6cbe bd1d 83bc 0563 2abe 4bea 81be
00000130: 40c9 9ebc 4488 44be 0cda c9bd bd51 fa3d
00000140: acf2 f63d d6ef e9bd c551 6f3e 9d15 633e
00000150: 5bc2 b0bd 1833 0dbe 2d0d e93d 2631 63be
00000160: 7913 23be 3c86 3a3c c1ca dcbd b914 4dbd
00000170: 429c efbd e667 c33d 7d40 903d 9770 afbd
00000180: 7799 e33d 90f9 043e b3c2 1b3e 4579 51be
00000190: 87f9 18be c6a7 063e f0b9 3e3e 02c4 0a3e
000001a0: 4824 0d3e 7b99 983c b620 c03d 9620 803d
000001b0: c6f5 063e 80c1 1c3e e480 083e 06b7 673d
000001c0: 091c 06bd 39b7 c2bd 7c95 38be f3cf a9bd
000001d0: e36c e9bd 232f 8dbd a318 993d d61e 2f3e
000001e0: d4a2 42be 4b3b 32ba 4aeb d83d 7339 fcbd
000001f0: 073a e13b f352 313d 8b91 57be 2ed1 273d
00000200: 106f e53d fb6e 9bbd 21f3 583d 5a8d 4dbe
00000210: 053b 48be eba5 99bd 89af 633e d049 05be
00000220: d774 c1bd a143 e5bd 1048 b13c c1c0 223e
00000230: d3ed 5f3d 3287 1d3e 8440 073e 524f 033e
00000240: 8496 18be 9496 4bbc 2674 f6bd 1e92 9ebd
00000250: b71e a33c 36b8 21be 371a da3d 73ab 2e3e
00000260: 46bf 41bd 9652 643c b567 56bb 00c3 85bd
00000270: b2b6 bf3d b179 41be b141 32be 88d4 a13d
00000280: 2dfd d8bd e80b 933d 6be3 b63c 8659 5fbe
00000290: bf3a a2bd 2d69 c93c 4df6 653e 8cf7 a2bd
000002a0: 3a5b 3d3e de03 8dbd 8a3e 0dbd 2791 423e
000002b0: 2dfa a63d a457 363e d0d1 4b3d 51b7 f2bd
000002c0: 464a 74bc 6968 a43d 1e5d 0fbe 9003 dd3d
000002d0: dccc 0bbe c9e4 46ba b475 573d cfd4 4fbc
000002e0: a6bb 923b 16ef ecbc 8a9e ce3d 7a4d 0c3e
000002f0: 9dd5 053e 72c4 b2bd 14be d93d e9fd e03d
00000300: 3e8c f13d 5338 bdbc 94f5 ab3d a1b1 083c
00000310: 6a1e fe3c e695 b43c aee9 48be 6ece 4abc
00000320: fee5 68be 9ed9 bc3a 9fa0 f1bb 00f0 42bd
00000330: f61a fc3c 7511 22be 4956 6dbe 17cf 003e
00000340: 55bd 043e b8ad 41bd bfee 8c3e 3e32 ee3d
00000350: a345 14bc 0525 92bd ed67 ddbd d63c 84bc
00000360: 2f5c 8bbd fcaa 8e3c 7966 79bd d4b8 ee3d
00000370: f146 a8bd 06a6 d83d 7d8c 4b3b edd6 1dbe
00000380: f119 bdbd 59e1 bc3d 1376 6a3d b5bf 9c3d
00000390: 2076 bc3d 4a30 e0bc 181d 333d d96a 303e
000003a0: 8446 553e 759b 303e e0ed ddbb 4727 7c3e
000003b0: 1a38 033e bc73 ea3c 96c5 033e 878b 24bd
000003c0: 4916 e73d c09f b73d c7d7 bebc 6990 f73d
000003d0: e548 3dbe 93a9 0c3e 61ef f2bc d16d 0a3e
000003e0: f12a 073e 2eec 213d 2636 03be 62d0 f13d
000003f0: 651c 033d c5af 27be 0f4b 86bd 764b ad3d

fc.0.bias f4 [16]
0.049766514 -0.072703674 0.1343282 0.023933517 0.117899455 0.11836836 0.1893308 -0.0073518786
0.06558482 0.07266286 -0.096725166 0.10152937 -0.14681771 -0.021272356 -0.015482089 0.091182604
00000000: f9d7 4b3d aae5 94bd 558d 093e 3910 c43c
00000010: 4575 f13d 1c6b f23d efdf 413e 07e8 f0bb
00000020: 5651 863d 44d0 943d d817 c6bd a1ee cf3d
00000030: 6257 16be 5d43 aebc 96a8 7dbc f2bd ba3d

fc.3.weight f4 [2, 16]
0.013302636 0.15053079 0.09294428 -0.005960322 -0.030056804 -0.1592205 -0.06658493 -0.26649898
0.24017632 0.017133532 -0.2844213 0.30846438 0.12945673 -0.24413604 -0.19026825 -0.010162522
-0.28920403 -0.1544972 -0.28551868 0.18958826 0.2329433 0.08011025 -0.25164774 0.20843531
-0.113175154 -0.27437508 0.049859837 0.037426177 -0.11997596 0.15476386 0.20348383 0.2471946
00000000: 4df3 593c be24 1a3e 9259 be3d ce4e c3bb
00000010: b039 f6bc b30a 23be ae5d 88bd 8e72 88be
00000020: c8f0 753e 9f5b 8c3c ab9f 91be 0bef 9d3e
00000030: 4e90 043e ccfe 79be aed5 42be b580 26bc
00000040: 8d12 94be 8434 1ebe 812f 92be 6d23 423e
00000050: b088 6e3e d810 a43d f9d7 80be 1170 553e
00000060: 60c8 e7bd e47a 8cbe d439 4c3d 314c 193d
00000070: f5b5 f5bd 6b7a 1e3e 115e 503e 9520 7d3e

fc.3.bias f4 [2]
-0.019649247 -0.13436927
00000000: 75f7 a0bc 1998 09be

onnx::LSTM_114 f4 [1, 128, 9]
0.117414504 0.14297016 0.17658311 0.10648577 -0.038367942 -0.16696243 0.14600049 0.0524243
0.12068478 0.0142875835 0.06944546 0.1797903 0.041303277 0.2367219 0.06936728 0.12789817
0.14006177 0.13075238 -0.021133317 0.089238286 0.12531897 -0.13139907 -0.17932397 -0.04626589
-0.113064274 0.16617987 0.17946991 0.12142138 0.0791184 -0.024307476 0.23237513 -0.17280546
0.04144178 0.022017723 0.07598126 0.14307675 -0.022944897 0.119190216 -0.023743117 -0.040618848
0.083289534 -0.15363307 0.1415944 -0.039159585 -0.11018056 -0.13125576 0.106063 -0.119015604
0.1932505 -0.2291767 0.1269822 0.020955978 -0.0057806736 -0.090620935 0.07111626 0.24252963
-0.100200966 -0.05886683 -0.04746732 -0.045695502 -0.020093963 -0.041979145 -0.036785778 -0.15791342
-0.14052624 -0.1181861 0.12171483 -0.0046258187 0.07556035 0.06973665 -0.13606794 -0.08609641
0.15594721 0.12612075 -0.033121955 -0.062541634 -0.05526926 -0.017722625 0.096689634 -0.06809713
-0.11447564 0.18181531 0.16126877 0.088504404 0.13951786 0.11576046 0.16366605 0.17838238
-0.11003662 -0.16543628 0.057004828 -0.07534377 0.079588324 -0.09506286 -0.01773824 -0.18156075
0.052713003 0.059174284 -0.044345807 0.036244284 0.047310125 -0.0004908142 -0.013286294 0.16032742
-0.06515041 0.08585615 0.19729732 0.15658817 -0.19860141 0.05733721 0.03277825 -0.05612921
-0.06795381 -0.1673009 0.052319378 0.030735562 0.14741993 -0.120988145 -0.12063359 0.14385037
0.0876207 0.04008658 0.20299593 -0.05404772 0.012898349 0.051885728 0.008311578 -0.03371737
0.07132091 -0.1265779 -0.011558051 -0.16342704 0.118178956 0.021917189 0.14655185 -0.052824225
-0.15513062 0.15025721 0.018965626 0.0570219 0.09053067 0.007012984 0.015890911 0.040091865
0.098323524 0.041030854 -0.056499407 0.044526953 0.0067951633 0.14585143 -0.020400839 0.1661494
-0.049116347 0.101098314 0.053214666 0.11670299 0.11848803 -0.08160694 0.10809152 -0.08916815
-0.014015779 0.080149725 -0.009549989 0.14250852 0.21383838 0.052801277 0.14494379 -0.09101741
0.05446568 0.047930002 -0.118236035 -0.05842208 0.12173725 0.2164763 0.014948908 -0.12826215
0.0672647 0.17463234 -0.0750474 0.16860026 -0.14085846 0.0866303 -0.041089598 0.18099676
-0.027030325 -0.10196182 -0.079884514 0.030754907 0.1088293 -0.09676116 0.110681504 -0.029909426
0.01832244 0.20728476 0.01235742 0.04688695 0.20335318 0.05125775 -0.11685596 0.056957033
-0.036842167 0.0034134432 -0.24828364 -0.13192664 0.040402424 -0.00996407 -0.09371591 -0.15931533
0.025240233 0.16390131 0.16351412 0.07811442 -0.2000334 0.041260447 -0.11138057 0.037307616
0.012643796 -0.10699893 0.04183424 0.020579452 -0.08886212 0.06604432 -0.0489084 -0.06271968
-0.10397086 0.08994824 0.013779823 0.17468622 0.08143147 0.1728733 0.059676193 0.17360517
-0.019209808 0.044262435 -0.15451498 0.13714476 -0.15459263 0.0776925 0.046508763 0.07085213
0.023969505 0.02220729 -0.18075241 -0.093692295 -0.07842482 -0.0167664 -0.04042407 0.19842198
0.12935734 0.022231208 0.18822521 0.2380907 -0.13335027 0.09629746 0.0038181276 -0.0051493878
00000000: 0477 f03d c566 123e 34d2 343e 3615 da3d
00000010: b427 1dbd 33f8 2abe 2781 153e ddba 563d
00000020: 9529 f73d 7816 6a3c 6c39 8e3d f31a 383e
00000030: a02d 293d 3a67 723e 6f10 8e3d bdf7 023e
00000040: 5a6c 0f3e f4e3 053e c71f adbc 90c2 b63d
00000050: 9e53 003e 7a8d 06be b4a0 37be 4d81 3dbd
00000060: 3e8e e7bd 0e2b 2a3e f6c6 373e c6ab f83d
00000070: d408 a23d 7920 c7bc bff3 6d3e eaf3 30be
00000080: dbbe 293d 835e b43c 109c 9b3d b682 123e
00000090: f0f6 bbbc 001a f43d ed80 c2bc f35f 26bd
000000a0: b493 aa3d fd51 1dbe 1ffe 103e cd65 20bd
000000b0: 58a6 e1bd e967 06be 8f37 d93d 74be f3bd
000000c0: 76e3 453e 4cad 6abe 9f07 023e dfab ab3c
000000d0: ce6b bdbb 7897 b9bd 67a5 913d b059 783e
000000e0: 2a36 cdbd 581e 71bd 186d 42bd 352b 3bbd
000000f0: 189c a4bc 53f2 2bbd afac 16bd 0eb4 21be
00000100: 1ce6 0fbe 8e0b f2bd a045 f93d 2e94 97bb
00000110: 63bf 9a3d 17d2 8e3d 6555 0bbe 5153 b0bd
00000120: a0b0 1f3e cc25 013e e3aa 07bd d415 80bd
00000130: 0562 62bd 0a2f 91bc 3705 c63d 8276 8bbd
00000140: 3472 eabd cb2d 3a3e a423 253e cc41 b53d
00000150: c5dd 0e3e d213 ed3d 1398 273e dfa9 363e
00000160: e15a e1bd 2168 29be e57d 693d d64d 9abd
00000170: 34ff a23d 51b0 c2bd c94f 91bc 10eb 39be
00000180: 97e9 573d bc60 723d f3a3 35bd e374 143d
00000190: 43c8 413d fca9 00ba c2ae 59bc df2c 243e
000001a0: 946d 85bd 59d5 af3d 4f08 4a3e a658 203e
000001b0: 2b5e 4bbe 6cda 6a3d 7c42 063d bee7 65bd
000001c0: 5e2b 8bbd ed50 2bbe d84c 563d 25c9 fb3c
000001d0: 40f5 163e a2c8 f7bd be0e f7bd 834d 133e
000001e0: 7b72 b33d d331 243d 2ade 4f3e 2461 5dbd
000001f0: 9953 533c 2186 543d 492d 083c 3a1b 0abd
00000200: b210 923d a39d 01be fb5d 3dbc 6b59 27be
00000210: cf07 f23d ad8b b33c b011 163e 375e 58bd
00000220: 90da 1ebe 07dd 193e cd5d 9b3c cc8f 693d
00000230: 2568 b93d 2ccd e53b a82d 823c 5e37 243d
00000240: d85d c93d f80f 283d ec6b 67bd e561 363d
00000250: f6a9 de3b 145a 153e a91f a7bc 1123 2a3e
00000260: 392e 49bd a20c cf3d 9ff7 593d fa01 ef3d
00000270: daa9 f23d 8a21 a7bd 165f dd3d cb9d b6bd
00000280: 70a2 65bc 8a25 a43d 8f77 1cbc c1ed 113e
00000290: 73f8 5a3e 2746 583d 256c 143e 5667 babd
000002a0: 6817 5f3d 4052 443d bc25 f2bd fe4b 6fbd
000002b0: 6151 f93d f7ab 5d3e 44ec 743c 2757 03be
000002c0: 13c2 893d d2d2 323e 74b2 99bd 8ca5 2c3e
000002d0: 333d 10be 3a6b b13d 914d 28bd 3757 393e
000002e0: b36e ddbc 5cd1 d0bd 7e9a a3bd b7f1 fb3c
000002f0: e5e1 de3d b72a c6bd fcac e23d 9d04 f5bc
00000300: f118 963c 7542 543e c776 4a3c 880c 403d
00000310: d13b 503e a5f3 513d 2d52 efbd c74b 693d
00000320: d0e7 16bd 13b4 5f3b 113e 7ebe c717 07be
00000330: 037d 253d 5740 23bc 21ee bfbd 8f23 23be
00000340: 9bc4 ce3c bfd5 273e 3f70 273e 74fa 9f3d
00000350: 8ed5 4cbe b700 293d 7f1b e4bd dfcf 183d
00000360: ed27 4f3c 4122 dbbd 615a 2b3d 3d96 a83c
00000370: 58fd b5bd 3f42 873d 2d54 48bd 2d73 80bd
00000380: adee d4bd c836 b83d c4c4 613c f2e0 323e
00000390: 8bc5 a63d b305 313e 066f 743d 8ec5 313e
000003a0: e35d 9dbc 874c 353d 2d39 1ebe ad6f 0c3e
000003b0: 884d 1ebe 3f1d 9f3d f97f 3e3d ec1a 913d
000003c0: b25b c43c 10ec b53c 2917 39be bfe1 bfbd
000003d0: 319d a0bd b059 89bc b693 25bd 222f 4b3e
000003e0: 4076 043e 391e b63c 1cbe 403e 0cce 733e
000003f0: f98c 08be 9a37 c53d 8d39 7a3b 32bc a8bb

onnx::LSTM_115 f4 [1, 128, 32]
0.08130668 -0.040607627 -0.098986655 0.09514537 0.05087571 -0.06382756 -0.0049998364 0.033552945
-0.122707665 -0.0074014287 0.14172299 0.008574486 0.15648939 0.062282052 -0.039322272 -0.136311
0.011967875 0.0028143295 0.14500858 -0.030584324 0.011897995 -0.030859841 -0.017649522 0.07186552
-0.20063974 -0.21338451 0.04892518 0.010666178 0.08347753 -0.19049482 -0.056090698 0.072612226
-0.12622555 0.05210395 0.102632366 -0.01658001 0.2249249 0.13831533 0.009736546 0.021316124
0.08385033 0.13737407 -0.06512238 -0.028593851 -0.107101284 0.05250558 -0.1736859 0.03135918
0.0048955185 0.20098388 -0.062178195 -0.08303741 0.043964602 -0.07267954 0.1292345 0.04814196
-0.06355869 -0.08397238 0.020170256 0.11395829 -0.13599548 0.14926326 -0.081930004 -0.108520344
-0.010494015 0.046982832 -0.051604893 0.0103042545 0.12886347 0.2246173 0.08951828 -0.0045939963
-0.009548365 0.11877035 -0.031222219 -0.1007333 -0.0025920565 0.111060984 -0.13699718 -0.00025691625
-0.034094654 -0.089729585 0.0030165853 0.15345524 0.15317275 0.108279645 -0.03736293 -0.04024551
0.04125923 -0.12839097 -0.1311661 -0.14215639 -0.010609333 -0.012943786 0.010403358 -0.09627177
0.008503267 0.21333648 0.0590183 -0.056022905 -0.14215976 0.081968114 0.0124916835 0.11488557
-0.043637857 0.091590375 -0.011926591 0.019821191 0.11669359 -0.025240362 -0.25661498 -0.02032527
-0.07854275 -0.049565498 -0.067774095 0.008734102 0.10278449 -0.00054266816 0.17972791 0.022622107
-0.3095732 0.014782566 -0.20012099 -0.10614914 0.035715725 -0.1595392 -0.19729389 -0.060263455
-0.22049724 -0.06649505 -0.06956269 -0.1887916 0.1722891 0.017000092 0.010399406 0.08341431
-0.006634079 0.08610215 0.017515501 -0.079321034 0.011761738 -0.044075027 0.004672769 -0.2355207
-0.076886185 0.122653 -0.08491181 0.046211038 -0.06533829 0.048770916 0.20104949 -0.030777467
-0.059196297 -0.09687678 -0.1569959 -0.06533238 -0.07285009 0.0010535379 0.01868375 0.12376953
0.16554649 -0.09003061 0.13448836 0.038375963 0.12922151 -0.0829544 -0.22274631 0.036711186
0.014455555 0.08385785 0.14254427 0.1579796 0.018221943 -0.056011863 0.08916458 0.15398376
0.14317805 0.023134239 -0.0050187497 0.1257049 0.10566606 -0.10607606 -0.03750312 -0.05207106
0.045961406 0.097670846 -0.0951324 -0.24826072 -0.0038930026 0.026944952 0.1371188 0.06181459
0.03534738 0.13233472 -0.18518578 -0.18875866 0.12844236 -0.07314385 -0.10211318 0.15371236
0.02819677 -0.07976719 -0.008493237 0.17415093 0.17123313 -0.081172235 -0.17408305 -0.05655964
0.10911749 -0.07426439 -0.12058696 0.05665321 -0.007833484 -0.07140266 0.11136754 0.16681711
-0.17073482 -0.12767734 -0.09077374 0.103357986 -0.044839337 -0.08062305 -0.18303274 -0.06607255
-0.010340344 0.1451545 0.13796708 -0.049921583 -0.04518928 0.16824831 -0.06990503 0.12738696
-0.079794936 0.10358958 0.14074023 -0.10371846 0.0656408 -0.021242289 -0.04118616 -0.21202426
0.11822222 0.034297224 -0.11817162 0.06967526 0.075017095 -0.0802915 0.18245964 0.10632089
-0.23592798 -0.13052933 -0.22409782 0.01542522 0.11018589 -0.05921857 -0.08646413 0.13071233
00000000: 1e84 a63d 2f54 26bd 84b9 cabd 93db c23d
00000010: 0c63 503d 06b8 82bd abd5 a3bb d06e 093d
00000020: 284e fbbd af87 f2bb d51f 113e 007c 0c3c
00000030: c13e 203e 771b 7f3d 6410 21bd 1c95 0bbe
00000040: e814 443c 9d70 383b 217d 143e fa8b fabc
00000050: cfef 423c c7cd fcbc bb95 90bc 3b2e 933d
00000060: 8174 4dbe 7881 5abe c565 483d 31c1 2e3c
00000070: 44f6 aa3d 1311 43be 5cbf 65bd b8b5 943d
00000080: 4541 01be f46a 553d eb30 d23d cdd2 87bc
00000090: b752 663e 89a2 0d3e 0986 1f3c 279f ae3c
000000a0: b9b9 ab3d caab 0c3e e25e 85bd a73d eabc
000000b0: eb57 dbbd 1710 573d b7da 31be 7c72 003d
000000c0: 966a a03b b8ce 4d3e 90ae 7ebd 850f aabd
000000d0: 3a14 343d 03d9 94bd 0c56 043e 8130 453d
000000e0: 0f2b 82bd b6f9 abbd 183c a53c f762 e93d
000000f0: 6642 0bbe 78d8 183e ebca a7bd ea3f debd
00000100: 17ef 2bbc 1271 403d a75f 53bd 2dd3 283c
00000110: c9f4 033e 1402 663e 5c55 b73d 3c89 96bb
00000120: bf70 1cbc df3d f33d bdc5 ffbc 434d cebd
00000130: 7edf 29bb f173 e33d fd48 0cbe b7b2 86b9
00000140: d6a6 0bbd 25c4 b7bd e7b1 453b 5f23 1d3e
00000150: 51d9 1c3e b8c1 dd3d df09 19bd 7ad8 24bd
00000160: 70ff 283d ec78 03be 6850 06be 7291 11be
00000170: c5d2 2dbc 2c12 54bc d972 2a3c 222a c5bd
00000180: 4951 0b3c e174 5a3e 2cbd 713d 4678 65bd
00000190: 5492 11be e6de a73d eba9 4c3c 2049 eb3d
000001a0: 9cbd 32bd bc93 bb3d c067 43bc 0d60 a23c
000001b0: 0dfd ee3d e0c4 cebc 0a63 83be 2e81 a6bc
000001c0: 05db a0bd 3105 4bbd 25cd 8abd 7b19 0f3c
000001d0: ad80 d23d d841 0eba 980a 383e ff51 b93c
000001e0: 6180 9ebe 9332 723c 84ec 4cbe b864 d9bd
000001f0: a74a 123d 3e5e 23be 6907 4abe d0d6 76bd
00000200: 07ca 61be 8f2e 88bd e276 8ebd 9652 41be
00000210: 8e6c 303e c743 8b3c 4562 2a3c 1fd5 aa3d
00000220: b062 d9bb 5356 b03d ab7c 8f3c 1173 a2bd
00000230: 4eb4 403c 0488 34bd 071e 993b 572c 71be
00000240: 8176 9dbd 7f31 fb3d 3ee6 adbd c947 3d3d
00000250: 15d0 85bd 03c4 473d ebdf 4d3e 0721 fcbc
00000260: d177 72bd 5567 c6bd 89c3 20be fccc 85bd
00000270: 6e32 95bd de16 8a3a aa0e 993c e17a fd3d
00000280: 0585 293e f861 b8bd 51b7 093e 1d30 1d3d
00000290: a552 043e ffe3 a9bd 9c17 64be 785e 163d
000002a0: fed6 6c3c aabd ab3d 20f7 113e 67c5 213e
000002b0: 2f46 953c b26c 65bd eb9b b63d ebad 1d3e
000002c0: 449d 123e 0484 bd3c 5374 a4bb c9b8 003e
000002d0: 7267 d83d 683e d9bd df9c 19bd 7748 55bd
000002e0: 0742 3c3d a707 c83d c7d4 c2bd 0f38 7ebe
000002f0: bf21 7fbb a9bb dc3c df68 0c3e 4c31 7d3d
00000300: 6ac8 103d c182 073e 57a1 3dbe f349 41be
00000310: 6586 033e 71cc 95bd b720 d1bd c666 1d3e
00000320: eafc e63c fb5c a3bd 3827 0bbc 9f54 323e
00000330: bd57 2f3e a13d a6bd d442 32be 15ab 67bd
00000340: fe78 df3d ee17 98bd 4cf6 f6bd 320d 683d
00000350: 0358 00bc 8f3b 92bd aa14 e43d 1bd2 2a3e
00000360: 1cd5 2ebe d9bd 02be 95e7 b9bd 5aad d33d
00000370: 74a9 37bd b31d a5bd ef6c 3bbe 0c51 87bd
00000380: 8c6a 29bc 62a3 143e 3e47 0d3e 937a 4cbd
00000390: 6518 39bd 4949 2c3e 5e2a 8fbd ba71 023e
000003a0: 876b a3bd c626 d43d 351e 103e 586a d4bd
000003b0: af6e 863d 4f04 aebc d2b2 28bd e31c 59be
000003c0: 7e1e f23d 3f7b 0c3d f603 f2bd e7b1 8e3d
000003d0: 90a2 993d df6f a4bd b3d6 3a3e c4be d93d
000003e0: 1b97 71be 7ba9 05be e679 65be 10ba 7c3c
000003f0: 24a9 e13d 2c8f 72bd 1b14 b1bd 74d9 053e

onnx::LSTM_116 f4 [1, 256]
0.13855918 0.15511721 0.20265819 0.13836305 0.019951211 -0.06326612 0.10290113 -0.05790823
0.006483628 -0.075063676 0.18954799 -0.013037881 -0.06515435 0.22346807 0.16491775 0.12496939
-0.09862058 -0.03200829 0.05248477 0.014857268 0.073328055 0.043446712 -0.1453585 0.17062029
0.19215281 0.033001374 0.13458125 0.020549232 -0.00032834877 -0.051573843 -0.134587 0.124324724
-0.08379227 -0.011628667 0.014673191 0.16983134 0.2654056 -0.13179086 0.12047914 0.21244237
0.17625456 -0.14215194 -0.082294054 0.05409106 -0.013914029 0.22971345 -0.0052112173 -0.04103121
0.10898331 -0.009120915 0.1105002 0.17339036 -0.03210967 0.020282691 0.17974752 0.07277222
0.09763027 -0.019931398 -0.1138761 -0.096401766 0.18569818 0.02922846 0.07915348 0.17154913
-0.036091737 -0.025195474 -0.052877516 -0.055972364 0.19372796 -0.15964313 -0.069158904 -0.037170112
0.19087195 -0.028454063 0.009122611 0.09762328 -0.059100267 -0.05627591 0.12689246 -0.038661387
-0.05680138 0.10337535 0.16777503 0.134238 0.044425886 0.22972022 0.2038005 0.1476038
0.11636945 -0.1078175 -0.015089423 0.09861532 0.050496373 0.05252202 -0.076983996 0.0003524978
0.09237043 -0.04026209 -0.1310853 -0.035428923 0.01096616 0.15549599 -0.08183168 0.19214669
-0.078893736 0.08566149 0.059864506 0.0664614 0.00017009632 0.034082375 -0.11465842 -0.033956252
-0.0062021078 0.1412779 0.11959868 0.087034665 -0.15236296 -0.18617488 0.035939153 0.06308088
0.008762126 -0.17900558 -0.13541882 0.17752443 0.11865584 -0.031418543 -0.004874604 0.106003806
0.0113120405 -0.0077483044 0.13813673 0.16840144 0.14924371 0.09838428 0.01941356 -0.037105646
-0.09546049 0.114830114 -0.1255535 0.13143572 0.049806077 0.02632867 0.04220097 0.085182294
-0.04623811 0.10122383 0.14928082 0.01774594 0.12910624 0.13807088 -0.04796248 -0.06941748
0.18698148 0.058644798 0.06764113 -0.108201265 0.12615307 0.030676829 0.02087201 -0.032278668
0.17941767 0.22054882 0.1388916 0.08630019 0.26974317 0.054355416 0.15741716 0.016696438
0.17971493 0.10948427 -0.07335385 0.13099131 0.24962892 0.04212683 0.13020524 -0.03568103
-0.09892248 -0.058156066 0.21413192 0.06592654 0.14973241 0.07946413 0.040983424 0.10026562
0.13952233 0.12662303 -0.075782776 0.035228252 0.21279138 0.08161707 0.09329939 0.09049663
-0.09409552 0.16292907 -0.062301956 0.21939756 -0.011730679 -0.099590816 0.19519065 -0.109525196
0.061078794 0.13524403 0.18009968 0.17403258 0.13284607 0.102670744 0.087869935 0.10641799
0.14811647 0.065828994 0.10437237 0.065920256 0.07161403 0.21110107 -0.13368368 0.09329812
0.27093896 -0.026085671 -0.048714526 -0.073062554 0.11976166 0.08584282 0.07165889 0.08559507
-0.13954349 0.12599063 -0.16718136 0.114317186 0.1048927 -0.05095039 0.1349307 -0.071048364
-0.15727398 0.16590112 0.0547484 -0.060973644 -0.15084347 -0.13748448 -0.070732 -0.15208273
-0.026194448 -0.061841954 -0.13918221 0.04772708 0.114890605 0.078447804 0.058378115 -0.015083657
-0.18918948 -0.10136485 -0.13160294 -0.11741391 -0.1645553 -0.09241383 -0.09040395 0.02835834
00000000: 75e2 0d3e 0cd7 1e3e a185 4f3e 0baf 0d3e
00000010: b970 a33c ab91 81bd d4bd d23d 2e31 6dbd
00000020: 9d74 d43b fcba 99bd de18 423e d69c 55bc
00000030: a56f 85bd d0d4 643e 33e0 283e f4ef ff3d
00000040: 96f9 c9bd 201b 03bd 45fa 563d e66b 733c
00000050: 052d 963d 2ef5 313d dcd8 14be 16b7 2e3e
00000060: b5c3 443e 732c 073d abcf 093e dd56 a83c
00000070: 3a26 acb9 183f 53bd 2dd1 09be f69d fe3d
00000080: 489b abbd 2a86 3ebc d367 703c 44e8 2d3e
00000090: 3ee3 873e 2ff4 06be c4bd f63d 7e8a 593e
000000a0: 137c 343e 4790 11be c989 a8bd 968e 5d3d
000000b0: abf7 63bc 013a 6b3e dcc2 aabb 5810 28bd
000000c0: a432 df3d e46f 15bc ee4d e23d 3e8d 313e
000000d0: 6e85 03bd e327 a63c bc0f 383e 9a09 953d
000000e0: 61f2 c73d 2c47 a3bc df37 e9bd 4a6e c5bd
000000f0: aa27 3e3e 8670 ef3c 381b a23d 93aa 2f3e
00000100: eed4 13bd bd66 cebc 1896 58bd 4743 65bd
00000110: 9f60 463e 7d79 23be 2fa3 8dbd b03f 18bd
00000120: f073 433e 7f18 e9bc 0177 153c b7ee c73d
00000130: 1f13 72bd 9281 66bd 19f0 013e 675b 1ebd
00000140: 90a8 68bd 75b6 d33d 38cd 2b3e b075 093e
00000150: ebf7 353d c73b 6b3e 14b1 503e 7325 173e
00000160: 1b53 ee3d 6ccf dcbd a139 77bc d4f6 c93d
00000170: 49d5 4e3d 5421 573d c9a9 9dbd 74cf b839
00000180: b52c bd3d dce9 24bd 3a3b 06be eb1d 11bd
00000190: 69ab 333c 573a 1f3e 5e97 a7bd 1ac2 443e
000001a0: 0a93 a1bd 4b6f af3d 7c34 753d ea1c 883d
000001b0: e25b 3239 f699 0b3d 09d2 eabd b615 0bbd
000001c0: 0d3b cbbb 27ab 103e 27f0 f43d 3b3f b23d
000001d0: 0905 1cbe a1a4 3ebe ef34 133d 8c30 813d
000001e0: 058f 0f3c 3d4d 37be 3bab 0abe f7c8 353e
000001f0: d501 f33d bbb0 00bd 24bb 9fbb 8618 d93d
00000200: 2356 393c 7de5 fdbb b773 0d3e 6d71 2c3e
00000210: 58d3 183e b37d c93d 3009 9f3c 17fc 17bd
00000220: ca80 c3bd 0d2c eb3d 1991 00be 1697 063e
00000230: 7501 4c3d 39af d73c edda 2c3d 0e74 ae3d
00000240: 2c64 3dbd 704e cf3d 12dd 183e ef5f 913c
00000250: 6d34 043e 7462 0d3e 4e74 44bd c02a 8ebd
00000260: 1378 3f3e 8735 703d 6f87 8a3d a098 ddbd
00000270: 452e 013e f94d fb3c c7fb aa3c a336 04bd
00000280: 44b9 373e 8dd7 613e 9939 0e3e 27be b03d
00000290: c71b 8a3e c9a3 5e3d f731 213e f8c6 883c
000002a0: 3107 383e 4a39 e03d 8b3a 96bd 9622 063e
000002b0: b99e 7f3e 2f8d 2c3d 8654 053e 4626 12bd
000002c0: df97 cabd 0e35 6ebd 6645 5b3e 7e04 873d
000002d0: 7453 193e 17be a23d 3cde 273d 1058 cd3d
000002e0: f1de 0e3e 78a9 013e 0034 9bbd 804b 103d
000002f0: fce5 593e da26 a73d c013 bf3d 4c56 b93d
00000300: 27b5 c0bd e1d6 263e 5630 7fbd c1a9 603e
00000310: 0932 40bc 45f6 cbbd 0fe0 473e bf4e e0bd
00000320: c22d 7a3d 697d 0a3e 0d6c 383e 9935 323e
00000330: cd08 083e 0a45 d23d 27f5 b33d adf1 d93d
00000340: d8ab 173e 5ad1 863d 2ec1 d53d 3301 873d
00000350: 60aa 923d e12a 583e 60e4 08be 1613 bf3d
00000360: 83b8 8a3e 9eb1 d5bc e288 47bd d2a1 95bd
00000370: 9a45 f53d 5cce af3d e5c1 923d 784c af3d
00000380: 7de4 0ebe b003 013e 9731 2bbe 211f ea3d
00000390: fcd1 d63d 5bb1 50bd 462b 0a3e ce81 91bd
000003a0: 6e0c 21be fce1 293e dc3f 603d 80bf 79bd
000003b0: b676 1abe bbc8 0cbe f0db 90bd 93bb 1bbe
000003c0: bd95 d6bc fd4d 7dbd c885 0ebe 787d 433d
000003d0: c44b eb3d 3ea9 a03d e41d 6f3d 7121 77bc
000003e0: e3ba 41be 6098 cfbd ecc2 06be b476 f0bd
000003f0: 2f81 28be 7643 bdbd b525 b9bd c04f e83c

onnx::MatMul_117 f4 [32, 1]
0.069244206 -0.017782228 0.02646154 -0.08276084 0.112535655 -0.073689215 0.05149134 0.11392074
-0.054222252 -0.046775848 -0.13882507 0.065428734 0.0040721437 0.15835875 -0.17168431 -0.1281507
-0.16587108 -0.21925803 -0.13404602 0.05171188 -0.114940934 0.17432773 0.1847484 0.12437001
-0.25710627 -0.102423795 -0.08228461 -0.18301557 0.10509893 0.05235612 0.14166312 -0.023584276
00000000: e8cf 8d3d 09ac 91bc dfc5 d83c 847e a9bd
00000010: 1879 e63d 5fea 96bd 95e8 523d 474f e93d
00000020: 2718 5ebd 0898 3fbd 2928 0ebe 80ff 853d
00000030: 9e6f 853b cc28 223e 03ce 2fbe f039 03be
00000040: 1cda 29be 2d85 60be 5c43 09be d6cf 533d
00000050: 2766 ebbd f882 323e af2e 3d3e b4b5 fe3d
00000060: 6fa3 83be 91c3 d1bd d584 a8bd 6f68 3bbe
00000070: 1c3e d73d 5f73 563d 2310 113e d033 c1bc
